{"format": "layers-model", "generatedBy": "keras v2.2.4-tf", "convertedBy": "TensorFlow.js Converter v1.7.4r1", "modelTopology": {"keras_version": "2.2.4-tf", "backend": "tensorflow", "model_config": {"class_name": "Model", "config": {"name": "model", "layers": [{"class_name": "InputLayer", "config": {"batch_input_shape": [null, 224, 224, 3], "dtype": "float32", "sparse": false, "ragged": false, "name": "input_1"}, "name": "input_1", "inbound_nodes": []}, {"class_name": "ZeroPadding2D", "config": {"name": "Conv1_pad", "trainable": false, "dtype": "float32", "padding": [[0, 1], [0, 1]], "data_format": "channels_last"}, "name": "Conv1_pad", "inbound_nodes": [[["input_1", 0, 0, {}]]]}, {"class_name": "Conv2D", "config": {"name": "Conv1", "trainable": false, "dtype": "float32", "filters": 32, "kernel_size": [3, 3], "strides": [2, 2], "padding": "valid", "data_format": "channels_last", "dilation_rate": [1, 1], "activation": "linear", "use_bias": false, "kernel_initializer": {"class_name": "GlorotUniform", "config": {"seed": null}}, "bias_initializer": {"class_name": "Zeros", "config": {}}, "kernel_regularizer": null, "bias_regularizer": null, "activity_regularizer": null, "kernel_constraint": null, "bias_constraint": null}, "name": "Conv1", "inbound_nodes": [[["Conv1_pad", 0, 0, {}]]]}, {"class_name": "BatchNormalization", "config": {"name": "bn_Conv1", "trainable": false, "dtype": "float32", "axis": [3], "momentum": 0.999, "epsilon": 0.001, "center": true, "scale": true, "beta_initializer": {"class_name": "Zeros", "config": {}}, "gamma_initializer": {"class_name": "Ones", "config": {}}, "moving_mean_initializer": {"class_name": "Zeros", "config": {}}, "moving_variance_initializer": {"class_name": "Ones", "config": {}}, "beta_regularizer": null, "gamma_regularizer": null, "beta_constraint": null, "gamma_constraint": null}, "name": "bn_Conv1", "inbound_nodes": [[["Conv1", 0, 0, {}]]]}, {"class_name": "ReLU", "config": {"name": "Conv1_relu", "trainable": false, "dtype": "float32", "max_value": 6.0, "negative_slope": 0.0, "threshold": 0.0}, "name": "Conv1_relu", "inbound_nodes": [[["bn_Conv1", 0, 0, {}]]]}, {"class_name": "DepthwiseConv2D", "config": {"name": "expanded_conv_depthwise", "trainable": false, "dtype": "float32", "kernel_size": [3, 3], "strides": [1, 1], "padding": "same", "data_format": "channels_last", "dilation_rate": [1, 1], "activation": "linear", "use_bias": false, "bias_initializer": {"class_name": "Zeros", "config": {}}, "bias_regularizer": null, "activity_regularizer": null, "bias_constraint": null, "depth_multiplier": 1, "depthwise_initializer": {"class_name": "GlorotUniform", "config": {"seed": null}}, "depthwise_regularizer": null, "depthwise_constraint": null}, "name": "expanded_conv_depthwise", "inbound_nodes": [[["Conv1_relu", 0, 0, {}]]]}, {"class_name": "BatchNormalization", "config": {"name": "expanded_conv_depthwise_BN", "trainable": false, "dtype": "float32", "axis": [3], "momentum": 0.999, "epsilon": 0.001, "center": true, "scale": true, "beta_initializer": {"class_name": "Zeros", "config": {}}, "gamma_initializer": {"class_name": "Ones", "config": {}}, "moving_mean_initializer": {"class_name": "Zeros", "config": {}}, "moving_variance_initializer": {"class_name": "Ones", "config": {}}, "beta_regularizer": null, "gamma_regularizer": null, "beta_constraint": null, "gamma_constraint": null}, "name": "expanded_conv_depthwise_BN", "inbound_nodes": [[["expanded_conv_depthwise", 0, 0, {}]]]}, {"class_name": "ReLU", "config": {"name": "expanded_conv_depthwise_relu", "trainable": false, "dtype": "float32", "max_value": 6.0, "negative_slope": 0.0, "threshold": 0.0}, "name": "expanded_conv_depthwise_relu", "inbound_nodes": [[["expanded_conv_depthwise_BN", 0, 0, {}]]]}, {"class_name": "Conv2D", "config": {"name": "expanded_conv_project", "trainable": false, "dtype": "float32", "filters": 16, "kernel_size": [1, 1], "strides": [1, 1], "padding": "same", "data_format": "channels_last", "dilation_rate": [1, 1], "activation": "linear", "use_bias": false, "kernel_initializer": {"class_name": "GlorotUniform", "config": {"seed": null}}, "bias_initializer": {"class_name": "Zeros", "config": {}}, "kernel_regularizer": null, "bias_regularizer": null, "activity_regularizer": null, "kernel_constraint": null, "bias_constraint": null}, "name": "expanded_conv_project", "inbound_nodes": [[["expanded_conv_depthwise_relu", 0, 0, {}]]]}, {"class_name": "BatchNormalization", "config": {"name": "expanded_conv_project_BN", "trainable": false, "dtype": "float32", "axis": [3], "momentum": 0.999, "epsilon": 0.001, "center": true, "scale": true, "beta_initializer": {"class_name": "Zeros", "config": {}}, "gamma_initializer": {"class_name": "Ones", "config": {}}, "moving_mean_initializer": {"class_name": "Zeros", "config": {}}, "moving_variance_initializer": {"class_name": "Ones", "config": {}}, "beta_regularizer": null, "gamma_regularizer": null, "beta_constraint": null, "gamma_constraint": null}, "name": "expanded_conv_project_BN", "inbound_nodes": [[["expanded_conv_project", 0, 0, {}]]]}, {"class_name": "Conv2D", "config": {"name": "block_1_expand", "trainable": false, "dtype": "float32", "filters": 96, "kernel_size": [1, 1], "strides": [1, 1], "padding": "same", "data_format": "channels_last", "dilation_rate": [1, 1], "activation": "linear", "use_bias": false, "kernel_initializer": {"class_name": "GlorotUniform", "config": {"seed": null}}, "bias_initializer": {"class_name": "Zeros", "config": {}}, "kernel_regularizer": null, "bias_regularizer": null, "activity_regularizer": null, "kernel_constraint": null, "bias_constraint": null}, "name": "block_1_expand", "inbound_nodes": [[["expanded_conv_project_BN", 0, 0, {}]]]}, {"class_name": "BatchNormalization", "config": {"name": "block_1_expand_BN", "trainable": false, "dtype": "float32", "axis": [3], "momentum": 0.999, "epsilon": 0.001, "center": true, "scale": true, "beta_initializer": {"class_name": "Zeros", "config": {}}, "gamma_initializer": {"class_name": "Ones", "config": {}}, "moving_mean_initializer": {"class_name": "Zeros", "config": {}}, "moving_variance_initializer": {"class_name": "Ones", "config": {}}, "beta_regularizer": null, "gamma_regularizer": null, "beta_constraint": null, "gamma_constraint": null}, "name": "block_1_expand_BN", "inbound_nodes": [[["block_1_expand", 0, 0, {}]]]}, {"class_name": "ReLU", "config": {"name": "block_1_expand_relu", "trainable": false, "dtype": "float32", "max_value": 6.0, "negative_slope": 0.0, "threshold": 0.0}, "name": "block_1_expand_relu", "inbound_nodes": [[["block_1_expand_BN", 0, 0, {}]]]}, {"class_name": "ZeroPadding2D", "config": {"name": "block_1_pad", "trainable": false, "dtype": "float32", "padding": [[0, 1], [0, 1]], "data_format": "channels_last"}, "name": "block_1_pad", "inbound_nodes": [[["block_1_expand_relu", 0, 0, {}]]]}, {"class_name": "DepthwiseConv2D", "config": {"name": "block_1_depthwise", "trainable": false, "dtype": "float32", "kernel_size": [3, 3], "strides": [2, 2], "padding": "valid", "data_format": "channels_last", "dilation_rate": [1, 1], "activation": "linear", "use_bias": false, "bias_initializer": {"class_name": "Zeros", "config": {}}, "bias_regularizer": null, "activity_regularizer": null, "bias_constraint": null, "depth_multiplier": 1, "depthwise_initializer": {"class_name": "GlorotUniform", "config": {"seed": null}}, "depthwise_regularizer": null, "depthwise_constraint": null}, "name": "block_1_depthwise", "inbound_nodes": [[["block_1_pad", 0, 0, {}]]]}, {"class_name": "BatchNormalization", "config": {"name": "block_1_depthwise_BN", "trainable": false, "dtype": "float32", "axis": [3], "momentum": 0.999, "epsilon": 0.001, "center": true, "scale": true, "beta_initializer": {"class_name": "Zeros", "config": {}}, "gamma_initializer": {"class_name": "Ones", "config": {}}, "moving_mean_initializer": {"class_name": "Zeros", "config": {}}, "moving_variance_initializer": {"class_name": "Ones", "config": {}}, "beta_regularizer": null, "gamma_regularizer": null, "beta_constraint": null, "gamma_constraint": null}, "name": "block_1_depthwise_BN", "inbound_nodes": [[["block_1_depthwise", 0, 0, {}]]]}, {"class_name": "ReLU", "config": {"name": "block_1_depthwise_relu", "trainable": false, "dtype": "float32", "max_value": 6.0, "negative_slope": 0.0, "threshold": 0.0}, "name": "block_1_depthwise_relu", "inbound_nodes": [[["block_1_depthwise_BN", 0, 0, {}]]]}, {"class_name": "Conv2D", "config": {"name": "block_1_project", "trainable": false, "dtype": "float32", "filters": 24, "kernel_size": [1, 1], "strides": [1, 1], "padding": "same", "data_format": "channels_last", "dilation_rate": [1, 1], "activation": "linear", "use_bias": false, "kernel_initializer": {"class_name": "GlorotUniform", "config": {"seed": null}}, "bias_initializer": {"class_name": "Zeros", "config": {}}, "kernel_regularizer": null, "bias_regularizer": null, "activity_regularizer": null, "kernel_constraint": null, "bias_constraint": null}, "name": "block_1_project", "inbound_nodes": [[["block_1_depthwise_relu", 0, 0, {}]]]}, {"class_name": "BatchNormalization", "config": {"name": "block_1_project_BN", "trainable": false, "dtype": "float32", "axis": [3], "momentum": 0.999, "epsilon": 0.001, "center": true, "scale": true, "beta_initializer": {"class_name": "Zeros", "config": {}}, "gamma_initializer": {"class_name": "Ones", "config": {}}, "moving_mean_initializer": {"class_name": "Zeros", "config": {}}, "moving_variance_initializer": {"class_name": "Ones", "config": {}}, "beta_regularizer": null, "gamma_regularizer": null, "beta_constraint": null, "gamma_constraint": null}, "name": "block_1_project_BN", "inbound_nodes": [[["block_1_project", 0, 0, {}]]]}, {"class_name": "Conv2D", "config": {"name": "block_2_expand", "trainable": false, "dtype": "float32", "filters": 144, "kernel_size": [1, 1], "strides": [1, 1], "padding": "same", "data_format": "channels_last", "dilation_rate": [1, 1], "activation": "linear", "use_bias": false, "kernel_initializer": {"class_name": "GlorotUniform", "config": {"seed": null}}, "bias_initializer": {"class_name": "Zeros", "config": {}}, "kernel_regularizer": null, "bias_regularizer": null, "activity_regularizer": null, "kernel_constraint": null, "bias_constraint": null}, "name": "block_2_expand", "inbound_nodes": [[["block_1_project_BN", 0, 0, {}]]]}, {"class_name": "BatchNormalization", "config": {"name": "block_2_expand_BN", "trainable": true, "dtype": "float32", "axis": [3], "momentum": 0.999, "epsilon": 0.001, "center": true, "scale": true, "beta_initializer": {"class_name": "Zeros", "config": {}}, "gamma_initializer": {"class_name": "Ones", "config": {}}, "moving_mean_initializer": {"class_name": "Zeros", "config": {}}, "moving_variance_initializer": {"class_name": "Ones", "config": {}}, "beta_regularizer": null, "gamma_regularizer": null, "beta_constraint": null, "gamma_constraint": null}, "name": "block_2_expand_BN", "inbound_nodes": [[["block_2_expand", 0, 0, {}]]]}, {"class_name": "ReLU", "config": {"name": "block_2_expand_relu", "trainable": true, "dtype": "float32", "max_value": 6.0, "negative_slope": 0.0, "threshold": 0.0}, "name": "block_2_expand_relu", "inbound_nodes": [[["block_2_expand_BN", 0, 0, {}]]]}, {"class_name": "DepthwiseConv2D", "config": {"name": "block_2_depthwise", "trainable": true, "dtype": "float32", "kernel_size": [3, 3], "strides": [1, 1], "padding": "same", "data_format": "channels_last", "dilation_rate": [1, 1], "activation": "linear", "use_bias": false, "bias_initializer": {"class_name": "Zeros", "config": {}}, "bias_regularizer": null, "activity_regularizer": null, "bias_constraint": null, "depth_multiplier": 1, "depthwise_initializer": {"class_name": "GlorotUniform", "config": {"seed": null}}, "depthwise_regularizer": null, "depthwise_constraint": null}, "name": "block_2_depthwise", "inbound_nodes": [[["block_2_expand_relu", 0, 0, {}]]]}, {"class_name": "BatchNormalization", "config": {"name": "block_2_depthwise_BN", "trainable": true, "dtype": "float32", "axis": [3], "momentum": 0.999, "epsilon": 0.001, "center": true, "scale": true, "beta_initializer": {"class_name": "Zeros", "config": {}}, "gamma_initializer": {"class_name": "Ones", "config": {}}, "moving_mean_initializer": {"class_name": "Zeros", "config": {}}, "moving_variance_initializer": {"class_name": "Ones", "config": {}}, "beta_regularizer": null, "gamma_regularizer": null, "beta_constraint": null, "gamma_constraint": null}, "name": "block_2_depthwise_BN", "inbound_nodes": [[["block_2_depthwise", 0, 0, {}]]]}, {"class_name": "ReLU", "config": {"name": "block_2_depthwise_relu", "trainable": true, "dtype": "float32", "max_value": 6.0, "negative_slope": 0.0, "threshold": 0.0}, "name": "block_2_depthwise_relu", "inbound_nodes": [[["block_2_depthwise_BN", 0, 0, {}]]]}, {"class_name": "Conv2D", "config": {"name": "block_2_project", "trainable": true, "dtype": "float32", "filters": 24, "kernel_size": [1, 1], "strides": [1, 1], "padding": "same", "data_format": "channels_last", "dilation_rate": [1, 1], "activation": "linear", "use_bias": false, "kernel_initializer": {"class_name": "GlorotUniform", "config": {"seed": null}}, "bias_initializer": {"class_name": "Zeros", "config": {}}, "kernel_regularizer": null, "bias_regularizer": null, "activity_regularizer": null, "kernel_constraint": null, "bias_constraint": null}, "name": "block_2_project", "inbound_nodes": [[["block_2_depthwise_relu", 0, 0, {}]]]}, {"class_name": "BatchNormalization", "config": {"name": "block_2_project_BN", "trainable": true, "dtype": "float32", "axis": [3], "momentum": 0.999, "epsilon": 0.001, "center": true, "scale": true, "beta_initializer": {"class_name": "Zeros", "config": {}}, "gamma_initializer": {"class_name": "Ones", "config": {}}, "moving_mean_initializer": {"class_name": "Zeros", "config": {}}, "moving_variance_initializer": {"class_name": "Ones", "config": {}}, "beta_regularizer": null, "gamma_regularizer": null, "beta_constraint": null, "gamma_constraint": null}, "name": "block_2_project_BN", "inbound_nodes": [[["block_2_project", 0, 0, {}]]]}, {"class_name": "Add", "config": {"name": "block_2_add", "trainable": true, "dtype": "float32"}, "name": "block_2_add", "inbound_nodes": [[["block_1_project_BN", 0, 0, {}], ["block_2_project_BN", 0, 0, {}]]]}, {"class_name": "Conv2D", "config": {"name": "block_3_expand", "trainable": true, "dtype": "float32", "filters": 144, "kernel_size": [1, 1], "strides": [1, 1], "padding": "same", "data_format": "channels_last", "dilation_rate": [1, 1], "activation": "linear", "use_bias": false, "kernel_initializer": {"class_name": "GlorotUniform", "config": {"seed": null}}, "bias_initializer": {"class_name": "Zeros", "config": {}}, "kernel_regularizer": null, "bias_regularizer": null, "activity_regularizer": null, "kernel_constraint": null, "bias_constraint": null}, "name": "block_3_expand", "inbound_nodes": [[["block_2_add", 0, 0, {}]]]}, {"class_name": "BatchNormalization", "config": {"name": "block_3_expand_BN", "trainable": true, "dtype": "float32", "axis": [3], "momentum": 0.999, "epsilon": 0.001, "center": true, "scale": true, "beta_initializer": {"class_name": "Zeros", "config": {}}, "gamma_initializer": {"class_name": "Ones", "config": {}}, "moving_mean_initializer": {"class_name": "Zeros", "config": {}}, "moving_variance_initializer": {"class_name": "Ones", "config": {}}, "beta_regularizer": null, "gamma_regularizer": null, "beta_constraint": null, "gamma_constraint": null}, "name": "block_3_expand_BN", "inbound_nodes": [[["block_3_expand", 0, 0, {}]]]}, {"class_name": "ReLU", "config": {"name": "block_3_expand_relu", "trainable": true, "dtype": "float32", "max_value": 6.0, "negative_slope": 0.0, "threshold": 0.0}, "name": "block_3_expand_relu", "inbound_nodes": [[["block_3_expand_BN", 0, 0, {}]]]}, {"class_name": "ZeroPadding2D", "config": {"name": "block_3_pad", "trainable": true, "dtype": "float32", "padding": [[0, 1], [0, 1]], "data_format": "channels_last"}, "name": "block_3_pad", "inbound_nodes": [[["block_3_expand_relu", 0, 0, {}]]]}, {"class_name": "DepthwiseConv2D", "config": {"name": "block_3_depthwise", "trainable": true, "dtype": "float32", "kernel_size": [3, 3], "strides": [2, 2], "padding": "valid", "data_format": "channels_last", "dilation_rate": [1, 1], "activation": "linear", "use_bias": false, "bias_initializer": {"class_name": "Zeros", "config": {}}, "bias_regularizer": null, "activity_regularizer": null, "bias_constraint": null, "depth_multiplier": 1, "depthwise_initializer": {"class_name": "GlorotUniform", "config": {"seed": null}}, "depthwise_regularizer": null, "depthwise_constraint": null}, "name": "block_3_depthwise", "inbound_nodes": [[["block_3_pad", 0, 0, {}]]]}, {"class_name": "BatchNormalization", "config": {"name": "block_3_depthwise_BN", "trainable": true, "dtype": "float32", "axis": [3], "momentum": 0.999, "epsilon": 0.001, "center": true, "scale": true, "beta_initializer": {"class_name": "Zeros", "config": {}}, "gamma_initializer": {"class_name": "Ones", "config": {}}, "moving_mean_initializer": {"class_name": "Zeros", "config": {}}, "moving_variance_initializer": {"class_name": "Ones", "config": {}}, "beta_regularizer": null, "gamma_regularizer": null, "beta_constraint": null, "gamma_constraint": null}, "name": "block_3_depthwise_BN", "inbound_nodes": [[["block_3_depthwise", 0, 0, {}]]]}, {"class_name": "ReLU", "config": {"name": "block_3_depthwise_relu", "trainable": true, "dtype": "float32", "max_value": 6.0, "negative_slope": 0.0, "threshold": 0.0}, "name": "block_3_depthwise_relu", "inbound_nodes": [[["block_3_depthwise_BN", 0, 0, {}]]]}, {"class_name": "Conv2D", "config": {"name": "block_3_project", "trainable": true, "dtype": "float32", "filters": 32, "kernel_size": [1, 1], "strides": [1, 1], "padding": "same", "data_format": "channels_last", "dilation_rate": [1, 1], "activation": "linear", "use_bias": false, "kernel_initializer": {"class_name": "GlorotUniform", "config": {"seed": null}}, "bias_initializer": {"class_name": "Zeros", "config": {}}, "kernel_regularizer": null, "bias_regularizer": null, "activity_regularizer": null, "kernel_constraint": null, "bias_constraint": null}, "name": "block_3_project", "inbound_nodes": [[["block_3_depthwise_relu", 0, 0, {}]]]}, {"class_name": "BatchNormalization", "config": {"name": "block_3_project_BN", "trainable": true, "dtype": "float32", "axis": [3], "momentum": 0.999, "epsilon": 0.001, "center": true, "scale": true, "beta_initializer": {"class_name": "Zeros", "config": {}}, "gamma_initializer": {"class_name": "Ones", "config": {}}, "moving_mean_initializer": {"class_name": "Zeros", "config": {}}, "moving_variance_initializer": {"class_name": "Ones", "config": {}}, "beta_regularizer": null, "gamma_regularizer": null, "beta_constraint": null, "gamma_constraint": null}, "name": "block_3_project_BN", "inbound_nodes": [[["block_3_project", 0, 0, {}]]]}, {"class_name": "Conv2D", "config": {"name": "block_4_expand", "trainable": true, "dtype": "float32", "filters": 192, "kernel_size": [1, 1], "strides": [1, 1], "padding": "same", "data_format": "channels_last", "dilation_rate": [1, 1], "activation": "linear", "use_bias": false, "kernel_initializer": {"class_name": "GlorotUniform", "config": {"seed": null}}, "bias_initializer": {"class_name": "Zeros", "config": {}}, "kernel_regularizer": null, "bias_regularizer": null, "activity_regularizer": null, "kernel_constraint": null, "bias_constraint": null}, "name": "block_4_expand", "inbound_nodes": [[["block_3_project_BN", 0, 0, {}]]]}, {"class_name": "BatchNormalization", "config": {"name": "block_4_expand_BN", "trainable": true, "dtype": "float32", "axis": [3], "momentum": 0.999, "epsilon": 0.001, "center": true, "scale": true, "beta_initializer": {"class_name": "Zeros", "config": {}}, "gamma_initializer": {"class_name": "Ones", "config": {}}, "moving_mean_initializer": {"class_name": "Zeros", "config": {}}, "moving_variance_initializer": {"class_name": "Ones", "config": {}}, "beta_regularizer": null, "gamma_regularizer": null, "beta_constraint": null, "gamma_constraint": null}, "name": "block_4_expand_BN", "inbound_nodes": [[["block_4_expand", 0, 0, {}]]]}, {"class_name": "ReLU", "config": {"name": "block_4_expand_relu", "trainable": true, "dtype": "float32", "max_value": 6.0, "negative_slope": 0.0, "threshold": 0.0}, "name": "block_4_expand_relu", "inbound_nodes": [[["block_4_expand_BN", 0, 0, {}]]]}, {"class_name": "DepthwiseConv2D", "config": {"name": "block_4_depthwise", "trainable": true, "dtype": "float32", "kernel_size": [3, 3], "strides": [1, 1], "padding": "same", "data_format": "channels_last", "dilation_rate": [1, 1], "activation": "linear", "use_bias": false, "bias_initializer": {"class_name": "Zeros", "config": {}}, "bias_regularizer": null, "activity_regularizer": null, "bias_constraint": null, "depth_multiplier": 1, "depthwise_initializer": {"class_name": "GlorotUniform", "config": {"seed": null}}, "depthwise_regularizer": null, "depthwise_constraint": null}, "name": "block_4_depthwise", "inbound_nodes": [[["block_4_expand_relu", 0, 0, {}]]]}, {"class_name": "BatchNormalization", "config": {"name": "block_4_depthwise_BN", "trainable": true, "dtype": "float32", "axis": [3], "momentum": 0.999, "epsilon": 0.001, "center": true, "scale": true, "beta_initializer": {"class_name": "Zeros", "config": {}}, "gamma_initializer": {"class_name": "Ones", "config": {}}, "moving_mean_initializer": {"class_name": "Zeros", "config": {}}, "moving_variance_initializer": {"class_name": "Ones", "config": {}}, "beta_regularizer": null, "gamma_regularizer": null, "beta_constraint": null, "gamma_constraint": null}, "name": "block_4_depthwise_BN", "inbound_nodes": [[["block_4_depthwise", 0, 0, {}]]]}, {"class_name": "ReLU", "config": {"name": "block_4_depthwise_relu", "trainable": true, "dtype": "float32", "max_value": 6.0, "negative_slope": 0.0, "threshold": 0.0}, "name": "block_4_depthwise_relu", "inbound_nodes": [[["block_4_depthwise_BN", 0, 0, {}]]]}, {"class_name": "Conv2D", "config": {"name": "block_4_project", "trainable": true, "dtype": "float32", "filters": 32, "kernel_size": [1, 1], "strides": [1, 1], "padding": "same", "data_format": "channels_last", "dilation_rate": [1, 1], "activation": "linear", "use_bias": false, "kernel_initializer": {"class_name": "GlorotUniform", "config": {"seed": null}}, "bias_initializer": {"class_name": "Zeros", "config": {}}, "kernel_regularizer": null, "bias_regularizer": null, "activity_regularizer": null, "kernel_constraint": null, "bias_constraint": null}, "name": "block_4_project", "inbound_nodes": [[["block_4_depthwise_relu", 0, 0, {}]]]}, {"class_name": "BatchNormalization", "config": {"name": "block_4_project_BN", "trainable": true, "dtype": "float32", "axis": [3], "momentum": 0.999, "epsilon": 0.001, "center": true, "scale": true, "beta_initializer": {"class_name": "Zeros", "config": {}}, "gamma_initializer": {"class_name": "Ones", "config": {}}, "moving_mean_initializer": {"class_name": "Zeros", "config": {}}, "moving_variance_initializer": {"class_name": "Ones", "config": {}}, "beta_regularizer": null, "gamma_regularizer": null, "beta_constraint": null, "gamma_constraint": null}, "name": "block_4_project_BN", "inbound_nodes": [[["block_4_project", 0, 0, {}]]]}, {"class_name": "Add", "config": {"name": "block_4_add", "trainable": true, "dtype": "float32"}, "name": "block_4_add", "inbound_nodes": [[["block_3_project_BN", 0, 0, {}], ["block_4_project_BN", 0, 0, {}]]]}, {"class_name": "Conv2D", "config": {"name": "block_5_expand", "trainable": true, "dtype": "float32", "filters": 192, "kernel_size": [1, 1], "strides": [1, 1], "padding": "same", "data_format": "channels_last", "dilation_rate": [1, 1], "activation": "linear", "use_bias": false, "kernel_initializer": {"class_name": "GlorotUniform", "config": {"seed": null}}, "bias_initializer": {"class_name": "Zeros", "config": {}}, "kernel_regularizer": null, "bias_regularizer": null, "activity_regularizer": null, "kernel_constraint": null, "bias_constraint": null}, "name": "block_5_expand", "inbound_nodes": [[["block_4_add", 0, 0, {}]]]}, {"class_name": "BatchNormalization", "config": {"name": "block_5_expand_BN", "trainable": true, "dtype": "float32", "axis": [3], "momentum": 0.999, "epsilon": 0.001, "center": true, "scale": true, "beta_initializer": {"class_name": "Zeros", "config": {}}, "gamma_initializer": {"class_name": "Ones", "config": {}}, "moving_mean_initializer": {"class_name": "Zeros", "config": {}}, "moving_variance_initializer": {"class_name": "Ones", "config": {}}, "beta_regularizer": null, "gamma_regularizer": null, "beta_constraint": null, "gamma_constraint": null}, "name": "block_5_expand_BN", "inbound_nodes": [[["block_5_expand", 0, 0, {}]]]}, {"class_name": "ReLU", "config": {"name": "block_5_expand_relu", "trainable": true, "dtype": "float32", "max_value": 6.0, "negative_slope": 0.0, "threshold": 0.0}, "name": "block_5_expand_relu", "inbound_nodes": [[["block_5_expand_BN", 0, 0, {}]]]}, {"class_name": "DepthwiseConv2D", "config": {"name": "block_5_depthwise", "trainable": true, "dtype": "float32", "kernel_size": [3, 3], "strides": [1, 1], "padding": "same", "data_format": "channels_last", "dilation_rate": [1, 1], "activation": "linear", "use_bias": false, "bias_initializer": {"class_name": "Zeros", "config": {}}, "bias_regularizer": null, "activity_regularizer": null, "bias_constraint": null, "depth_multiplier": 1, "depthwise_initializer": {"class_name": "GlorotUniform", "config": {"seed": null}}, "depthwise_regularizer": null, "depthwise_constraint": null}, "name": "block_5_depthwise", "inbound_nodes": [[["block_5_expand_relu", 0, 0, {}]]]}, {"class_name": "BatchNormalization", "config": {"name": "block_5_depthwise_BN", "trainable": true, "dtype": "float32", "axis": [3], "momentum": 0.999, "epsilon": 0.001, "center": true, "scale": true, "beta_initializer": {"class_name": "Zeros", "config": {}}, "gamma_initializer": {"class_name": "Ones", "config": {}}, "moving_mean_initializer": {"class_name": "Zeros", "config": {}}, "moving_variance_initializer": {"class_name": "Ones", "config": {}}, "beta_regularizer": null, "gamma_regularizer": null, "beta_constraint": null, "gamma_constraint": null}, "name": "block_5_depthwise_BN", "inbound_nodes": [[["block_5_depthwise", 0, 0, {}]]]}, {"class_name": "ReLU", "config": {"name": "block_5_depthwise_relu", "trainable": true, "dtype": "float32", "max_value": 6.0, "negative_slope": 0.0, "threshold": 0.0}, "name": "block_5_depthwise_relu", "inbound_nodes": [[["block_5_depthwise_BN", 0, 0, {}]]]}, {"class_name": "Conv2D", "config": {"name": "block_5_project", "trainable": true, "dtype": "float32", "filters": 32, "kernel_size": [1, 1], "strides": [1, 1], "padding": "same", "data_format": "channels_last", "dilation_rate": [1, 1], "activation": "linear", "use_bias": false, "kernel_initializer": {"class_name": "GlorotUniform", "config": {"seed": null}}, "bias_initializer": {"class_name": "Zeros", "config": {}}, "kernel_regularizer": null, "bias_regularizer": null, "activity_regularizer": null, "kernel_constraint": null, "bias_constraint": null}, "name": "block_5_project", "inbound_nodes": [[["block_5_depthwise_relu", 0, 0, {}]]]}, {"class_name": "BatchNormalization", "config": {"name": "block_5_project_BN", "trainable": true, "dtype": "float32", "axis": [3], "momentum": 0.999, "epsilon": 0.001, "center": true, "scale": true, "beta_initializer": {"class_name": "Zeros", "config": {}}, "gamma_initializer": {"class_name": "Ones", "config": {}}, "moving_mean_initializer": {"class_name": "Zeros", "config": {}}, "moving_variance_initializer": {"class_name": "Ones", "config": {}}, "beta_regularizer": null, "gamma_regularizer": null, "beta_constraint": null, "gamma_constraint": null}, "name": "block_5_project_BN", "inbound_nodes": [[["block_5_project", 0, 0, {}]]]}, {"class_name": "Add", "config": {"name": "block_5_add", "trainable": true, "dtype": "float32"}, "name": "block_5_add", "inbound_nodes": [[["block_4_add", 0, 0, {}], ["block_5_project_BN", 0, 0, {}]]]}, {"class_name": "Conv2D", "config": {"name": "block_6_expand", "trainable": true, "dtype": "float32", "filters": 192, "kernel_size": [1, 1], "strides": [1, 1], "padding": "same", "data_format": "channels_last", "dilation_rate": [1, 1], "activation": "linear", "use_bias": false, "kernel_initializer": {"class_name": "GlorotUniform", "config": {"seed": null}}, "bias_initializer": {"class_name": "Zeros", "config": {}}, "kernel_regularizer": null, "bias_regularizer": null, "activity_regularizer": null, "kernel_constraint": null, "bias_constraint": null}, "name": "block_6_expand", "inbound_nodes": [[["block_5_add", 0, 0, {}]]]}, {"class_name": "BatchNormalization", "config": {"name": "block_6_expand_BN", "trainable": true, "dtype": "float32", "axis": [3], "momentum": 0.999, "epsilon": 0.001, "center": true, "scale": true, "beta_initializer": {"class_name": "Zeros", "config": {}}, "gamma_initializer": {"class_name": "Ones", "config": {}}, "moving_mean_initializer": {"class_name": "Zeros", "config": {}}, "moving_variance_initializer": {"class_name": "Ones", "config": {}}, "beta_regularizer": null, "gamma_regularizer": null, "beta_constraint": null, "gamma_constraint": null}, "name": "block_6_expand_BN", "inbound_nodes": [[["block_6_expand", 0, 0, {}]]]}, {"class_name": "ReLU", "config": {"name": "block_6_expand_relu", "trainable": true, "dtype": "float32", "max_value": 6.0, "negative_slope": 0.0, "threshold": 0.0}, "name": "block_6_expand_relu", "inbound_nodes": [[["block_6_expand_BN", 0, 0, {}]]]}, {"class_name": "ZeroPadding2D", "config": {"name": "block_6_pad", "trainable": true, "dtype": "float32", "padding": [[0, 1], [0, 1]], "data_format": "channels_last"}, "name": "block_6_pad", "inbound_nodes": [[["block_6_expand_relu", 0, 0, {}]]]}, {"class_name": "DepthwiseConv2D", "config": {"name": "block_6_depthwise", "trainable": true, "dtype": "float32", "kernel_size": [3, 3], "strides": [2, 2], "padding": "valid", "data_format": "channels_last", "dilation_rate": [1, 1], "activation": "linear", "use_bias": false, "bias_initializer": {"class_name": "Zeros", "config": {}}, "bias_regularizer": null, "activity_regularizer": null, "bias_constraint": null, "depth_multiplier": 1, "depthwise_initializer": {"class_name": "GlorotUniform", "config": {"seed": null}}, "depthwise_regularizer": null, "depthwise_constraint": null}, "name": "block_6_depthwise", "inbound_nodes": [[["block_6_pad", 0, 0, {}]]]}, {"class_name": "BatchNormalization", "config": {"name": "block_6_depthwise_BN", "trainable": true, "dtype": "float32", "axis": [3], "momentum": 0.999, "epsilon": 0.001, "center": true, "scale": true, "beta_initializer": {"class_name": "Zeros", "config": {}}, "gamma_initializer": {"class_name": "Ones", "config": {}}, "moving_mean_initializer": {"class_name": "Zeros", "config": {}}, "moving_variance_initializer": {"class_name": "Ones", "config": {}}, "beta_regularizer": null, "gamma_regularizer": null, "beta_constraint": null, "gamma_constraint": null}, "name": "block_6_depthwise_BN", "inbound_nodes": [[["block_6_depthwise", 0, 0, {}]]]}, {"class_name": "ReLU", "config": {"name": "block_6_depthwise_relu", "trainable": true, "dtype": "float32", "max_value": 6.0, "negative_slope": 0.0, "threshold": 0.0}, "name": "block_6_depthwise_relu", "inbound_nodes": [[["block_6_depthwise_BN", 0, 0, {}]]]}, {"class_name": "Conv2D", "config": {"name": "block_6_project", "trainable": true, "dtype": "float32", "filters": 64, "kernel_size": [1, 1], "strides": [1, 1], "padding": "same", "data_format": "channels_last", "dilation_rate": [1, 1], "activation": "linear", "use_bias": false, "kernel_initializer": {"class_name": "GlorotUniform", "config": {"seed": null}}, "bias_initializer": {"class_name": "Zeros", "config": {}}, "kernel_regularizer": null, "bias_regularizer": null, "activity_regularizer": null, "kernel_constraint": null, "bias_constraint": null}, "name": "block_6_project", "inbound_nodes": [[["block_6_depthwise_relu", 0, 0, {}]]]}, {"class_name": "BatchNormalization", "config": {"name": "block_6_project_BN", "trainable": true, "dtype": "float32", "axis": [3], "momentum": 0.999, "epsilon": 0.001, "center": true, "scale": true, "beta_initializer": {"class_name": "Zeros", "config": {}}, "gamma_initializer": {"class_name": "Ones", "config": {}}, "moving_mean_initializer": {"class_name": "Zeros", "config": {}}, "moving_variance_initializer": {"class_name": "Ones", "config": {}}, "beta_regularizer": null, "gamma_regularizer": null, "beta_constraint": null, "gamma_constraint": null}, "name": "block_6_project_BN", "inbound_nodes": [[["block_6_project", 0, 0, {}]]]}, {"class_name": "Conv2D", "config": {"name": "block_7_expand", "trainable": true, "dtype": "float32", "filters": 384, "kernel_size": [1, 1], "strides": [1, 1], "padding": "same", "data_format": "channels_last", "dilation_rate": [1, 1], "activation": "linear", "use_bias": false, "kernel_initializer": {"class_name": "GlorotUniform", "config": {"seed": null}}, "bias_initializer": {"class_name": "Zeros", "config": {}}, "kernel_regularizer": null, "bias_regularizer": null, "activity_regularizer": null, "kernel_constraint": null, "bias_constraint": null}, "name": "block_7_expand", "inbound_nodes": [[["block_6_project_BN", 0, 0, {}]]]}, {"class_name": "BatchNormalization", "config": {"name": "block_7_expand_BN", "trainable": true, "dtype": "float32", "axis": [3], "momentum": 0.999, "epsilon": 0.001, "center": true, "scale": true, "beta_initializer": {"class_name": "Zeros", "config": {}}, "gamma_initializer": {"class_name": "Ones", "config": {}}, "moving_mean_initializer": {"class_name": "Zeros", "config": {}}, "moving_variance_initializer": {"class_name": "Ones", "config": {}}, "beta_regularizer": null, "gamma_regularizer": null, "beta_constraint": null, "gamma_constraint": null}, "name": "block_7_expand_BN", "inbound_nodes": [[["block_7_expand", 0, 0, {}]]]}, {"class_name": "ReLU", "config": {"name": "block_7_expand_relu", "trainable": true, "dtype": "float32", "max_value": 6.0, "negative_slope": 0.0, "threshold": 0.0}, "name": "block_7_expand_relu", "inbound_nodes": [[["block_7_expand_BN", 0, 0, {}]]]}, {"class_name": "DepthwiseConv2D", "config": {"name": "block_7_depthwise", "trainable": true, "dtype": "float32", "kernel_size": [3, 3], "strides": [1, 1], "padding": "same", "data_format": "channels_last", "dilation_rate": [1, 1], "activation": "linear", "use_bias": false, "bias_initializer": {"class_name": "Zeros", "config": {}}, "bias_regularizer": null, "activity_regularizer": null, "bias_constraint": null, "depth_multiplier": 1, "depthwise_initializer": {"class_name": "GlorotUniform", "config": {"seed": null}}, "depthwise_regularizer": null, "depthwise_constraint": null}, "name": "block_7_depthwise", "inbound_nodes": [[["block_7_expand_relu", 0, 0, {}]]]}, {"class_name": "BatchNormalization", "config": {"name": "block_7_depthwise_BN", "trainable": true, "dtype": "float32", "axis": [3], "momentum": 0.999, "epsilon": 0.001, "center": true, "scale": true, "beta_initializer": {"class_name": "Zeros", "config": {}}, "gamma_initializer": {"class_name": "Ones", "config": {}}, "moving_mean_initializer": {"class_name": "Zeros", "config": {}}, "moving_variance_initializer": {"class_name": "Ones", "config": {}}, "beta_regularizer": null, "gamma_regularizer": null, "beta_constraint": null, "gamma_constraint": null}, "name": "block_7_depthwise_BN", "inbound_nodes": [[["block_7_depthwise", 0, 0, {}]]]}, {"class_name": "ReLU", "config": {"name": "block_7_depthwise_relu", "trainable": true, "dtype": "float32", "max_value": 6.0, "negative_slope": 0.0, "threshold": 0.0}, "name": "block_7_depthwise_relu", "inbound_nodes": [[["block_7_depthwise_BN", 0, 0, {}]]]}, {"class_name": "Conv2D", "config": {"name": "block_7_project", "trainable": true, "dtype": "float32", "filters": 64, "kernel_size": [1, 1], "strides": [1, 1], "padding": "same", "data_format": "channels_last", "dilation_rate": [1, 1], "activation": "linear", "use_bias": false, "kernel_initializer": {"class_name": "GlorotUniform", "config": {"seed": null}}, "bias_initializer": {"class_name": "Zeros", "config": {}}, "kernel_regularizer": null, "bias_regularizer": null, "activity_regularizer": null, "kernel_constraint": null, "bias_constraint": null}, "name": "block_7_project", "inbound_nodes": [[["block_7_depthwise_relu", 0, 0, {}]]]}, {"class_name": "BatchNormalization", "config": {"name": "block_7_project_BN", "trainable": true, "dtype": "float32", "axis": [3], "momentum": 0.999, "epsilon": 0.001, "center": true, "scale": true, "beta_initializer": {"class_name": "Zeros", "config": {}}, "gamma_initializer": {"class_name": "Ones", "config": {}}, "moving_mean_initializer": {"class_name": "Zeros", "config": {}}, "moving_variance_initializer": {"class_name": "Ones", "config": {}}, "beta_regularizer": null, "gamma_regularizer": null, "beta_constraint": null, "gamma_constraint": null}, "name": "block_7_project_BN", "inbound_nodes": [[["block_7_project", 0, 0, {}]]]}, {"class_name": "Add", "config": {"name": "block_7_add", "trainable": true, "dtype": "float32"}, "name": "block_7_add", "inbound_nodes": [[["block_6_project_BN", 0, 0, {}], ["block_7_project_BN", 0, 0, {}]]]}, {"class_name": "Conv2D", "config": {"name": "block_8_expand", "trainable": true, "dtype": "float32", "filters": 384, "kernel_size": [1, 1], "strides": [1, 1], "padding": "same", "data_format": "channels_last", "dilation_rate": [1, 1], "activation": "linear", "use_bias": false, "kernel_initializer": {"class_name": "GlorotUniform", "config": {"seed": null}}, "bias_initializer": {"class_name": "Zeros", "config": {}}, "kernel_regularizer": null, "bias_regularizer": null, "activity_regularizer": null, "kernel_constraint": null, "bias_constraint": null}, "name": "block_8_expand", "inbound_nodes": [[["block_7_add", 0, 0, {}]]]}, {"class_name": "BatchNormalization", "config": {"name": "block_8_expand_BN", "trainable": true, "dtype": "float32", "axis": [3], "momentum": 0.999, "epsilon": 0.001, "center": true, "scale": true, "beta_initializer": {"class_name": "Zeros", "config": {}}, "gamma_initializer": {"class_name": "Ones", "config": {}}, "moving_mean_initializer": {"class_name": "Zeros", "config": {}}, "moving_variance_initializer": {"class_name": "Ones", "config": {}}, "beta_regularizer": null, "gamma_regularizer": null, "beta_constraint": null, "gamma_constraint": null}, "name": "block_8_expand_BN", "inbound_nodes": [[["block_8_expand", 0, 0, {}]]]}, {"class_name": "ReLU", "config": {"name": "block_8_expand_relu", "trainable": true, "dtype": "float32", "max_value": 6.0, "negative_slope": 0.0, "threshold": 0.0}, "name": "block_8_expand_relu", "inbound_nodes": [[["block_8_expand_BN", 0, 0, {}]]]}, {"class_name": "DepthwiseConv2D", "config": {"name": "block_8_depthwise", "trainable": true, "dtype": "float32", "kernel_size": [3, 3], "strides": [1, 1], "padding": "same", "data_format": "channels_last", "dilation_rate": [1, 1], "activation": "linear", "use_bias": false, "bias_initializer": {"class_name": "Zeros", "config": {}}, "bias_regularizer": null, "activity_regularizer": null, "bias_constraint": null, "depth_multiplier": 1, "depthwise_initializer": {"class_name": "GlorotUniform", "config": {"seed": null}}, "depthwise_regularizer": null, "depthwise_constraint": null}, "name": "block_8_depthwise", "inbound_nodes": [[["block_8_expand_relu", 0, 0, {}]]]}, {"class_name": "BatchNormalization", "config": {"name": "block_8_depthwise_BN", "trainable": true, "dtype": "float32", "axis": [3], "momentum": 0.999, "epsilon": 0.001, "center": true, "scale": true, "beta_initializer": {"class_name": "Zeros", "config": {}}, "gamma_initializer": {"class_name": "Ones", "config": {}}, "moving_mean_initializer": {"class_name": "Zeros", "config": {}}, "moving_variance_initializer": {"class_name": "Ones", "config": {}}, "beta_regularizer": null, "gamma_regularizer": null, "beta_constraint": null, "gamma_constraint": null}, "name": "block_8_depthwise_BN", "inbound_nodes": [[["block_8_depthwise", 0, 0, {}]]]}, {"class_name": "ReLU", "config": {"name": "block_8_depthwise_relu", "trainable": true, "dtype": "float32", "max_value": 6.0, "negative_slope": 0.0, "threshold": 0.0}, "name": "block_8_depthwise_relu", "inbound_nodes": [[["block_8_depthwise_BN", 0, 0, {}]]]}, {"class_name": "Conv2D", "config": {"name": "block_8_project", "trainable": true, "dtype": "float32", "filters": 64, "kernel_size": [1, 1], "strides": [1, 1], "padding": "same", "data_format": "channels_last", "dilation_rate": [1, 1], "activation": "linear", "use_bias": false, "kernel_initializer": {"class_name": "GlorotUniform", "config": {"seed": null}}, "bias_initializer": {"class_name": "Zeros", "config": {}}, "kernel_regularizer": null, "bias_regularizer": null, "activity_regularizer": null, "kernel_constraint": null, "bias_constraint": null}, "name": "block_8_project", "inbound_nodes": [[["block_8_depthwise_relu", 0, 0, {}]]]}, {"class_name": "BatchNormalization", "config": {"name": "block_8_project_BN", "trainable": true, "dtype": "float32", "axis": [3], "momentum": 0.999, "epsilon": 0.001, "center": true, "scale": true, "beta_initializer": {"class_name": "Zeros", "config": {}}, "gamma_initializer": {"class_name": "Ones", "config": {}}, "moving_mean_initializer": {"class_name": "Zeros", "config": {}}, "moving_variance_initializer": {"class_name": "Ones", "config": {}}, "beta_regularizer": null, "gamma_regularizer": null, "beta_constraint": null, "gamma_constraint": null}, "name": "block_8_project_BN", "inbound_nodes": [[["block_8_project", 0, 0, {}]]]}, {"class_name": "Add", "config": {"name": "block_8_add", "trainable": true, "dtype": "float32"}, "name": "block_8_add", "inbound_nodes": [[["block_7_add", 0, 0, {}], ["block_8_project_BN", 0, 0, {}]]]}, {"class_name": "Conv2D", "config": {"name": "block_9_expand", "trainable": true, "dtype": "float32", "filters": 384, "kernel_size": [1, 1], "strides": [1, 1], "padding": "same", "data_format": "channels_last", "dilation_rate": [1, 1], "activation": "linear", "use_bias": false, "kernel_initializer": {"class_name": "GlorotUniform", "config": {"seed": null}}, "bias_initializer": {"class_name": "Zeros", "config": {}}, "kernel_regularizer": null, "bias_regularizer": null, "activity_regularizer": null, "kernel_constraint": null, "bias_constraint": null}, "name": "block_9_expand", "inbound_nodes": [[["block_8_add", 0, 0, {}]]]}, {"class_name": "BatchNormalization", "config": {"name": "block_9_expand_BN", "trainable": true, "dtype": "float32", "axis": [3], "momentum": 0.999, "epsilon": 0.001, "center": true, "scale": true, "beta_initializer": {"class_name": "Zeros", "config": {}}, "gamma_initializer": {"class_name": "Ones", "config": {}}, "moving_mean_initializer": {"class_name": "Zeros", "config": {}}, "moving_variance_initializer": {"class_name": "Ones", "config": {}}, "beta_regularizer": null, "gamma_regularizer": null, "beta_constraint": null, "gamma_constraint": null}, "name": "block_9_expand_BN", "inbound_nodes": [[["block_9_expand", 0, 0, {}]]]}, {"class_name": "ReLU", "config": {"name": "block_9_expand_relu", "trainable": true, "dtype": "float32", "max_value": 6.0, "negative_slope": 0.0, "threshold": 0.0}, "name": "block_9_expand_relu", "inbound_nodes": [[["block_9_expand_BN", 0, 0, {}]]]}, {"class_name": "DepthwiseConv2D", "config": {"name": "block_9_depthwise", "trainable": true, "dtype": "float32", "kernel_size": [3, 3], "strides": [1, 1], "padding": "same", "data_format": "channels_last", "dilation_rate": [1, 1], "activation": "linear", "use_bias": false, "bias_initializer": {"class_name": "Zeros", "config": {}}, "bias_regularizer": null, "activity_regularizer": null, "bias_constraint": null, "depth_multiplier": 1, "depthwise_initializer": {"class_name": "GlorotUniform", "config": {"seed": null}}, "depthwise_regularizer": null, "depthwise_constraint": null}, "name": "block_9_depthwise", "inbound_nodes": [[["block_9_expand_relu", 0, 0, {}]]]}, {"class_name": "BatchNormalization", "config": {"name": "block_9_depthwise_BN", "trainable": true, "dtype": "float32", "axis": [3], "momentum": 0.999, "epsilon": 0.001, "center": true, "scale": true, "beta_initializer": {"class_name": "Zeros", "config": {}}, "gamma_initializer": {"class_name": "Ones", "config": {}}, "moving_mean_initializer": {"class_name": "Zeros", "config": {}}, "moving_variance_initializer": {"class_name": "Ones", "config": {}}, "beta_regularizer": null, "gamma_regularizer": null, "beta_constraint": null, "gamma_constraint": null}, "name": "block_9_depthwise_BN", "inbound_nodes": [[["block_9_depthwise", 0, 0, {}]]]}, {"class_name": "ReLU", "config": {"name": "block_9_depthwise_relu", "trainable": true, "dtype": "float32", "max_value": 6.0, "negative_slope": 0.0, "threshold": 0.0}, "name": "block_9_depthwise_relu", "inbound_nodes": [[["block_9_depthwise_BN", 0, 0, {}]]]}, {"class_name": "Conv2D", "config": {"name": "block_9_project", "trainable": true, "dtype": "float32", "filters": 64, "kernel_size": [1, 1], "strides": [1, 1], "padding": "same", "data_format": "channels_last", "dilation_rate": [1, 1], "activation": "linear", "use_bias": false, "kernel_initializer": {"class_name": "GlorotUniform", "config": {"seed": null}}, "bias_initializer": {"class_name": "Zeros", "config": {}}, "kernel_regularizer": null, "bias_regularizer": null, "activity_regularizer": null, "kernel_constraint": null, "bias_constraint": null}, "name": "block_9_project", "inbound_nodes": [[["block_9_depthwise_relu", 0, 0, {}]]]}, {"class_name": "BatchNormalization", "config": {"name": "block_9_project_BN", "trainable": true, "dtype": "float32", "axis": [3], "momentum": 0.999, "epsilon": 0.001, "center": true, "scale": true, "beta_initializer": {"class_name": "Zeros", "config": {}}, "gamma_initializer": {"class_name": "Ones", "config": {}}, "moving_mean_initializer": {"class_name": "Zeros", "config": {}}, "moving_variance_initializer": {"class_name": "Ones", "config": {}}, "beta_regularizer": null, "gamma_regularizer": null, "beta_constraint": null, "gamma_constraint": null}, "name": "block_9_project_BN", "inbound_nodes": [[["block_9_project", 0, 0, {}]]]}, {"class_name": "Add", "config": {"name": "block_9_add", "trainable": true, "dtype": "float32"}, "name": "block_9_add", "inbound_nodes": [[["block_8_add", 0, 0, {}], ["block_9_project_BN", 0, 0, {}]]]}, {"class_name": "Conv2D", "config": {"name": "block_10_expand", "trainable": true, "dtype": "float32", "filters": 384, "kernel_size": [1, 1], "strides": [1, 1], "padding": "same", "data_format": "channels_last", "dilation_rate": [1, 1], "activation": "linear", "use_bias": false, "kernel_initializer": {"class_name": "GlorotUniform", "config": {"seed": null}}, "bias_initializer": {"class_name": "Zeros", "config": {}}, "kernel_regularizer": null, "bias_regularizer": null, "activity_regularizer": null, "kernel_constraint": null, "bias_constraint": null}, "name": "block_10_expand", "inbound_nodes": [[["block_9_add", 0, 0, {}]]]}, {"class_name": "BatchNormalization", "config": {"name": "block_10_expand_BN", "trainable": true, "dtype": "float32", "axis": [3], "momentum": 0.999, "epsilon": 0.001, "center": true, "scale": true, "beta_initializer": {"class_name": "Zeros", "config": {}}, "gamma_initializer": {"class_name": "Ones", "config": {}}, "moving_mean_initializer": {"class_name": "Zeros", "config": {}}, "moving_variance_initializer": {"class_name": "Ones", "config": {}}, "beta_regularizer": null, "gamma_regularizer": null, "beta_constraint": null, "gamma_constraint": null}, "name": "block_10_expand_BN", "inbound_nodes": [[["block_10_expand", 0, 0, {}]]]}, {"class_name": "ReLU", "config": {"name": "block_10_expand_relu", "trainable": true, "dtype": "float32", "max_value": 6.0, "negative_slope": 0.0, "threshold": 0.0}, "name": "block_10_expand_relu", "inbound_nodes": [[["block_10_expand_BN", 0, 0, {}]]]}, {"class_name": "DepthwiseConv2D", "config": {"name": "block_10_depthwise", "trainable": true, "dtype": "float32", "kernel_size": [3, 3], "strides": [1, 1], "padding": "same", "data_format": "channels_last", "dilation_rate": [1, 1], "activation": "linear", "use_bias": false, "bias_initializer": {"class_name": "Zeros", "config": {}}, "bias_regularizer": null, "activity_regularizer": null, "bias_constraint": null, "depth_multiplier": 1, "depthwise_initializer": {"class_name": "GlorotUniform", "config": {"seed": null}}, "depthwise_regularizer": null, "depthwise_constraint": null}, "name": "block_10_depthwise", "inbound_nodes": [[["block_10_expand_relu", 0, 0, {}]]]}, {"class_name": "BatchNormalization", "config": {"name": "block_10_depthwise_BN", "trainable": true, "dtype": "float32", "axis": [3], "momentum": 0.999, "epsilon": 0.001, "center": true, "scale": true, "beta_initializer": {"class_name": "Zeros", "config": {}}, "gamma_initializer": {"class_name": "Ones", "config": {}}, "moving_mean_initializer": {"class_name": "Zeros", "config": {}}, "moving_variance_initializer": {"class_name": "Ones", "config": {}}, "beta_regularizer": null, "gamma_regularizer": null, "beta_constraint": null, "gamma_constraint": null}, "name": "block_10_depthwise_BN", "inbound_nodes": [[["block_10_depthwise", 0, 0, {}]]]}, {"class_name": "ReLU", "config": {"name": "block_10_depthwise_relu", "trainable": true, "dtype": "float32", "max_value": 6.0, "negative_slope": 0.0, "threshold": 0.0}, "name": "block_10_depthwise_relu", "inbound_nodes": [[["block_10_depthwise_BN", 0, 0, {}]]]}, {"class_name": "Conv2D", "config": {"name": "block_10_project", "trainable": true, "dtype": "float32", "filters": 96, "kernel_size": [1, 1], "strides": [1, 1], "padding": "same", "data_format": "channels_last", "dilation_rate": [1, 1], "activation": "linear", "use_bias": false, "kernel_initializer": {"class_name": "GlorotUniform", "config": {"seed": null}}, "bias_initializer": {"class_name": "Zeros", "config": {}}, "kernel_regularizer": null, "bias_regularizer": null, "activity_regularizer": null, "kernel_constraint": null, "bias_constraint": null}, "name": "block_10_project", "inbound_nodes": [[["block_10_depthwise_relu", 0, 0, {}]]]}, {"class_name": "BatchNormalization", "config": {"name": "block_10_project_BN", "trainable": true, "dtype": "float32", "axis": [3], "momentum": 0.999, "epsilon": 0.001, "center": true, "scale": true, "beta_initializer": {"class_name": "Zeros", "config": {}}, "gamma_initializer": {"class_name": "Ones", "config": {}}, "moving_mean_initializer": {"class_name": "Zeros", "config": {}}, "moving_variance_initializer": {"class_name": "Ones", "config": {}}, "beta_regularizer": null, "gamma_regularizer": null, "beta_constraint": null, "gamma_constraint": null}, "name": "block_10_project_BN", "inbound_nodes": [[["block_10_project", 0, 0, {}]]]}, {"class_name": "Conv2D", "config": {"name": "block_11_expand", "trainable": true, "dtype": "float32", "filters": 576, "kernel_size": [1, 1], "strides": [1, 1], "padding": "same", "data_format": "channels_last", "dilation_rate": [1, 1], "activation": "linear", "use_bias": false, "kernel_initializer": {"class_name": "GlorotUniform", "config": {"seed": null}}, "bias_initializer": {"class_name": "Zeros", "config": {}}, "kernel_regularizer": null, "bias_regularizer": null, "activity_regularizer": null, "kernel_constraint": null, "bias_constraint": null}, "name": "block_11_expand", "inbound_nodes": [[["block_10_project_BN", 0, 0, {}]]]}, {"class_name": "BatchNormalization", "config": {"name": "block_11_expand_BN", "trainable": true, "dtype": "float32", "axis": [3], "momentum": 0.999, "epsilon": 0.001, "center": true, "scale": true, "beta_initializer": {"class_name": "Zeros", "config": {}}, "gamma_initializer": {"class_name": "Ones", "config": {}}, "moving_mean_initializer": {"class_name": "Zeros", "config": {}}, "moving_variance_initializer": {"class_name": "Ones", "config": {}}, "beta_regularizer": null, "gamma_regularizer": null, "beta_constraint": null, "gamma_constraint": null}, "name": "block_11_expand_BN", "inbound_nodes": [[["block_11_expand", 0, 0, {}]]]}, {"class_name": "ReLU", "config": {"name": "block_11_expand_relu", "trainable": true, "dtype": "float32", "max_value": 6.0, "negative_slope": 0.0, "threshold": 0.0}, "name": "block_11_expand_relu", "inbound_nodes": [[["block_11_expand_BN", 0, 0, {}]]]}, {"class_name": "DepthwiseConv2D", "config": {"name": "block_11_depthwise", "trainable": true, "dtype": "float32", "kernel_size": [3, 3], "strides": [1, 1], "padding": "same", "data_format": "channels_last", "dilation_rate": [1, 1], "activation": "linear", "use_bias": false, "bias_initializer": {"class_name": "Zeros", "config": {}}, "bias_regularizer": null, "activity_regularizer": null, "bias_constraint": null, "depth_multiplier": 1, "depthwise_initializer": {"class_name": "GlorotUniform", "config": {"seed": null}}, "depthwise_regularizer": null, "depthwise_constraint": null}, "name": "block_11_depthwise", "inbound_nodes": [[["block_11_expand_relu", 0, 0, {}]]]}, {"class_name": "BatchNormalization", "config": {"name": "block_11_depthwise_BN", "trainable": true, "dtype": "float32", "axis": [3], "momentum": 0.999, "epsilon": 0.001, "center": true, "scale": true, "beta_initializer": {"class_name": "Zeros", "config": {}}, "gamma_initializer": {"class_name": "Ones", "config": {}}, "moving_mean_initializer": {"class_name": "Zeros", "config": {}}, "moving_variance_initializer": {"class_name": "Ones", "config": {}}, "beta_regularizer": null, "gamma_regularizer": null, "beta_constraint": null, "gamma_constraint": null}, "name": "block_11_depthwise_BN", "inbound_nodes": [[["block_11_depthwise", 0, 0, {}]]]}, {"class_name": "ReLU", "config": {"name": "block_11_depthwise_relu", "trainable": true, "dtype": "float32", "max_value": 6.0, "negative_slope": 0.0, "threshold": 0.0}, "name": "block_11_depthwise_relu", "inbound_nodes": [[["block_11_depthwise_BN", 0, 0, {}]]]}, {"class_name": "Conv2D", "config": {"name": "block_11_project", "trainable": true, "dtype": "float32", "filters": 96, "kernel_size": [1, 1], "strides": [1, 1], "padding": "same", "data_format": "channels_last", "dilation_rate": [1, 1], "activation": "linear", "use_bias": false, "kernel_initializer": {"class_name": "GlorotUniform", "config": {"seed": null}}, "bias_initializer": {"class_name": "Zeros", "config": {}}, "kernel_regularizer": null, "bias_regularizer": null, "activity_regularizer": null, "kernel_constraint": null, "bias_constraint": null}, "name": "block_11_project", "inbound_nodes": [[["block_11_depthwise_relu", 0, 0, {}]]]}, {"class_name": "BatchNormalization", "config": {"name": "block_11_project_BN", "trainable": true, "dtype": "float32", "axis": [3], "momentum": 0.999, "epsilon": 0.001, "center": true, "scale": true, "beta_initializer": {"class_name": "Zeros", "config": {}}, "gamma_initializer": {"class_name": "Ones", "config": {}}, "moving_mean_initializer": {"class_name": "Zeros", "config": {}}, "moving_variance_initializer": {"class_name": "Ones", "config": {}}, "beta_regularizer": null, "gamma_regularizer": null, "beta_constraint": null, "gamma_constraint": null}, "name": "block_11_project_BN", "inbound_nodes": [[["block_11_project", 0, 0, {}]]]}, {"class_name": "Add", "config": {"name": "block_11_add", "trainable": true, "dtype": "float32"}, "name": "block_11_add", "inbound_nodes": [[["block_10_project_BN", 0, 0, {}], ["block_11_project_BN", 0, 0, {}]]]}, {"class_name": "Conv2D", "config": {"name": "block_12_expand", "trainable": true, "dtype": "float32", "filters": 576, "kernel_size": [1, 1], "strides": [1, 1], "padding": "same", "data_format": "channels_last", "dilation_rate": [1, 1], "activation": "linear", "use_bias": false, "kernel_initializer": {"class_name": "GlorotUniform", "config": {"seed": null}}, "bias_initializer": {"class_name": "Zeros", "config": {}}, "kernel_regularizer": null, "bias_regularizer": null, "activity_regularizer": null, "kernel_constraint": null, "bias_constraint": null}, "name": "block_12_expand", "inbound_nodes": [[["block_11_add", 0, 0, {}]]]}, {"class_name": "BatchNormalization", "config": {"name": "block_12_expand_BN", "trainable": true, "dtype": "float32", "axis": [3], "momentum": 0.999, "epsilon": 0.001, "center": true, "scale": true, "beta_initializer": {"class_name": "Zeros", "config": {}}, "gamma_initializer": {"class_name": "Ones", "config": {}}, "moving_mean_initializer": {"class_name": "Zeros", "config": {}}, "moving_variance_initializer": {"class_name": "Ones", "config": {}}, "beta_regularizer": null, "gamma_regularizer": null, "beta_constraint": null, "gamma_constraint": null}, "name": "block_12_expand_BN", "inbound_nodes": [[["block_12_expand", 0, 0, {}]]]}, {"class_name": "ReLU", "config": {"name": "block_12_expand_relu", "trainable": true, "dtype": "float32", "max_value": 6.0, "negative_slope": 0.0, "threshold": 0.0}, "name": "block_12_expand_relu", "inbound_nodes": [[["block_12_expand_BN", 0, 0, {}]]]}, {"class_name": "DepthwiseConv2D", "config": {"name": "block_12_depthwise", "trainable": true, "dtype": "float32", "kernel_size": [3, 3], "strides": [1, 1], "padding": "same", "data_format": "channels_last", "dilation_rate": [1, 1], "activation": "linear", "use_bias": false, "bias_initializer": {"class_name": "Zeros", "config": {}}, "bias_regularizer": null, "activity_regularizer": null, "bias_constraint": null, "depth_multiplier": 1, "depthwise_initializer": {"class_name": "GlorotUniform", "config": {"seed": null}}, "depthwise_regularizer": null, "depthwise_constraint": null}, "name": "block_12_depthwise", "inbound_nodes": [[["block_12_expand_relu", 0, 0, {}]]]}, {"class_name": "BatchNormalization", "config": {"name": "block_12_depthwise_BN", "trainable": true, "dtype": "float32", "axis": [3], "momentum": 0.999, "epsilon": 0.001, "center": true, "scale": true, "beta_initializer": {"class_name": "Zeros", "config": {}}, "gamma_initializer": {"class_name": "Ones", "config": {}}, "moving_mean_initializer": {"class_name": "Zeros", "config": {}}, "moving_variance_initializer": {"class_name": "Ones", "config": {}}, "beta_regularizer": null, "gamma_regularizer": null, "beta_constraint": null, "gamma_constraint": null}, "name": "block_12_depthwise_BN", "inbound_nodes": [[["block_12_depthwise", 0, 0, {}]]]}, {"class_name": "ReLU", "config": {"name": "block_12_depthwise_relu", "trainable": true, "dtype": "float32", "max_value": 6.0, "negative_slope": 0.0, "threshold": 0.0}, "name": "block_12_depthwise_relu", "inbound_nodes": [[["block_12_depthwise_BN", 0, 0, {}]]]}, {"class_name": "Conv2D", "config": {"name": "block_12_project", "trainable": true, "dtype": "float32", "filters": 96, "kernel_size": [1, 1], "strides": [1, 1], "padding": "same", "data_format": "channels_last", "dilation_rate": [1, 1], "activation": "linear", "use_bias": false, "kernel_initializer": {"class_name": "GlorotUniform", "config": {"seed": null}}, "bias_initializer": {"class_name": "Zeros", "config": {}}, "kernel_regularizer": null, "bias_regularizer": null, "activity_regularizer": null, "kernel_constraint": null, "bias_constraint": null}, "name": "block_12_project", "inbound_nodes": [[["block_12_depthwise_relu", 0, 0, {}]]]}, {"class_name": "BatchNormalization", "config": {"name": "block_12_project_BN", "trainable": true, "dtype": "float32", "axis": [3], "momentum": 0.999, "epsilon": 0.001, "center": true, "scale": true, "beta_initializer": {"class_name": "Zeros", "config": {}}, "gamma_initializer": {"class_name": "Ones", "config": {}}, "moving_mean_initializer": {"class_name": "Zeros", "config": {}}, "moving_variance_initializer": {"class_name": "Ones", "config": {}}, "beta_regularizer": null, "gamma_regularizer": null, "beta_constraint": null, "gamma_constraint": null}, "name": "block_12_project_BN", "inbound_nodes": [[["block_12_project", 0, 0, {}]]]}, {"class_name": "Add", "config": {"name": "block_12_add", "trainable": true, "dtype": "float32"}, "name": "block_12_add", "inbound_nodes": [[["block_11_add", 0, 0, {}], ["block_12_project_BN", 0, 0, {}]]]}, {"class_name": "Conv2D", "config": {"name": "block_13_expand", "trainable": true, "dtype": "float32", "filters": 576, "kernel_size": [1, 1], "strides": [1, 1], "padding": "same", "data_format": "channels_last", "dilation_rate": [1, 1], "activation": "linear", "use_bias": false, "kernel_initializer": {"class_name": "GlorotUniform", "config": {"seed": null}}, "bias_initializer": {"class_name": "Zeros", "config": {}}, "kernel_regularizer": null, "bias_regularizer": null, "activity_regularizer": null, "kernel_constraint": null, "bias_constraint": null}, "name": "block_13_expand", "inbound_nodes": [[["block_12_add", 0, 0, {}]]]}, {"class_name": "BatchNormalization", "config": {"name": "block_13_expand_BN", "trainable": true, "dtype": "float32", "axis": [3], "momentum": 0.999, "epsilon": 0.001, "center": true, "scale": true, "beta_initializer": {"class_name": "Zeros", "config": {}}, "gamma_initializer": {"class_name": "Ones", "config": {}}, "moving_mean_initializer": {"class_name": "Zeros", "config": {}}, "moving_variance_initializer": {"class_name": "Ones", "config": {}}, "beta_regularizer": null, "gamma_regularizer": null, "beta_constraint": null, "gamma_constraint": null}, "name": "block_13_expand_BN", "inbound_nodes": [[["block_13_expand", 0, 0, {}]]]}, {"class_name": "ReLU", "config": {"name": "block_13_expand_relu", "trainable": true, "dtype": "float32", "max_value": 6.0, "negative_slope": 0.0, "threshold": 0.0}, "name": "block_13_expand_relu", "inbound_nodes": [[["block_13_expand_BN", 0, 0, {}]]]}, {"class_name": "ZeroPadding2D", "config": {"name": "block_13_pad", "trainable": true, "dtype": "float32", "padding": [[0, 1], [0, 1]], "data_format": "channels_last"}, "name": "block_13_pad", "inbound_nodes": [[["block_13_expand_relu", 0, 0, {}]]]}, {"class_name": "DepthwiseConv2D", "config": {"name": "block_13_depthwise", "trainable": true, "dtype": "float32", "kernel_size": [3, 3], "strides": [2, 2], "padding": "valid", "data_format": "channels_last", "dilation_rate": [1, 1], "activation": "linear", "use_bias": false, "bias_initializer": {"class_name": "Zeros", "config": {}}, "bias_regularizer": null, "activity_regularizer": null, "bias_constraint": null, "depth_multiplier": 1, "depthwise_initializer": {"class_name": "GlorotUniform", "config": {"seed": null}}, "depthwise_regularizer": null, "depthwise_constraint": null}, "name": "block_13_depthwise", "inbound_nodes": [[["block_13_pad", 0, 0, {}]]]}, {"class_name": "BatchNormalization", "config": {"name": "block_13_depthwise_BN", "trainable": true, "dtype": "float32", "axis": [3], "momentum": 0.999, "epsilon": 0.001, "center": true, "scale": true, "beta_initializer": {"class_name": "Zeros", "config": {}}, "gamma_initializer": {"class_name": "Ones", "config": {}}, "moving_mean_initializer": {"class_name": "Zeros", "config": {}}, "moving_variance_initializer": {"class_name": "Ones", "config": {}}, "beta_regularizer": null, "gamma_regularizer": null, "beta_constraint": null, "gamma_constraint": null}, "name": "block_13_depthwise_BN", "inbound_nodes": [[["block_13_depthwise", 0, 0, {}]]]}, {"class_name": "ReLU", "config": {"name": "block_13_depthwise_relu", "trainable": true, "dtype": "float32", "max_value": 6.0, "negative_slope": 0.0, "threshold": 0.0}, "name": "block_13_depthwise_relu", "inbound_nodes": [[["block_13_depthwise_BN", 0, 0, {}]]]}, {"class_name": "Conv2D", "config": {"name": "block_13_project", "trainable": true, "dtype": "float32", "filters": 160, "kernel_size": [1, 1], "strides": [1, 1], "padding": "same", "data_format": "channels_last", "dilation_rate": [1, 1], "activation": "linear", "use_bias": false, "kernel_initializer": {"class_name": "GlorotUniform", "config": {"seed": null}}, "bias_initializer": {"class_name": "Zeros", "config": {}}, "kernel_regularizer": null, "bias_regularizer": null, "activity_regularizer": null, "kernel_constraint": null, "bias_constraint": null}, "name": "block_13_project", "inbound_nodes": [[["block_13_depthwise_relu", 0, 0, {}]]]}, {"class_name": "BatchNormalization", "config": {"name": "block_13_project_BN", "trainable": true, "dtype": "float32", "axis": [3], "momentum": 0.999, "epsilon": 0.001, "center": true, "scale": true, "beta_initializer": {"class_name": "Zeros", "config": {}}, "gamma_initializer": {"class_name": "Ones", "config": {}}, "moving_mean_initializer": {"class_name": "Zeros", "config": {}}, "moving_variance_initializer": {"class_name": "Ones", "config": {}}, "beta_regularizer": null, "gamma_regularizer": null, "beta_constraint": null, "gamma_constraint": null}, "name": "block_13_project_BN", "inbound_nodes": [[["block_13_project", 0, 0, {}]]]}, {"class_name": "Conv2D", "config": {"name": "block_14_expand", "trainable": true, "dtype": "float32", "filters": 960, "kernel_size": [1, 1], "strides": [1, 1], "padding": "same", "data_format": "channels_last", "dilation_rate": [1, 1], "activation": "linear", "use_bias": false, "kernel_initializer": {"class_name": "GlorotUniform", "config": {"seed": null}}, "bias_initializer": {"class_name": "Zeros", "config": {}}, "kernel_regularizer": null, "bias_regularizer": null, "activity_regularizer": null, "kernel_constraint": null, "bias_constraint": null}, "name": "block_14_expand", "inbound_nodes": [[["block_13_project_BN", 0, 0, {}]]]}, {"class_name": "BatchNormalization", "config": {"name": "block_14_expand_BN", "trainable": true, "dtype": "float32", "axis": [3], "momentum": 0.999, "epsilon": 0.001, "center": true, "scale": true, "beta_initializer": {"class_name": "Zeros", "config": {}}, "gamma_initializer": {"class_name": "Ones", "config": {}}, "moving_mean_initializer": {"class_name": "Zeros", "config": {}}, "moving_variance_initializer": {"class_name": "Ones", "config": {}}, "beta_regularizer": null, "gamma_regularizer": null, "beta_constraint": null, "gamma_constraint": null}, "name": "block_14_expand_BN", "inbound_nodes": [[["block_14_expand", 0, 0, {}]]]}, {"class_name": "ReLU", "config": {"name": "block_14_expand_relu", "trainable": true, "dtype": "float32", "max_value": 6.0, "negative_slope": 0.0, "threshold": 0.0}, "name": "block_14_expand_relu", "inbound_nodes": [[["block_14_expand_BN", 0, 0, {}]]]}, {"class_name": "DepthwiseConv2D", "config": {"name": "block_14_depthwise", "trainable": true, "dtype": "float32", "kernel_size": [3, 3], "strides": [1, 1], "padding": "same", "data_format": "channels_last", "dilation_rate": [1, 1], "activation": "linear", "use_bias": false, "bias_initializer": {"class_name": "Zeros", "config": {}}, "bias_regularizer": null, "activity_regularizer": null, "bias_constraint": null, "depth_multiplier": 1, "depthwise_initializer": {"class_name": "GlorotUniform", "config": {"seed": null}}, "depthwise_regularizer": null, "depthwise_constraint": null}, "name": "block_14_depthwise", "inbound_nodes": [[["block_14_expand_relu", 0, 0, {}]]]}, {"class_name": "BatchNormalization", "config": {"name": "block_14_depthwise_BN", "trainable": true, "dtype": "float32", "axis": [3], "momentum": 0.999, "epsilon": 0.001, "center": true, "scale": true, "beta_initializer": {"class_name": "Zeros", "config": {}}, "gamma_initializer": {"class_name": "Ones", "config": {}}, "moving_mean_initializer": {"class_name": "Zeros", "config": {}}, "moving_variance_initializer": {"class_name": "Ones", "config": {}}, "beta_regularizer": null, "gamma_regularizer": null, "beta_constraint": null, "gamma_constraint": null}, "name": "block_14_depthwise_BN", "inbound_nodes": [[["block_14_depthwise", 0, 0, {}]]]}, {"class_name": "ReLU", "config": {"name": "block_14_depthwise_relu", "trainable": true, "dtype": "float32", "max_value": 6.0, "negative_slope": 0.0, "threshold": 0.0}, "name": "block_14_depthwise_relu", "inbound_nodes": [[["block_14_depthwise_BN", 0, 0, {}]]]}, {"class_name": "Conv2D", "config": {"name": "block_14_project", "trainable": true, "dtype": "float32", "filters": 160, "kernel_size": [1, 1], "strides": [1, 1], "padding": "same", "data_format": "channels_last", "dilation_rate": [1, 1], "activation": "linear", "use_bias": false, "kernel_initializer": {"class_name": "GlorotUniform", "config": {"seed": null}}, "bias_initializer": {"class_name": "Zeros", "config": {}}, "kernel_regularizer": null, "bias_regularizer": null, "activity_regularizer": null, "kernel_constraint": null, "bias_constraint": null}, "name": "block_14_project", "inbound_nodes": [[["block_14_depthwise_relu", 0, 0, {}]]]}, {"class_name": "BatchNormalization", "config": {"name": "block_14_project_BN", "trainable": true, "dtype": "float32", "axis": [3], "momentum": 0.999, "epsilon": 0.001, "center": true, "scale": true, "beta_initializer": {"class_name": "Zeros", "config": {}}, "gamma_initializer": {"class_name": "Ones", "config": {}}, "moving_mean_initializer": {"class_name": "Zeros", "config": {}}, "moving_variance_initializer": {"class_name": "Ones", "config": {}}, "beta_regularizer": null, "gamma_regularizer": null, "beta_constraint": null, "gamma_constraint": null}, "name": "block_14_project_BN", "inbound_nodes": [[["block_14_project", 0, 0, {}]]]}, {"class_name": "Add", "config": {"name": "block_14_add", "trainable": true, "dtype": "float32"}, "name": "block_14_add", "inbound_nodes": [[["block_13_project_BN", 0, 0, {}], ["block_14_project_BN", 0, 0, {}]]]}, {"class_name": "Conv2D", "config": {"name": "block_15_expand", "trainable": true, "dtype": "float32", "filters": 960, "kernel_size": [1, 1], "strides": [1, 1], "padding": "same", "data_format": "channels_last", "dilation_rate": [1, 1], "activation": "linear", "use_bias": false, "kernel_initializer": {"class_name": "GlorotUniform", "config": {"seed": null}}, "bias_initializer": {"class_name": "Zeros", "config": {}}, "kernel_regularizer": null, "bias_regularizer": null, "activity_regularizer": null, "kernel_constraint": null, "bias_constraint": null}, "name": "block_15_expand", "inbound_nodes": [[["block_14_add", 0, 0, {}]]]}, {"class_name": "BatchNormalization", "config": {"name": "block_15_expand_BN", "trainable": true, "dtype": "float32", "axis": [3], "momentum": 0.999, "epsilon": 0.001, "center": true, "scale": true, "beta_initializer": {"class_name": "Zeros", "config": {}}, "gamma_initializer": {"class_name": "Ones", "config": {}}, "moving_mean_initializer": {"class_name": "Zeros", "config": {}}, "moving_variance_initializer": {"class_name": "Ones", "config": {}}, "beta_regularizer": null, "gamma_regularizer": null, "beta_constraint": null, "gamma_constraint": null}, "name": "block_15_expand_BN", "inbound_nodes": [[["block_15_expand", 0, 0, {}]]]}, {"class_name": "ReLU", "config": {"name": "block_15_expand_relu", "trainable": true, "dtype": "float32", "max_value": 6.0, "negative_slope": 0.0, "threshold": 0.0}, "name": "block_15_expand_relu", "inbound_nodes": [[["block_15_expand_BN", 0, 0, {}]]]}, {"class_name": "DepthwiseConv2D", "config": {"name": "block_15_depthwise", "trainable": true, "dtype": "float32", "kernel_size": [3, 3], "strides": [1, 1], "padding": "same", "data_format": "channels_last", "dilation_rate": [1, 1], "activation": "linear", "use_bias": false, "bias_initializer": {"class_name": "Zeros", "config": {}}, "bias_regularizer": null, "activity_regularizer": null, "bias_constraint": null, "depth_multiplier": 1, "depthwise_initializer": {"class_name": "GlorotUniform", "config": {"seed": null}}, "depthwise_regularizer": null, "depthwise_constraint": null}, "name": "block_15_depthwise", "inbound_nodes": [[["block_15_expand_relu", 0, 0, {}]]]}, {"class_name": "BatchNormalization", "config": {"name": "block_15_depthwise_BN", "trainable": true, "dtype": "float32", "axis": [3], "momentum": 0.999, "epsilon": 0.001, "center": true, "scale": true, "beta_initializer": {"class_name": "Zeros", "config": {}}, "gamma_initializer": {"class_name": "Ones", "config": {}}, "moving_mean_initializer": {"class_name": "Zeros", "config": {}}, "moving_variance_initializer": {"class_name": "Ones", "config": {}}, "beta_regularizer": null, "gamma_regularizer": null, "beta_constraint": null, "gamma_constraint": null}, "name": "block_15_depthwise_BN", "inbound_nodes": [[["block_15_depthwise", 0, 0, {}]]]}, {"class_name": "ReLU", "config": {"name": "block_15_depthwise_relu", "trainable": true, "dtype": "float32", "max_value": 6.0, "negative_slope": 0.0, "threshold": 0.0}, "name": "block_15_depthwise_relu", "inbound_nodes": [[["block_15_depthwise_BN", 0, 0, {}]]]}, {"class_name": "Conv2D", "config": {"name": "block_15_project", "trainable": true, "dtype": "float32", "filters": 160, "kernel_size": [1, 1], "strides": [1, 1], "padding": "same", "data_format": "channels_last", "dilation_rate": [1, 1], "activation": "linear", "use_bias": false, "kernel_initializer": {"class_name": "GlorotUniform", "config": {"seed": null}}, "bias_initializer": {"class_name": "Zeros", "config": {}}, "kernel_regularizer": null, "bias_regularizer": null, "activity_regularizer": null, "kernel_constraint": null, "bias_constraint": null}, "name": "block_15_project", "inbound_nodes": [[["block_15_depthwise_relu", 0, 0, {}]]]}, {"class_name": "BatchNormalization", "config": {"name": "block_15_project_BN", "trainable": true, "dtype": "float32", "axis": [3], "momentum": 0.999, "epsilon": 0.001, "center": true, "scale": true, "beta_initializer": {"class_name": "Zeros", "config": {}}, "gamma_initializer": {"class_name": "Ones", "config": {}}, "moving_mean_initializer": {"class_name": "Zeros", "config": {}}, "moving_variance_initializer": {"class_name": "Ones", "config": {}}, "beta_regularizer": null, "gamma_regularizer": null, "beta_constraint": null, "gamma_constraint": null}, "name": "block_15_project_BN", "inbound_nodes": [[["block_15_project", 0, 0, {}]]]}, {"class_name": "Add", "config": {"name": "block_15_add", "trainable": true, "dtype": "float32"}, "name": "block_15_add", "inbound_nodes": [[["block_14_add", 0, 0, {}], ["block_15_project_BN", 0, 0, {}]]]}, {"class_name": "Conv2D", "config": {"name": "block_16_expand", "trainable": true, "dtype": "float32", "filters": 960, "kernel_size": [1, 1], "strides": [1, 1], "padding": "same", "data_format": "channels_last", "dilation_rate": [1, 1], "activation": "linear", "use_bias": false, "kernel_initializer": {"class_name": "GlorotUniform", "config": {"seed": null}}, "bias_initializer": {"class_name": "Zeros", "config": {}}, "kernel_regularizer": null, "bias_regularizer": null, "activity_regularizer": null, "kernel_constraint": null, "bias_constraint": null}, "name": "block_16_expand", "inbound_nodes": [[["block_15_add", 0, 0, {}]]]}, {"class_name": "BatchNormalization", "config": {"name": "block_16_expand_BN", "trainable": true, "dtype": "float32", "axis": [3], "momentum": 0.999, "epsilon": 0.001, "center": true, "scale": true, "beta_initializer": {"class_name": "Zeros", "config": {}}, "gamma_initializer": {"class_name": "Ones", "config": {}}, "moving_mean_initializer": {"class_name": "Zeros", "config": {}}, "moving_variance_initializer": {"class_name": "Ones", "config": {}}, "beta_regularizer": null, "gamma_regularizer": null, "beta_constraint": null, "gamma_constraint": null}, "name": "block_16_expand_BN", "inbound_nodes": [[["block_16_expand", 0, 0, {}]]]}, {"class_name": "ReLU", "config": {"name": "block_16_expand_relu", "trainable": true, "dtype": "float32", "max_value": 6.0, "negative_slope": 0.0, "threshold": 0.0}, "name": "block_16_expand_relu", "inbound_nodes": [[["block_16_expand_BN", 0, 0, {}]]]}, {"class_name": "DepthwiseConv2D", "config": {"name": "block_16_depthwise", "trainable": true, "dtype": "float32", "kernel_size": [3, 3], "strides": [1, 1], "padding": "same", "data_format": "channels_last", "dilation_rate": [1, 1], "activation": "linear", "use_bias": false, "bias_initializer": {"class_name": "Zeros", "config": {}}, "bias_regularizer": null, "activity_regularizer": null, "bias_constraint": null, "depth_multiplier": 1, "depthwise_initializer": {"class_name": "GlorotUniform", "config": {"seed": null}}, "depthwise_regularizer": null, "depthwise_constraint": null}, "name": "block_16_depthwise", "inbound_nodes": [[["block_16_expand_relu", 0, 0, {}]]]}, {"class_name": "BatchNormalization", "config": {"name": "block_16_depthwise_BN", "trainable": true, "dtype": "float32", "axis": [3], "momentum": 0.999, "epsilon": 0.001, "center": true, "scale": true, "beta_initializer": {"class_name": "Zeros", "config": {}}, "gamma_initializer": {"class_name": "Ones", "config": {}}, "moving_mean_initializer": {"class_name": "Zeros", "config": {}}, "moving_variance_initializer": {"class_name": "Ones", "config": {}}, "beta_regularizer": null, "gamma_regularizer": null, "beta_constraint": null, "gamma_constraint": null}, "name": "block_16_depthwise_BN", "inbound_nodes": [[["block_16_depthwise", 0, 0, {}]]]}, {"class_name": "ReLU", "config": {"name": "block_16_depthwise_relu", "trainable": true, "dtype": "float32", "max_value": 6.0, "negative_slope": 0.0, "threshold": 0.0}, "name": "block_16_depthwise_relu", "inbound_nodes": [[["block_16_depthwise_BN", 0, 0, {}]]]}, {"class_name": "Conv2D", "config": {"name": "block_16_project", "trainable": true, "dtype": "float32", "filters": 320, "kernel_size": [1, 1], "strides": [1, 1], "padding": "same", "data_format": "channels_last", "dilation_rate": [1, 1], "activation": "linear", "use_bias": false, "kernel_initializer": {"class_name": "GlorotUniform", "config": {"seed": null}}, "bias_initializer": {"class_name": "Zeros", "config": {}}, "kernel_regularizer": null, "bias_regularizer": null, "activity_regularizer": null, "kernel_constraint": null, "bias_constraint": null}, "name": "block_16_project", "inbound_nodes": [[["block_16_depthwise_relu", 0, 0, {}]]]}, {"class_name": "BatchNormalization", "config": {"name": "block_16_project_BN", "trainable": true, "dtype": "float32", "axis": [3], "momentum": 0.999, "epsilon": 0.001, "center": true, "scale": true, "beta_initializer": {"class_name": "Zeros", "config": {}}, "gamma_initializer": {"class_name": "Ones", "config": {}}, "moving_mean_initializer": {"class_name": "Zeros", "config": {}}, "moving_variance_initializer": {"class_name": "Ones", "config": {}}, "beta_regularizer": null, "gamma_regularizer": null, "beta_constraint": null, "gamma_constraint": null}, "name": "block_16_project_BN", "inbound_nodes": [[["block_16_project", 0, 0, {}]]]}, {"class_name": "Conv2D", "config": {"name": "Conv_1", "trainable": true, "dtype": "float32", "filters": 1280, "kernel_size": [1, 1], "strides": [1, 1], "padding": "valid", "data_format": "channels_last", "dilation_rate": [1, 1], "activation": "linear", "use_bias": false, "kernel_initializer": {"class_name": "GlorotUniform", "config": {"seed": null}}, "bias_initializer": {"class_name": "Zeros", "config": {}}, "kernel_regularizer": null, "bias_regularizer": null, "activity_regularizer": null, "kernel_constraint": null, "bias_constraint": null}, "name": "Conv_1", "inbound_nodes": [[["block_16_project_BN", 0, 0, {}]]]}, {"class_name": "BatchNormalization", "config": {"name": "Conv_1_bn", "trainable": true, "dtype": "float32", "axis": [3], "momentum": 0.999, "epsilon": 0.001, "center": true, "scale": true, "beta_initializer": {"class_name": "Zeros", "config": {}}, "gamma_initializer": {"class_name": "Ones", "config": {}}, "moving_mean_initializer": {"class_name": "Zeros", "config": {}}, "moving_variance_initializer": {"class_name": "Ones", "config": {}}, "beta_regularizer": null, "gamma_regularizer": null, "beta_constraint": null, "gamma_constraint": null}, "name": "Conv_1_bn", "inbound_nodes": [[["Conv_1", 0, 0, {}]]]}, {"class_name": "ReLU", "config": {"name": "out_relu", "trainable": true, "dtype": "float32", "max_value": 6.0, "negative_slope": 0.0, "threshold": 0.0}, "name": "out_relu", "inbound_nodes": [[["Conv_1_bn", 0, 0, {}]]]}, {"class_name": "GlobalAveragePooling2D", "config": {"name": "global_average_pooling2d", "trainable": true, "dtype": "float32", "data_format": "channels_last"}, "name": "global_average_pooling2d", "inbound_nodes": [[["out_relu", 0, 0, {}]]]}, {"class_name": "Dense", "config": {"name": "dense", "trainable": true, "dtype": "float32", "units": 1024, "activation": "relu", "use_bias": true, "kernel_initializer": {"class_name": "GlorotUniform", "config": {"seed": null}}, "bias_initializer": {"class_name": "Zeros", "config": {}}, "kernel_regularizer": null, "bias_regularizer": null, "activity_regularizer": null, "kernel_constraint": null, "bias_constraint": null}, "name": "dense", "inbound_nodes": [[["global_average_pooling2d", 0, 0, {}]]]}, {"class_name": "Dense", "config": {"name": "dense_1", "trainable": true, "dtype": "float32", "units": 1024, "activation": "relu", "use_bias": true, "kernel_initializer": {"class_name": "GlorotUniform", "config": {"seed": null}}, "bias_initializer": {"class_name": "Zeros", "config": {}}, "kernel_regularizer": null, "bias_regularizer": null, "activity_regularizer": null, "kernel_constraint": null, "bias_constraint": null}, "name": "dense_1", "inbound_nodes": [[["dense", 0, 0, {}]]]}, {"class_name": "Dense", "config": {"name": "dense_2", "trainable": true, "dtype": "float32", "units": 512, "activation": "relu", "use_bias": true, "kernel_initializer": {"class_name": "GlorotUniform", "config": {"seed": null}}, "bias_initializer": {"class_name": "Zeros", "config": {}}, "kernel_regularizer": null, "bias_regularizer": null, "activity_regularizer": null, "kernel_constraint": null, "bias_constraint": null}, "name": "dense_2", "inbound_nodes": [[["dense_1", 0, 0, {}]]]}, {"class_name": "Dense", "config": {"name": "dense_3", "trainable": true, "dtype": "float32", "units": 1, "activation": "sigmoid", "use_bias": true, "kernel_initializer": {"class_name": "GlorotUniform", "config": {"seed": null}}, "bias_initializer": {"class_name": "Zeros", "config": {}}, "kernel_regularizer": null, "bias_regularizer": null, "activity_regularizer": null, "kernel_constraint": null, "bias_constraint": null}, "name": "dense_3", "inbound_nodes": [[["dense_2", 0, 0, {}]]]}], "input_layers": [["input_1", 0, 0]], "output_layers": [["dense_3", 0, 0]]}}, "training_config": {"loss": "binary_crossentropy", "metrics": ["acc"], "weighted_metrics": null, "sample_weight_mode": null, "loss_weights": null, "optimizer_config": {"class_name": "Adam", "config": {"name": "Adam", "learning_rate": 9.999999747378752e-05, "decay": 0.0, "beta_1": 0.8999999761581421, "beta_2": 0.9990000128746033, "epsilon": 1e-07, "amsgrad": false}}}}, "weightsManifest": [{"paths": ["group1-shard1of2.bin", "group1-shard2of2.bin"], "weights": [{"name": "Conv1/kernel", "shape": [3, 3, 3, 32], "dtype": "float32", "quantization": {"min": -0.7731621312160117, "scale": 0.005947401009353937, "dtype": "uint8"}}, {"name": "Conv_1/kernel", "shape": [1, 1, 320, 1280], "dtype": "float32", "quantization": {"min": -0.14584656287642087, "scale": 0.0011483981328852036, "dtype": "uint8"}}, {"name": "Conv_1_bn/gamma", "shape": [1280], "dtype": "float32", "quantization": {"min": 4.062487602233887, "scale": 0.004290079603008195, "dtype": "uint8"}}, {"name": "Conv_1_bn/beta", "shape": [1280], "dtype": "float32", "quantization": {"min": -5.494316101074219, "scale": 0.007118664535821653, "dtype": "uint8"}}, {"name": "Conv_1_bn/moving_mean", "shape": [1280], "dtype": "float32", "quantization": {"min": -0.002277592977728037, "scale": 1.6871059094281756e-05, "dtype": "uint8"}}, {"name": "Conv_1_bn/moving_variance", "shape": [1280], "dtype": "float32", "quantization": {"min": 0.9300438761711121, "scale": 0.0013394451608844831, "dtype": "uint8"}}, {"name": "block_10_depthwise/depthwise_kernel", "shape": [3, 3, 384, 1], "dtype": "float32", "quantization": {"min": -4.093952852136948, "scale": 0.0341162737678079, "dtype": "uint8"}}, {"name": "block_10_depthwise_BN/gamma", "shape": [384], "dtype": "float32", "quantization": {"min": 0.39495429396629333, "scale": 0.007285525401433309, "dtype": "uint8"}}, {"name": "block_10_depthwise_BN/beta", "shape": [384], "dtype": "float32", "quantization": {"min": -1.6707037420833812, "scale": 0.023204218640046962, "dtype": "uint8"}}, {"name": "block_10_depthwise_BN/moving_mean", "shape": [384], "dtype": "float32", "quantization": {"min": -10.715410473767449, "scale": 0.06340479570276597, "dtype": "uint8"}}, {"name": "block_10_depthwise_BN/moving_variance", "shape": [384], "dtype": "float32", "quantization": {"min": 0.2253437638282776, "scale": 0.08217157826704137, "dtype": "uint8"}}, {"name": "block_10_expand/kernel", "shape": [1, 1, 64, 384], "dtype": "float32", "quantization": {"min": -0.4768272533136255, "scale": 0.0038146180265090043, "dtype": "uint8"}}, {"name": "block_10_expand_BN/gamma", "shape": [384], "dtype": "float32", "quantization": {"min": 0.31644758582115173, "scale": 0.006765773833966723, "dtype": "uint8"}}, {"name": "block_10_expand_BN/beta", "shape": [384], "dtype": "float32", "quantization": {"min": -1.9367559432983397, "scale": 0.01627526002771714, "dtype": "uint8"}}, {"name": "block_10_expand_BN/moving_mean", "shape": [384], "dtype": "float32", "quantization": {"min": -0.016674501605916256, "scale": 0.00011996044320803063, "dtype": "uint8"}}, {"name": "block_10_expand_BN/moving_variance", "shape": [384], "dtype": "float32", "quantization": {"min": 2.5313289165496826, "scale": 0.08239427921818752, "dtype": "uint8"}}, {"name": "block_10_project/kernel", "shape": [1, 1, 384, 96], "dtype": "float32", "quantization": {"min": -0.3650217512074639, "scale": 0.0033183795564314896, "dtype": "uint8"}}, {"name": "block_10_project_BN/gamma", "shape": [96], "dtype": "float32", "quantization": {"min": 1.824577808380127, "scale": 0.010009301877489277, "dtype": "uint8"}}, {"name": "block_10_project_BN/beta", "shape": [96], "dtype": "float32", "quantization": {"min": -0.007312561976997292, "scale": 5.337636479560067e-05, "dtype": "uint8"}}, {"name": "block_10_project_BN/moving_mean", "shape": [96], "dtype": "float32", "quantization": {"min": -4.480696128396427, "scale": 0.03068969950956457, "dtype": "uint8"}}, {"name": "block_10_project_BN/moving_variance", "shape": [96], "dtype": "float32", "quantization": {"min": 0.4458771347999573, "scale": 0.019720709323883055, "dtype": "uint8"}}, {"name": "block_11_depthwise/depthwise_kernel", "shape": [3, 3, 576, 1], "dtype": "float32", "quantization": {"min": -3.145730168211694, "scale": 0.024197924370859183, "dtype": "uint8"}}, {"name": "block_11_depthwise_BN/gamma", "shape": [576], "dtype": "float32", "quantization": {"min": 0.2529132068157196, "scale": 0.012033520609724756, "dtype": "uint8"}}, {"name": "block_11_depthwise_BN/beta", "shape": [576], "dtype": "float32", "quantization": {"min": -3.51359614203958, "scale": 0.024231697531307446, "dtype": "uint8"}}, {"name": "block_11_depthwise_BN/moving_mean", "shape": [576], "dtype": "float32", "quantization": {"min": -7.013469945683198, "scale": 0.04101444412680233, "dtype": "uint8"}}, {"name": "block_11_depthwise_BN/moving_variance", "shape": [576], "dtype": "float32", "quantization": {"min": 0.00018546728824730963, "scale": 0.04372240524087329, "dtype": "uint8"}}, {"name": "block_11_expand/kernel", "shape": [1, 1, 96, 576], "dtype": "float32", "quantization": {"min": -0.2987971586339614, "scale": 0.0023343528018278234, "dtype": "uint8"}}, {"name": "block_11_expand_BN/gamma", "shape": [576], "dtype": "float32", "quantization": {"min": 0.0032904082909226418, "scale": 0.011155069601155964, "dtype": "uint8"}}, {"name": "block_11_expand_BN/beta", "shape": [576], "dtype": "float32", "quantization": {"min": -1.6857223370495966, "scale": 0.01873024818943996, "dtype": "uint8"}}, {"name": "block_11_expand_BN/moving_mean", "shape": [576], "dtype": "float32", "quantization": {"min": -0.0033664417033101995, "scale": 2.589570541007846e-05, "dtype": "uint8"}}, {"name": "block_11_expand_BN/moving_variance", "shape": [576], "dtype": "float32", "quantization": {"min": 1.6033405343413715e-14, "scale": 0.02991357317157814, "dtype": "uint8"}}, {"name": "block_11_project/kernel", "shape": [1, 1, 576, 96], "dtype": "float32", "quantization": {"min": -0.2418796223752639, "scale": 0.0019506421159295475, "dtype": "uint8"}}, {"name": "block_11_project_BN/gamma", "shape": [96], "dtype": "float32", "quantization": {"min": 0.6457561254501343, "scale": 0.008157772643893373, "dtype": "uint8"}}, {"name": "block_11_project_BN/beta", "shape": [96], "dtype": "float32", "quantization": {"min": -0.0065546326211416255, "scale": 4.22879523944621e-05, "dtype": "uint8"}}, {"name": "block_11_project_BN/moving_mean", "shape": [96], "dtype": "float32", "quantization": {"min": -2.0623813348657944, "scale": 0.016767327925738165, "dtype": "uint8"}}, {"name": "block_11_project_BN/moving_variance", "shape": [96], "dtype": "float32", "quantization": {"min": 0.09492480754852295, "scale": 0.0009093222664851769, "dtype": "uint8"}}, {"name": "block_12_depthwise/depthwise_kernel", "shape": [3, 3, 576, 1], "dtype": "float32", "quantization": {"min": -3.0611273204579073, "scale": 0.024887213987462662, "dtype": "uint8"}}, {"name": "block_12_depthwise_BN/gamma", "shape": [576], "dtype": "float32", "quantization": {"min": 0.20686063170433044, "scale": 0.018330915885813096, "dtype": "uint8"}}, {"name": "block_12_depthwise_BN/beta", "shape": [576], "dtype": "float32", "quantization": {"min": -5.973729683371151, "scale": 0.036425180996165554, "dtype": "uint8"}}, {"name": "block_12_depthwise_BN/moving_mean", "shape": [576], "dtype": "float32", "quantization": {"min": -10.891064737357345, "scale": 0.055566656823251764, "dtype": "uint8"}}, {"name": "block_12_depthwise_BN/moving_variance", "shape": [576], "dtype": "float32", "quantization": {"min": 0.00018823360733222216, "scale": 0.03860775675589228, "dtype": "uint8"}}, {"name": "block_12_expand/kernel", "shape": [1, 1, 96, 576], "dtype": "float32", "quantization": {"min": -0.24911152662015426, "scale": 0.0020587729472740022, "dtype": "uint8"}}, {"name": "block_12_expand_BN/gamma", "shape": [576], "dtype": "float32", "quantization": {"min": 0.22791418433189392, "scale": 0.010019853652692309, "dtype": "uint8"}}, {"name": "block_12_expand_BN/beta", "shape": [576], "dtype": "float32", "quantization": {"min": -1.9294522341559914, "scale": 0.016491044736375995, "dtype": "uint8"}}, {"name": "block_12_expand_BN/moving_mean", "shape": [576], "dtype": "float32", "quantization": {"min": -0.005139187739833313, "scale": 4.178201414498628e-05, "dtype": "uint8"}}, {"name": "block_12_expand_BN/moving_variance", "shape": [576], "dtype": "float32", "quantization": {"min": 0.8975226879119873, "scale": 0.032502332388185985, "dtype": "uint8"}}, {"name": "block_12_project/kernel", "shape": [1, 1, 576, 96], "dtype": "float32", "quantization": {"min": -0.4624407742537704, "scale": 0.0032566251708012, "dtype": "uint8"}}, {"name": "block_12_project_BN/gamma", "shape": [96], "dtype": "float32", "quantization": {"min": 0.7653709053993225, "scale": 0.01337346820270314, "dtype": "uint8"}}, {"name": "block_12_project_BN/beta", "shape": [96], "dtype": "float32", "quantization": {"min": -0.005544351048621477, "scale": 3.960250749015341e-05, "dtype": "uint8"}}, {"name": "block_12_project_BN/moving_mean", "shape": [96], "dtype": "float32", "quantization": {"min": -1.9836933584774241, "scale": 0.01377564832275989, "dtype": "uint8"}}, {"name": "block_12_project_BN/moving_variance", "shape": [96], "dtype": "float32", "quantization": {"min": 0.06621505320072174, "scale": 0.0009313045179142671, "dtype": "uint8"}}, {"name": "block_13_depthwise/depthwise_kernel", "shape": [3, 3, 576, 1], "dtype": "float32", "quantization": {"min": -1.4760275952956254, "scale": 0.011182027237088072, "dtype": "uint8"}}, {"name": "block_13_depthwise_BN/gamma", "shape": [576], "dtype": "float32", "quantization": {"min": 0.3253788352012634, "scale": 0.005664358653274237, "dtype": "uint8"}}, {"name": "block_13_depthwise_BN/beta", "shape": [576], "dtype": "float32", "quantization": {"min": -2.2423173062941606, "scale": 0.02701587116017061, "dtype": "uint8"}}, {"name": "block_13_depthwise_BN/moving_mean", "shape": [576], "dtype": "float32", "quantization": {"min": -8.01244800418031, "scale": 0.048267759061327166, "dtype": "uint8"}}, {"name": "block_13_depthwise_BN/moving_variance", "shape": [576], "dtype": "float32", "quantization": {"min": 0.03932855278253555, "scale": 0.07478339634105272, "dtype": "uint8"}}, {"name": "block_13_expand/kernel", "shape": [1, 1, 96, 576], "dtype": "float32", "quantization": {"min": -0.4102533997273913, "scale": 0.0031557953825183944, "dtype": "uint8"}}, {"name": "block_13_expand_BN/gamma", "shape": [576], "dtype": "float32", "quantization": {"min": 0.10271283239126205, "scale": 0.007122220858639362, "dtype": "uint8"}}, {"name": "block_13_expand_BN/beta", "shape": [576], "dtype": "float32", "quantization": {"min": -2.8282711337594426, "scale": 0.019778119816499597, "dtype": "uint8"}}, {"name": "block_13_expand_BN/moving_mean", "shape": [576], "dtype": "float32", "quantization": {"min": -0.011264866203361866, "scale": 7.877528813539767e-05, "dtype": "uint8"}}, {"name": "block_13_expand_BN/moving_variance", "shape": [576], "dtype": "float32", "quantization": {"min": 0.7803860902786255, "scale": 0.05379100079629935, "dtype": "uint8"}}, {"name": "block_13_project/kernel", "shape": [1, 1, 576, 160], "dtype": "float32", "quantization": {"min": -0.379067392910228, "scale": 0.0028936442206887636, "dtype": "uint8"}}, {"name": "block_13_project_BN/gamma", "shape": [160], "dtype": "float32", "quantization": {"min": 1.5413576364517212, "scale": 0.0059646152982524795, "dtype": "uint8"}}, {"name": "block_13_project_BN/beta", "shape": [160], "dtype": "float32", "quantization": {"min": -0.005037289003238959, "scale": 4.579353639308144e-05, "dtype": "uint8"}}, {"name": "block_13_project_BN/moving_mean", "shape": [160], "dtype": "float32", "quantization": {"min": -4.720542217703427, "scale": 0.038378392013848996, "dtype": "uint8"}}, {"name": "block_13_project_BN/moving_variance", "shape": [160], "dtype": "float32", "quantization": {"min": 0.19388416409492493, "scale": 0.009356292906929464, "dtype": "uint8"}}, {"name": "block_14_depthwise/depthwise_kernel", "shape": [3, 3, 960, 1], "dtype": "float32", "quantization": {"min": -3.834489306281595, "scale": 0.026628397960288853, "dtype": "uint8"}}, {"name": "block_14_depthwise_BN/gamma", "shape": [960], "dtype": "float32", "quantization": {"min": 0.2779587507247925, "scale": 0.017525540613660625, "dtype": "uint8"}}, {"name": "block_14_depthwise_BN/beta", "shape": [960], "dtype": "float32", "quantization": {"min": -5.424432277679444, "scale": 0.032875347137451175, "dtype": "uint8"}}, {"name": "block_14_depthwise_BN/moving_mean", "shape": [960], "dtype": "float32", "quantization": {"min": -5.376899057276109, "scale": 0.0459564021989411, "dtype": "uint8"}}, {"name": "block_14_depthwise_BN/moving_variance", "shape": [960], "dtype": "float32", "quantization": {"min": 0.00011294489377178252, "scale": 0.08839447009776646, "dtype": "uint8"}}, {"name": "block_14_expand/kernel", "shape": [1, 1, 160, 960], "dtype": "float32", "quantization": {"min": -0.2884653477107777, "scale": 0.00223616548613006, "dtype": "uint8"}}, {"name": "block_14_expand_BN/gamma", "shape": [960], "dtype": "float32", "quantization": {"min": 0.2863762676715851, "scale": 0.008839557568232218, "dtype": "uint8"}}, {"name": "block_14_expand_BN/beta", "shape": [960], "dtype": "float32", "quantization": {"min": -1.8760818322499595, "scale": 0.015898998578389487, "dtype": "uint8"}}, {"name": "block_14_expand_BN/moving_mean", "shape": [960], "dtype": "float32", "quantization": {"min": -0.003474062593544231, "scale": 2.969284267986522e-05, "dtype": "uint8"}}, {"name": "block_14_expand_BN/moving_variance", "shape": [960], "dtype": "float32", "quantization": {"min": 0.525417685508728, "scale": 0.027120334494347666, "dtype": "uint8"}}, {"name": "block_14_project/kernel", "shape": [1, 1, 960, 160], "dtype": "float32", "quantization": {"min": -0.29404122297670326, "scale": 0.0020562323285084143, "dtype": "uint8"}}, {"name": "block_14_project_BN/gamma", "shape": [160], "dtype": "float32", "quantization": {"min": 0.8508678078651428, "scale": 0.006892696782654407, "dtype": "uint8"}}, {"name": "block_14_project_BN/beta", "shape": [160], "dtype": "float32", "quantization": {"min": -0.003990754660438089, "scale": 3.117777078467257e-05, "dtype": "uint8"}}, {"name": "block_14_project_BN/moving_mean", "shape": [160], "dtype": "float32", "quantization": {"min": -2.2484322435715622, "scale": 0.016060230311225443, "dtype": "uint8"}}, {"name": "block_14_project_BN/moving_variance", "shape": [160], "dtype": "float32", "quantization": {"min": 0.1374804973602295, "scale": 0.0016426773632273954, "dtype": "uint8"}}, {"name": "block_15_depthwise/depthwise_kernel", "shape": [3, 3, 960, 1], "dtype": "float32", "quantization": {"min": -3.7892360500260898, "scale": 0.028490496616737516, "dtype": "uint8"}}, {"name": "block_15_depthwise_BN/gamma", "shape": [960], "dtype": "float32", "quantization": {"min": 0.15433762967586517, "scale": 0.017101803071358626, "dtype": "uint8"}}, {"name": "block_15_depthwise_BN/beta", "shape": [960], "dtype": "float32", "quantization": {"min": -6.165310594147327, "scale": 0.035844829035740274, "dtype": "uint8"}}, {"name": "block_15_depthwise_BN/moving_mean", "shape": [960], "dtype": "float32", "quantization": {"min": -15.000218305400773, "scale": 0.09146474576463887, "dtype": "uint8"}}, {"name": "block_15_depthwise_BN/moving_variance", "shape": [960], "dtype": "float32", "quantization": {"min": 2.0707619114546105e-05, "scale": 0.08956651233780648, "dtype": "uint8"}}, {"name": "block_15_expand/kernel", "shape": [1, 1, 160, 960], "dtype": "float32", "quantization": {"min": -0.28139762200561225, "scale": 0.0023065378852919036, "dtype": "uint8"}}, {"name": "block_15_expand_BN/gamma", "shape": [960], "dtype": "float32", "quantization": {"min": 0.17773868143558502, "scale": 0.010369661684129752, "dtype": "uint8"}}, {"name": "block_15_expand_BN/beta", "shape": [960], "dtype": "float32", "quantization": {"min": -2.0688467895283416, "scale": 0.018308378668392404, "dtype": "uint8"}}, {"name": "block_15_expand_BN/moving_mean", "shape": [960], "dtype": "float32", "quantization": {"min": -0.005607050094826548, "scale": 4.875695734631781e-05, "dtype": "uint8"}}, {"name": "block_15_expand_BN/moving_variance", "shape": [960], "dtype": "float32", "quantization": {"min": 0.8357638120651245, "scale": 0.05091796996546727, "dtype": "uint8"}}, {"name": "block_15_project/kernel", "shape": [1, 1, 960, 160], "dtype": "float32", "quantization": {"min": -0.4413478458628935, "scale": 0.0033435442868401024, "dtype": "uint8"}}, {"name": "block_15_project_BN/gamma", "shape": [160], "dtype": "float32", "quantization": {"min": 1.2596725225448608, "scale": 0.010847784023658902, "dtype": "uint8"}}, {"name": "block_15_project_BN/beta", "shape": [160], "dtype": "float32", "quantization": {"min": -0.0026966720271636457, "scale": 2.0124418113161534e-05, "dtype": "uint8"}}, {"name": "block_15_project_BN/moving_mean", "shape": [160], "dtype": "float32", "quantization": {"min": -2.5247398825252754, "scale": 0.014345112968893611, "dtype": "uint8"}}, {"name": "block_15_project_BN/moving_variance", "shape": [160], "dtype": "float32", "quantization": {"min": 0.03685849532485008, "scale": 0.0004494266913217657, "dtype": "uint8"}}, {"name": "block_16_depthwise/depthwise_kernel", "shape": [3, 3, 960, 1], "dtype": "float32", "quantization": {"min": -2.804117539349724, "scale": 0.0233676461612477, "dtype": "uint8"}}, {"name": "block_16_depthwise_BN/gamma", "shape": [960], "dtype": "float32", "quantization": {"min": 0.4450490474700928, "scale": 0.011903021382350547, "dtype": "uint8"}}, {"name": "block_16_depthwise_BN/beta", "shape": [960], "dtype": "float32", "quantization": {"min": -3.7246141854454486, "scale": 0.032387949438656076, "dtype": "uint8"}}, {"name": "block_16_depthwise_BN/moving_mean", "shape": [960], "dtype": "float32", "quantization": {"min": -5.71121867684757, "scale": 0.03661037613363827, "dtype": "uint8"}}, {"name": "block_16_depthwise_BN/moving_variance", "shape": [960], "dtype": "float32", "quantization": {"min": 6.481325544882566e-05, "scale": 0.24477308699056533, "dtype": "uint8"}}, {"name": "block_16_expand/kernel", "shape": [1, 1, 160, 960], "dtype": "float32", "quantization": {"min": -0.38113587077926186, "scale": 0.0030986656160915597, "dtype": "uint8"}}, {"name": "block_16_expand_BN/gamma", "shape": [960], "dtype": "float32", "quantization": {"min": 0.26177701354026794, "scale": 0.013377570755341473, "dtype": "uint8"}}, {"name": "block_16_expand_BN/beta", "shape": [960], "dtype": "float32", "quantization": {"min": -1.8364253333970613, "scale": 0.015562926554212384, "dtype": "uint8"}}, {"name": "block_16_expand_BN/moving_mean", "shape": [960], "dtype": "float32", "quantization": {"min": -0.007742243073880673, "scale": 7.590434386157522e-05, "dtype": "uint8"}}, {"name": "block_16_expand_BN/moving_variance", "shape": [960], "dtype": "float32", "quantization": {"min": 1.1546292304992676, "scale": 0.12758993821985581, "dtype": "uint8"}}, {"name": "block_16_project/kernel", "shape": [1, 1, 960, 320], "dtype": "float32", "quantization": {"min": -0.4352681981582268, "scale": 0.003993286221635108, "dtype": "uint8"}}, {"name": "block_16_project_BN/gamma", "shape": [320], "dtype": "float32", "quantization": {"min": 1.7414618730545044, "scale": 0.006912547934289072, "dtype": "uint8"}}, {"name": "block_16_project_BN/beta", "shape": [320], "dtype": "float32", "quantization": {"min": -0.002220322199932793, "scale": 2.036992843975039e-05, "dtype": "uint8"}}, {"name": "block_16_project_BN/moving_mean", "shape": [320], "dtype": "float32", "quantization": {"min": -9.477711476531683, "scale": 0.05123087284611721, "dtype": "uint8"}}, {"name": "block_16_project_BN/moving_variance", "shape": [320], "dtype": "float32", "quantization": {"min": 0.20465059578418732, "scale": 0.006693316616264044, "dtype": "uint8"}}, {"name": "block_1_depthwise/depthwise_kernel", "shape": [3, 3, 96, 1], "dtype": "float32", "quantization": {"min": -3.0725193799710744, "scale": 0.025392722148521275, "dtype": "uint8"}}, {"name": "block_1_depthwise_BN/gamma", "shape": [96], "dtype": "float32", "quantization": {"min": 0.45326632261276245, "scale": 0.011622508600646375, "dtype": "uint8"}}, {"name": "block_1_depthwise_BN/beta", "shape": [96], "dtype": "float32", "quantization": {"min": -4.131769672094607, "scale": 0.0341468567941703, "dtype": "uint8"}}, {"name": "block_1_depthwise_BN/moving_mean", "shape": [96], "dtype": "float32", "quantization": {"min": -28.681035838407627, "scale": 0.2655651466519225, "dtype": "uint8"}}, {"name": "block_1_depthwise_BN/moving_variance", "shape": [96], "dtype": "float32", "quantization": {"min": 0.16565752029418945, "scale": 0.8500873920964259, "dtype": "uint8"}}, {"name": "block_1_expand/kernel", "shape": [1, 1, 16, 96], "dtype": "float32", "quantization": {"min": -1.123040149492376, "scale": 0.006975404655232149, "dtype": "uint8"}}, {"name": "block_1_expand_BN/gamma", "shape": [96], "dtype": "float32", "quantization": {"min": 0.20588980615139008, "scale": 0.03753212906566321, "dtype": "uint8"}}, {"name": "block_1_expand_BN/beta", "shape": [96], "dtype": "float32", "quantization": {"min": -2.2416487301097194, "scale": 0.028020609126371495, "dtype": "uint8"}}, {"name": "block_1_expand_BN/moving_mean", "shape": [96], "dtype": "float32", "quantization": {"min": -0.05371397143485499, "scale": 0.00036790391393736295, "dtype": "uint8"}}, {"name": "block_1_expand_BN/moving_variance", "shape": [96], "dtype": "float32", "quantization": {"min": 1.6491490602493286, "scale": 0.0584666602751788, "dtype": "uint8"}}, {"name": "block_1_project/kernel", "shape": [1, 1, 96, 24], "dtype": "float32", "quantization": {"min": -1.2286525053136488, "scale": 0.0074463788200827205, "dtype": "uint8"}}, {"name": "block_1_project_BN/gamma", "shape": [24], "dtype": "float32", "quantization": {"min": 1.9872292280197144, "scale": 0.013049210286607929, "dtype": "uint8"}}, {"name": "block_1_project_BN/beta", "shape": [24], "dtype": "float32", "quantization": {"min": -0.010182667633189875, "scale": 8.081482248563392e-05, "dtype": "uint8"}}, {"name": "block_1_project_BN/moving_mean", "shape": [24], "dtype": "float32", "quantization": {"min": -5.111529929965151, "scale": 0.03194706206228219, "dtype": "uint8"}}, {"name": "block_1_project_BN/moving_variance", "shape": [24], "dtype": "float32", "quantization": {"min": 0.21607929468154907, "scale": 0.01081465809952979, "dtype": "uint8"}}, {"name": "block_2_depthwise/depthwise_kernel", "shape": [3, 3, 144, 1], "dtype": "float32", "quantization": {"min": -7.222674268834731, "scale": 0.05872092901491651, "dtype": "uint8"}}, {"name": "block_2_depthwise_BN/gamma", "shape": [144], "dtype": "float32", "quantization": {"min": 0.4111320972442627, "scale": 0.008282132242240158, "dtype": "uint8"}}, {"name": "block_2_depthwise_BN/beta", "shape": [144], "dtype": "float32", "quantization": {"min": -3.2914286893956803, "scale": 0.03428571551453834, "dtype": "uint8"}}, {"name": "block_2_depthwise_BN/moving_mean", "shape": [144], "dtype": "float32", "quantization": {"min": -11.396499820784026, "scale": 0.05998157800412646, "dtype": "uint8"}}, {"name": "block_2_depthwise_BN/moving_variance", "shape": [144], "dtype": "float32", "quantization": {"min": 3.917904591177378e-36, "scale": 0.14297907212201286, "dtype": "uint8"}}, {"name": "block_2_expand/kernel", "shape": [1, 1, 24, 144], "dtype": "float32", "quantization": {"min": -0.46050055424372355, "scale": 0.003869752556669946, "dtype": "uint8"}}, {"name": "block_2_expand_BN/gamma", "shape": [144], "dtype": "float32", "quantization": {"min": 0.1830986887216568, "scale": 0.016416738956582314, "dtype": "uint8"}}, {"name": "block_2_expand_BN/beta", "shape": [144], "dtype": "float32", "quantization": {"min": -2.5839327082914467, "scale": 0.028710363425460517, "dtype": "uint8"}}, {"name": "block_2_expand_BN/moving_mean", "shape": [144], "dtype": "float32", "quantization": {"min": -0.0077518521570691876, "scale": 6.056134497710303e-05, "dtype": "uint8"}}, {"name": "block_2_expand_BN/moving_variance", "shape": [144], "dtype": "float32", "quantization": {"min": 1.3089921677560534e-34, "scale": 0.07930858088474647, "dtype": "uint8"}}, {"name": "block_2_project/kernel", "shape": [1, 1, 144, 24], "dtype": "float32", "quantization": {"min": -0.465545773973652, "scale": 0.0041566586961933214, "dtype": "uint8"}}, {"name": "block_2_project_BN/gamma", "shape": [24], "dtype": "float32", "quantization": {"min": 1.4457885026931763, "scale": 0.024721908101848527, "dtype": "uint8"}}, {"name": "block_2_project_BN/beta", "shape": [24], "dtype": "float32", "quantization": {"min": -0.006624955420984941, "scale": 5.66235506067089e-05, "dtype": "uint8"}}, {"name": "block_2_project_BN/moving_mean", "shape": [24], "dtype": "float32", "quantization": {"min": -4.311272580015893, "scale": 0.03716614293117149, "dtype": "uint8"}}, {"name": "block_2_project_BN/moving_variance", "shape": [24], "dtype": "float32", "quantization": {"min": 0.4416031539440155, "scale": 0.0043370472449882356, "dtype": "uint8"}}, {"name": "block_3_depthwise/depthwise_kernel", "shape": [3, 3, 144, 1], "dtype": "float32", "quantization": {"min": -2.2848837843128282, "scale": 0.017991210900101008, "dtype": "uint8"}}, {"name": "block_3_depthwise_BN/gamma", "shape": [144], "dtype": "float32", "quantization": {"min": 0.3297063708305359, "scale": 0.011645550120110605, "dtype": "uint8"}}, {"name": "block_3_depthwise_BN/beta", "shape": [144], "dtype": "float32", "quantization": {"min": -2.8255532760246127, "scale": 0.03105003600027047, "dtype": "uint8"}}, {"name": "block_3_depthwise_BN/moving_mean", "shape": [144], "dtype": "float32", "quantization": {"min": -28.69862283444872, "scale": 0.18515240538354014, "dtype": "uint8"}}, {"name": "block_3_depthwise_BN/moving_variance", "shape": [144], "dtype": "float32", "quantization": {"min": 0.1491852104663849, "scale": 0.4235039204943414, "dtype": "uint8"}}, {"name": "block_3_expand/kernel", "shape": [1, 1, 24, 144], "dtype": "float32", "quantization": {"min": -0.9510783728431252, "scale": 0.00704502498402315, "dtype": "uint8"}}, {"name": "block_3_expand_BN/gamma", "shape": [144], "dtype": "float32", "quantization": {"min": 0.2812192142009735, "scale": 0.014018893826241587, "dtype": "uint8"}}, {"name": "block_3_expand_BN/beta", "shape": [144], "dtype": "float32", "quantization": {"min": -2.3538205632976457, "scale": 0.025040644290400486, "dtype": "uint8"}}, {"name": "block_3_expand_BN/moving_mean", "shape": [144], "dtype": "float32", "quantization": {"min": -0.008799966337049709, "scale": 7.58617787676699e-05, "dtype": "uint8"}}, {"name": "block_3_expand_BN/moving_variance", "shape": [144], "dtype": "float32", "quantization": {"min": 2.653489589691162, "scale": 0.13316901150871727, "dtype": "uint8"}}, {"name": "block_3_project/kernel", "shape": [1, 1, 144, 32], "dtype": "float32", "quantization": {"min": -0.6885061909170711, "scale": 0.006375057323306214, "dtype": "uint8"}}, {"name": "block_3_project_BN/gamma", "shape": [32], "dtype": "float32", "quantization": {"min": 2.4852371215820312, "scale": 0.01665202870088465, "dtype": "uint8"}}, {"name": "block_3_project_BN/beta", "shape": [32], "dtype": "float32", "quantization": {"min": -0.005940897282505153, "scale": 5.882076517331834e-05, "dtype": "uint8"}}, {"name": "block_3_project_BN/moving_mean", "shape": [32], "dtype": "float32", "quantization": {"min": -3.241914913701076, "scale": 0.03769668504303577, "dtype": "uint8"}}, {"name": "block_3_project_BN/moving_variance", "shape": [32], "dtype": "float32", "quantization": {"min": 0.5037391781806946, "scale": 0.029162693724912755, "dtype": "uint8"}}, {"name": "block_4_depthwise/depthwise_kernel", "shape": [3, 3, 192, 1], "dtype": "float32", "quantization": {"min": -4.981777617510628, "scale": 0.037177444906795726, "dtype": "uint8"}}, {"name": "block_4_depthwise_BN/gamma", "shape": [192], "dtype": "float32", "quantization": {"min": 0.4034898281097412, "scale": 0.009341718636307061, "dtype": "uint8"}}, {"name": "block_4_depthwise_BN/beta", "shape": [192], "dtype": "float32", "quantization": {"min": -2.9044304127786673, "scale": 0.024003557130402208, "dtype": "uint8"}}, {"name": "block_4_depthwise_BN/moving_mean", "shape": [192], "dtype": "float32", "quantization": {"min": -5.3506186990176925, "scale": 0.04458848915848077, "dtype": "uint8"}}, {"name": "block_4_depthwise_BN/moving_variance", "shape": [192], "dtype": "float32", "quantization": {"min": 0.020141297951340675, "scale": 0.04866266182678587, "dtype": "uint8"}}, {"name": "block_4_expand/kernel", "shape": [1, 1, 32, 192], "dtype": "float32", "quantization": {"min": -0.40471075142131135, "scale": 0.002870289017172421, "dtype": "uint8"}}, {"name": "block_4_expand_BN/gamma", "shape": [192], "dtype": "float32", "quantization": {"min": 0.13092413544654846, "scale": 0.007682248073465684, "dtype": "uint8"}}, {"name": "block_4_expand_BN/beta", "shape": [192], "dtype": "float32", "quantization": {"min": -2.609022454654469, "scale": 0.02249157288495232, "dtype": "uint8"}}, {"name": "block_4_expand_BN/moving_mean", "shape": [192], "dtype": "float32", "quantization": {"min": -0.003270432104667028, "scale": 2.404729488725756e-05, "dtype": "uint8"}}, {"name": "block_4_expand_BN/moving_variance", "shape": [192], "dtype": "float32", "quantization": {"min": 1.3549854755401611, "scale": 0.08314068644654517, "dtype": "uint8"}}, {"name": "block_4_project/kernel", "shape": [1, 1, 192, 32], "dtype": "float32", "quantization": {"min": -0.49547550666565987, "scale": 0.0034170724597631717, "dtype": "uint8"}}, {"name": "block_4_project_BN/gamma", "shape": [32], "dtype": "float32", "quantization": {"min": 0.9825640916824341, "scale": 0.0198654712415209, "dtype": "uint8"}}, {"name": "block_4_project_BN/beta", "shape": [32], "dtype": "float32", "quantization": {"min": -0.006176671173934843, "scale": 4.863520609397514e-05, "dtype": "uint8"}}, {"name": "block_4_project_BN/moving_mean", "shape": [32], "dtype": "float32", "quantization": {"min": -2.779050585802864, "scale": 0.02013804772320916, "dtype": "uint8"}}, {"name": "block_4_project_BN/moving_variance", "shape": [32], "dtype": "float32", "quantization": {"min": 0.1329783797264099, "scale": 0.00347366169387219, "dtype": "uint8"}}, {"name": "block_5_depthwise/depthwise_kernel", "shape": [3, 3, 192, 1], "dtype": "float32", "quantization": {"min": -4.559401979633406, "scale": 0.03256715699738147, "dtype": "uint8"}}, {"name": "block_5_depthwise_BN/gamma", "shape": [192], "dtype": "float32", "quantization": {"min": 0.42896607518196106, "scale": 0.008475734556422514, "dtype": "uint8"}}, {"name": "block_5_depthwise_BN/beta", "shape": [192], "dtype": "float32", "quantization": {"min": -2.880081204807057, "scale": 0.023415294348024855, "dtype": "uint8"}}, {"name": "block_5_depthwise_BN/moving_mean", "shape": [192], "dtype": "float32", "quantization": {"min": -18.28563065248377, "scale": 0.1033086477541456, "dtype": "uint8"}}, {"name": "block_5_depthwise_BN/moving_variance", "shape": [192], "dtype": "float32", "quantization": {"min": 0.05086759850382805, "scale": 0.043011278103964004, "dtype": "uint8"}}, {"name": "block_5_expand/kernel", "shape": [1, 1, 32, 192], "dtype": "float32", "quantization": {"min": -0.353896194228939, "scale": 0.0029247619357763554, "dtype": "uint8"}}, {"name": "block_5_expand_BN/gamma", "shape": [192], "dtype": "float32", "quantization": {"min": 0.14204168319702148, "scale": 0.007171092781366087, "dtype": "uint8"}}, {"name": "block_5_expand_BN/beta", "shape": [192], "dtype": "float32", "quantization": {"min": -1.6084142572739544, "scale": 0.019147788777070886, "dtype": "uint8"}}, {"name": "block_5_expand_BN/moving_mean", "shape": [192], "dtype": "float32", "quantization": {"min": -0.007235083626765831, "scale": 5.6524090834108054e-05, "dtype": "uint8"}}, {"name": "block_5_expand_BN/moving_variance", "shape": [192], "dtype": "float32", "quantization": {"min": 1.7435789108276367, "scale": 0.06449826184441061, "dtype": "uint8"}}, {"name": "block_5_project/kernel", "shape": [1, 1, 192, 32], "dtype": "float32", "quantization": {"min": -0.3546316687967263, "scale": 0.0027923753448561126, "dtype": "uint8"}}, {"name": "block_5_project_BN/gamma", "shape": [32], "dtype": "float32", "quantization": {"min": 0.9202798008918762, "scale": 0.01884991585039625, "dtype": "uint8"}}, {"name": "block_5_project_BN/beta", "shape": [32], "dtype": "float32", "quantization": {"min": -0.005499402860946515, "scale": 4.364605445195647e-05, "dtype": "uint8"}}, {"name": "block_5_project_BN/moving_mean", "shape": [32], "dtype": "float32", "quantization": {"min": -1.9194536461549647, "scale": 0.01729237519058527, "dtype": "uint8"}}, {"name": "block_5_project_BN/moving_variance", "shape": [32], "dtype": "float32", "quantization": {"min": 0.132505863904953, "scale": 0.002329149783826342, "dtype": "uint8"}}, {"name": "block_6_depthwise/depthwise_kernel", "shape": [3, 3, 192, 1], "dtype": "float32", "quantization": {"min": -1.9915157766903147, "scale": 0.016595964805752622, "dtype": "uint8"}}, {"name": "block_6_depthwise_BN/gamma", "shape": [192], "dtype": "float32", "quantization": {"min": 0.4212202727794647, "scale": 0.006595285382925295, "dtype": "uint8"}}, {"name": "block_6_depthwise_BN/beta", "shape": [192], "dtype": "float32", "quantization": {"min": -1.4899525978985955, "scale": 0.026139519261378866, "dtype": "uint8"}}, {"name": "block_6_depthwise_BN/moving_mean", "shape": [192], "dtype": "float32", "quantization": {"min": -15.642501371047075, "scale": 0.12125970055075252, "dtype": "uint8"}}, {"name": "block_6_depthwise_BN/moving_variance", "shape": [192], "dtype": "float32", "quantization": {"min": 0.3586663603782654, "scale": 0.33135004627938364, "dtype": "uint8"}}, {"name": "block_6_expand/kernel", "shape": [1, 1, 32, 192], "dtype": "float32", "quantization": {"min": -0.6465939633986529, "scale": 0.005131698122211531, "dtype": "uint8"}}, {"name": "block_6_expand_BN/gamma", "shape": [192], "dtype": "float32", "quantization": {"min": 0.4595538079738617, "scale": 0.009221328122943056, "dtype": "uint8"}}, {"name": "block_6_expand_BN/beta", "shape": [192], "dtype": "float32", "quantization": {"min": -1.8503412919885973, "scale": 0.015419510766571644, "dtype": "uint8"}}, {"name": "block_6_expand_BN/moving_mean", "shape": [192], "dtype": "float32", "quantization": {"min": -0.015791619569063185, "scale": 0.00013270268545431248, "dtype": "uint8"}}, {"name": "block_6_expand_BN/moving_variance", "shape": [192], "dtype": "float32", "quantization": {"min": 2.6866610050201416, "scale": 0.11478726910609825, "dtype": "uint8"}}, {"name": "block_6_project/kernel", "shape": [1, 1, 192, 64], "dtype": "float32", "quantization": {"min": -0.893232884126551, "scale": 0.005800213533289292, "dtype": "uint8"}}, {"name": "block_6_project_BN/gamma", "shape": [64], "dtype": "float32", "quantization": {"min": 0.8712877035140991, "scale": 0.02132128780963374, "dtype": "uint8"}}, {"name": "block_6_project_BN/beta", "shape": [64], "dtype": "float32", "quantization": {"min": -0.005760357178309384, "scale": 4.363906953264685e-05, "dtype": "uint8"}}, {"name": "block_6_project_BN/moving_mean", "shape": [64], "dtype": "float32", "quantization": {"min": -6.105498852449305, "scale": 0.0433014103010589, "dtype": "uint8"}}, {"name": "block_6_project_BN/moving_variance", "shape": [64], "dtype": "float32", "quantization": {"min": 0.17972365021705627, "scale": 0.04172871568623711, "dtype": "uint8"}}, {"name": "block_7_depthwise/depthwise_kernel", "shape": [3, 3, 384, 1], "dtype": "float32", "quantization": {"min": -3.2842692487380085, "scale": 0.022966917823342717, "dtype": "uint8"}}, {"name": "block_7_depthwise_BN/gamma", "shape": [384], "dtype": "float32", "quantization": {"min": 0.25614112615585327, "scale": 0.009489476680755615, "dtype": "uint8"}}, {"name": "block_7_depthwise_BN/beta", "shape": [384], "dtype": "float32", "quantization": {"min": -3.6185707989860982, "scale": 0.02116123274260876, "dtype": "uint8"}}, {"name": "block_7_depthwise_BN/moving_mean", "shape": [384], "dtype": "float32", "quantization": {"min": -21.468178476071827, "scale": 0.09457347346287148, "dtype": "uint8"}}, {"name": "block_7_depthwise_BN/moving_variance", "shape": [384], "dtype": "float32", "quantization": {"min": 0.0008763686055317521, "scale": 0.05125336015332198, "dtype": "uint8"}}, {"name": "block_7_expand/kernel", "shape": [1, 1, 64, 384], "dtype": "float32", "quantization": {"min": -0.3240600590612374, "scale": 0.002314714707580267, "dtype": "uint8"}}, {"name": "block_7_expand_BN/gamma", "shape": [384], "dtype": "float32", "quantization": {"min": 0.12716437876224518, "scale": 0.0057688698464748904, "dtype": "uint8"}}, {"name": "block_7_expand_BN/beta", "shape": [384], "dtype": "float32", "quantization": {"min": -1.5300361493054557, "scale": 0.019367546193739947, "dtype": "uint8"}}, {"name": "block_7_expand_BN/moving_mean", "shape": [384], "dtype": "float32", "quantization": {"min": -0.0028733876168581785, "scale": 2.0235124062381538e-05, "dtype": "uint8"}}, {"name": "block_7_expand_BN/moving_variance", "shape": [384], "dtype": "float32", "quantization": {"min": 0.8759049773216248, "scale": 0.023544104192771163, "dtype": "uint8"}}, {"name": "block_7_project/kernel", "shape": [1, 1, 384, 64], "dtype": "float32", "quantization": {"min": -0.5287401545281504, "scale": 0.0040361843857110715, "dtype": "uint8"}}, {"name": "block_7_project_BN/gamma", "shape": [64], "dtype": "float32", "quantization": {"min": 0.6159104108810425, "scale": 0.020012932665207806, "dtype": "uint8"}}, {"name": "block_7_project_BN/beta", "shape": [64], "dtype": "float32", "quantization": {"min": -0.00417531942948699, "scale": 3.508671789484865e-05, "dtype": "uint8"}}, {"name": "block_7_project_BN/moving_mean", "shape": [64], "dtype": "float32", "quantization": {"min": -0.8756972873912139, "scale": 0.013268140718048695, "dtype": "uint8"}}, {"name": "block_7_project_BN/moving_variance", "shape": [64], "dtype": "float32", "quantization": {"min": 0.11831926554441452, "scale": 0.006722916370513392, "dtype": "uint8"}}, {"name": "block_8_depthwise/depthwise_kernel", "shape": [3, 3, 384, 1], "dtype": "float32", "quantization": {"min": -3.4199198096406227, "scale": 0.026928502438115138, "dtype": "uint8"}}, {"name": "block_8_depthwise_BN/gamma", "shape": [384], "dtype": "float32", "quantization": {"min": 0.33018144965171814, "scale": 0.016076892614364624, "dtype": "uint8"}}, {"name": "block_8_depthwise_BN/beta", "shape": [384], "dtype": "float32", "quantization": {"min": -6.188450246698716, "scale": 0.032743122998405906, "dtype": "uint8"}}, {"name": "block_8_depthwise_BN/moving_mean", "shape": [384], "dtype": "float32", "quantization": {"min": -9.395975360683368, "scale": 0.04583402614967496, "dtype": "uint8"}}, {"name": "block_8_depthwise_BN/moving_variance", "shape": [384], "dtype": "float32", "quantization": {"min": 0.016602639108896255, "scale": 0.06616390030465874, "dtype": "uint8"}}, {"name": "block_8_expand/kernel", "shape": [1, 1, 64, 384], "dtype": "float32", "quantization": {"min": -0.5009402521685058, "scale": 0.0034547603597827985, "dtype": "uint8"}}, {"name": "block_8_expand_BN/gamma", "shape": [384], "dtype": "float32", "quantization": {"min": 0.08583920449018478, "scale": 0.005674216122019525, "dtype": "uint8"}}, {"name": "block_8_expand_BN/beta", "shape": [384], "dtype": "float32", "quantization": {"min": -1.4630245835173363, "scale": 0.01448539191601323, "dtype": "uint8"}}, {"name": "block_8_expand_BN/moving_mean", "shape": [384], "dtype": "float32", "quantization": {"min": -0.005369855762988913, "scale": 3.78158856548515e-05, "dtype": "uint8"}}, {"name": "block_8_expand_BN/moving_variance", "shape": [384], "dtype": "float32", "quantization": {"min": 1.1211869716644287, "scale": 0.042505253997503545, "dtype": "uint8"}}, {"name": "block_8_project/kernel", "shape": [1, 1, 384, 64], "dtype": "float32", "quantization": {"min": -0.28435291612849517, "scale": 0.0022567691756229776, "dtype": "uint8"}}, {"name": "block_8_project_BN/gamma", "shape": [64], "dtype": "float32", "quantization": {"min": 0.6608325839042664, "scale": 0.012629242738087972, "dtype": "uint8"}}, {"name": "block_8_project_BN/beta", "shape": [64], "dtype": "float32", "quantization": {"min": -0.004903629805673571, "scale": 3.6323183745730156e-05, "dtype": "uint8"}}, {"name": "block_8_project_BN/moving_mean", "shape": [64], "dtype": "float32", "quantization": {"min": -1.102851104736328, "scale": 0.008109199299531824, "dtype": "uint8"}}, {"name": "block_8_project_BN/moving_variance", "shape": [64], "dtype": "float32", "quantization": {"min": 0.08426177501678467, "scale": 0.0015959376213597316, "dtype": "uint8"}}, {"name": "block_9_depthwise/depthwise_kernel", "shape": [3, 3, 384, 1], "dtype": "float32", "quantization": {"min": -2.8299512255425547, "scale": 0.019789868710087796, "dtype": "uint8"}}, {"name": "block_9_depthwise_BN/gamma", "shape": [384], "dtype": "float32", "quantization": {"min": 0.37307485938072205, "scale": 0.007737706338658053, "dtype": "uint8"}}, {"name": "block_9_depthwise_BN/beta", "shape": [384], "dtype": "float32", "quantization": {"min": -4.169834217370725, "scale": 0.025119483237173043, "dtype": "uint8"}}, {"name": "block_9_depthwise_BN/moving_mean", "shape": [384], "dtype": "float32", "quantization": {"min": -4.612337449017693, "scale": 0.028827109056360583, "dtype": "uint8"}}, {"name": "block_9_depthwise_BN/moving_variance", "shape": [384], "dtype": "float32", "quantization": {"min": 0.0786745473742485, "scale": 0.02118369741182701, "dtype": "uint8"}}, {"name": "block_9_expand/kernel", "shape": [1, 1, 64, 384], "dtype": "float32", "quantization": {"min": -0.3182111382484436, "scale": 0.003030582269032796, "dtype": "uint8"}}, {"name": "block_9_expand_BN/gamma", "shape": [384], "dtype": "float32", "quantization": {"min": 0.22273610532283783, "scale": 0.007078134370785133, "dtype": "uint8"}}, {"name": "block_9_expand_BN/beta", "shape": [384], "dtype": "float32", "quantization": {"min": -1.3811185294506596, "scale": 0.011906194219402238, "dtype": "uint8"}}, {"name": "block_9_expand_BN/moving_mean", "shape": [384], "dtype": "float32", "quantization": {"min": -0.006360173574192267, "scale": 4.855094331444479e-05, "dtype": "uint8"}}, {"name": "block_9_expand_BN/moving_variance", "shape": [384], "dtype": "float32", "quantization": {"min": 1.5331552028656006, "scale": 0.04620306445103066, "dtype": "uint8"}}, {"name": "block_9_project/kernel", "shape": [1, 1, 384, 64], "dtype": "float32", "quantization": {"min": -0.5007505622564578, "scale": 0.0032944115937924854, "dtype": "uint8"}}, {"name": "block_9_project_BN/gamma", "shape": [64], "dtype": "float32", "quantization": {"min": 0.6971116662025452, "scale": 0.012087559933755912, "dtype": "uint8"}}, {"name": "block_9_project_BN/beta", "shape": [64], "dtype": "float32", "quantization": {"min": -0.003993573943700861, "scale": 2.893894162102073e-05, "dtype": "uint8"}}, {"name": "block_9_project_BN/moving_mean", "shape": [64], "dtype": "float32", "quantization": {"min": -1.7094466924667358, "scale": 0.010552140076955159, "dtype": "uint8"}}, {"name": "block_9_project_BN/moving_variance", "shape": [64], "dtype": "float32", "quantization": {"min": 0.07600204646587372, "scale": 0.0011172379348792282, "dtype": "uint8"}}, {"name": "bn_Conv1/gamma", "shape": [32], "dtype": "float32", "quantization": {"min": 0.15859852731227875, "scale": 0.016216956458839717, "dtype": "uint8"}}, {"name": "bn_Conv1/beta", "shape": [32], "dtype": "float32", "quantization": {"min": -6.16716075224035, "scale": 0.04282750522389132, "dtype": "uint8"}}, {"name": "bn_Conv1/moving_mean", "shape": [32], "dtype": "float32", "quantization": {"min": -0.2388407318615446, "scale": 0.0022321563725378, "dtype": "uint8"}}, {"name": "bn_Conv1/moving_variance", "shape": [32], "dtype": "float32", "quantization": {"min": 3.907289699258179e-36, "scale": 0.005602688415377748, "dtype": "uint8"}}, {"name": "dense/kernel", "shape": [1280, 1024], "dtype": "float32", "quantization": {"min": -0.05408366208567339, "scale": 0.0004292354133783602, "dtype": "uint8"}}, {"name": "dense/bias", "shape": [1024], "dtype": "float32", "quantization": {"min": -0.0025694888523396324, "scale": 1.9319465055185207e-05, "dtype": "uint8"}}, {"name": "dense_1/kernel", "shape": [1024, 1024], "dtype": "float32", "quantization": {"min": -0.05695115279625444, "scale": 0.00044843427398625545, "dtype": "uint8"}}, {"name": "dense_1/bias", "shape": [1024], "dtype": "float32", "quantization": {"min": -0.0023606616848458844, "scale": 1.9837493149965417e-05, "dtype": "uint8"}}, {"name": "dense_2/kernel", "shape": [1024, 512], "dtype": "float32", "quantization": {"min": -0.06606115768937504, "scale": 0.0005242949022966273, "dtype": "uint8"}}, {"name": "dense_2/bias", "shape": [512], "dtype": "float32", "quantization": {"min": -0.0022698635664567643, "scale": 2.3893300699544888e-05, "dtype": "uint8"}}, {"name": "dense_3/kernel", "shape": [512, 1], "dtype": "float32", "quantization": {"min": -0.10866905661190257, "scale": 0.0008489770047804888, "dtype": "uint8"}}, {"name": "dense_3/bias", "shape": [1], "dtype": "float32", "quantization": {"min": -0.00017984554870054126, "scale": 1.0, "dtype": "uint8"}}, {"name": "expanded_conv_depthwise/depthwise_kernel", "shape": [3, 3, 32, 1], "dtype": "float32", "quantization": {"min": -25.74281422484155, "scale": 0.19355499417174096, "dtype": "uint8"}}, {"name": "expanded_conv_depthwise_BN/gamma", "shape": [32], "dtype": "float32", "quantization": {"min": -0.09372427218100604, "scale": 0.007209559398538926, "dtype": "uint8"}}, {"name": "expanded_conv_depthwise_BN/beta", "shape": [32], "dtype": "float32", "quantization": {"min": -1.36798802170099, "scale": 0.018739561941109453, "dtype": "uint8"}}, {"name": "expanded_conv_depthwise_BN/moving_mean", "shape": [32], "dtype": "float32", "quantization": {"min": -13.662699740540749, "scale": 0.09972773533241422, "dtype": "uint8"}}, {"name": "expanded_conv_depthwise_BN/moving_variance", "shape": [32], "dtype": "float32", "quantization": {"min": 3.908455938312904e-36, "scale": 1.6299066281786152, "dtype": "uint8"}}, {"name": "expanded_conv_project/kernel", "shape": [1, 1, 32, 16], "dtype": "float32", "quantization": {"min": -1.2893707537183574, "scale": 0.008831306532317517, "dtype": "uint8"}}, {"name": "expanded_conv_project_BN/gamma", "shape": [16], "dtype": "float32", "quantization": {"min": 2.637812614440918, "scale": 0.009855462990555109, "dtype": "uint8"}}, {"name": "expanded_conv_project_BN/beta", "shape": [16], "dtype": "float32", "quantization": {"min": -0.03885560184717179, "scale": 0.0004466161131858826, "dtype": "uint8"}}, {"name": "expanded_conv_project_BN/moving_mean", "shape": [16], "dtype": "float32", "quantization": {"min": -4.357224674785838, "scale": 0.029243118622723746, "dtype": "uint8"}}, {"name": "expanded_conv_project_BN/moving_variance", "shape": [16], "dtype": "float32", "quantization": {"min": 0.21818426251411438, "scale": 0.0032110652502845317, "dtype": "uint8"}}]}]}