{"format": "layers-model", "generatedBy": "keras v2.2.4-tf", "convertedBy": "TensorFlow.js Converter v1.7.4r1", "modelTopology": {"keras_version": "2.2.4-tf", "backend": "tensorflow", "model_config": {"class_name": "Model", "config": {"name": "model", "layers": [{"class_name": "InputLayer", "config": {"batch_input_shape": [null, 224, 224, 3], "dtype": "float32", "sparse": false, "ragged": false, "name": "input_1"}, "name": "input_1", "inbound_nodes": []}, {"class_name": "ZeroPadding2D", "config": {"name": "Conv1_pad", "trainable": false, "dtype": "float32", "padding": [[0, 1], [0, 1]], "data_format": "channels_last"}, "name": "Conv1_pad", "inbound_nodes": [[["input_1", 0, 0, {}]]]}, {"class_name": "Conv2D", "config": {"name": "Conv1", "trainable": false, "dtype": "float32", "filters": 32, "kernel_size": [3, 3], "strides": [2, 2], "padding": "valid", "data_format": "channels_last", "dilation_rate": [1, 1], "activation": "linear", "use_bias": false, "kernel_initializer": {"class_name": "GlorotUniform", "config": {"seed": null}}, "bias_initializer": {"class_name": "Zeros", "config": {}}, "kernel_regularizer": null, "bias_regularizer": null, "activity_regularizer": null, "kernel_constraint": null, "bias_constraint": null}, "name": "Conv1", "inbound_nodes": [[["Conv1_pad", 0, 0, {}]]]}, {"class_name": "BatchNormalization", "config": {"name": "bn_Conv1", "trainable": false, "dtype": "float32", "axis": [3], "momentum": 0.999, "epsilon": 0.001, "center": true, "scale": true, "beta_initializer": {"class_name": "Zeros", "config": {}}, "gamma_initializer": {"class_name": "Ones", "config": {}}, "moving_mean_initializer": {"class_name": "Zeros", "config": {}}, "moving_variance_initializer": {"class_name": "Ones", "config": {}}, "beta_regularizer": null, "gamma_regularizer": null, "beta_constraint": null, "gamma_constraint": null}, "name": "bn_Conv1", "inbound_nodes": [[["Conv1", 0, 0, {}]]]}, {"class_name": "ReLU", "config": {"name": "Conv1_relu", "trainable": false, "dtype": "float32", "max_value": 6.0, "negative_slope": 0.0, "threshold": 0.0}, "name": "Conv1_relu", "inbound_nodes": [[["bn_Conv1", 0, 0, {}]]]}, {"class_name": "DepthwiseConv2D", "config": {"name": "expanded_conv_depthwise", "trainable": false, "dtype": "float32", "kernel_size": [3, 3], "strides": [1, 1], "padding": "same", "data_format": "channels_last", "dilation_rate": [1, 1], "activation": "linear", "use_bias": false, "bias_initializer": {"class_name": "Zeros", "config": {}}, "bias_regularizer": null, "activity_regularizer": null, "bias_constraint": null, "depth_multiplier": 1, "depthwise_initializer": {"class_name": "GlorotUniform", "config": {"seed": null}}, "depthwise_regularizer": null, "depthwise_constraint": null}, "name": "expanded_conv_depthwise", "inbound_nodes": [[["Conv1_relu", 0, 0, {}]]]}, {"class_name": "BatchNormalization", "config": {"name": "expanded_conv_depthwise_BN", "trainable": false, "dtype": "float32", "axis": [3], "momentum": 0.999, "epsilon": 0.001, "center": true, "scale": true, "beta_initializer": {"class_name": "Zeros", "config": {}}, "gamma_initializer": {"class_name": "Ones", "config": {}}, "moving_mean_initializer": {"class_name": "Zeros", "config": {}}, "moving_variance_initializer": {"class_name": "Ones", "config": {}}, "beta_regularizer": null, "gamma_regularizer": null, "beta_constraint": null, "gamma_constraint": null}, "name": "expanded_conv_depthwise_BN", "inbound_nodes": [[["expanded_conv_depthwise", 0, 0, {}]]]}, {"class_name": "ReLU", "config": {"name": "expanded_conv_depthwise_relu", "trainable": false, "dtype": "float32", "max_value": 6.0, "negative_slope": 0.0, "threshold": 0.0}, "name": "expanded_conv_depthwise_relu", "inbound_nodes": [[["expanded_conv_depthwise_BN", 0, 0, {}]]]}, {"class_name": "Conv2D", "config": {"name": "expanded_conv_project", "trainable": false, "dtype": "float32", "filters": 16, "kernel_size": [1, 1], "strides": [1, 1], "padding": "same", "data_format": "channels_last", "dilation_rate": [1, 1], "activation": "linear", "use_bias": false, "kernel_initializer": {"class_name": "GlorotUniform", "config": {"seed": null}}, "bias_initializer": {"class_name": "Zeros", "config": {}}, "kernel_regularizer": null, "bias_regularizer": null, "activity_regularizer": null, "kernel_constraint": null, "bias_constraint": null}, "name": "expanded_conv_project", "inbound_nodes": [[["expanded_conv_depthwise_relu", 0, 0, {}]]]}, {"class_name": "BatchNormalization", "config": {"name": "expanded_conv_project_BN", "trainable": false, "dtype": "float32", "axis": [3], "momentum": 0.999, "epsilon": 0.001, "center": true, "scale": true, "beta_initializer": {"class_name": "Zeros", "config": {}}, "gamma_initializer": {"class_name": "Ones", "config": {}}, "moving_mean_initializer": {"class_name": "Zeros", "config": {}}, "moving_variance_initializer": {"class_name": "Ones", "config": {}}, "beta_regularizer": null, "gamma_regularizer": null, "beta_constraint": null, "gamma_constraint": null}, "name": "expanded_conv_project_BN", "inbound_nodes": [[["expanded_conv_project", 0, 0, {}]]]}, {"class_name": "Conv2D", "config": {"name": "block_1_expand", "trainable": false, "dtype": "float32", "filters": 96, "kernel_size": [1, 1], "strides": [1, 1], "padding": "same", "data_format": "channels_last", "dilation_rate": [1, 1], "activation": "linear", "use_bias": false, "kernel_initializer": {"class_name": "GlorotUniform", "config": {"seed": null}}, "bias_initializer": {"class_name": "Zeros", "config": {}}, "kernel_regularizer": null, "bias_regularizer": null, "activity_regularizer": null, "kernel_constraint": null, "bias_constraint": null}, "name": "block_1_expand", "inbound_nodes": [[["expanded_conv_project_BN", 0, 0, {}]]]}, {"class_name": "BatchNormalization", "config": {"name": "block_1_expand_BN", "trainable": false, "dtype": "float32", "axis": [3], "momentum": 0.999, "epsilon": 0.001, "center": true, "scale": true, "beta_initializer": {"class_name": "Zeros", "config": {}}, "gamma_initializer": {"class_name": "Ones", "config": {}}, "moving_mean_initializer": {"class_name": "Zeros", "config": {}}, "moving_variance_initializer": {"class_name": "Ones", "config": {}}, "beta_regularizer": null, "gamma_regularizer": null, "beta_constraint": null, "gamma_constraint": null}, "name": "block_1_expand_BN", "inbound_nodes": [[["block_1_expand", 0, 0, {}]]]}, {"class_name": "ReLU", "config": {"name": "block_1_expand_relu", "trainable": false, "dtype": "float32", "max_value": 6.0, "negative_slope": 0.0, "threshold": 0.0}, "name": "block_1_expand_relu", "inbound_nodes": [[["block_1_expand_BN", 0, 0, {}]]]}, {"class_name": "ZeroPadding2D", "config": {"name": "block_1_pad", "trainable": false, "dtype": "float32", "padding": [[0, 1], [0, 1]], "data_format": "channels_last"}, "name": "block_1_pad", "inbound_nodes": [[["block_1_expand_relu", 0, 0, {}]]]}, {"class_name": "DepthwiseConv2D", "config": {"name": "block_1_depthwise", "trainable": false, "dtype": "float32", "kernel_size": [3, 3], "strides": [2, 2], "padding": "valid", "data_format": "channels_last", "dilation_rate": [1, 1], "activation": "linear", "use_bias": false, "bias_initializer": {"class_name": "Zeros", "config": {}}, "bias_regularizer": null, "activity_regularizer": null, "bias_constraint": null, "depth_multiplier": 1, "depthwise_initializer": {"class_name": "GlorotUniform", "config": {"seed": null}}, "depthwise_regularizer": null, "depthwise_constraint": null}, "name": "block_1_depthwise", "inbound_nodes": [[["block_1_pad", 0, 0, {}]]]}, {"class_name": "BatchNormalization", "config": {"name": "block_1_depthwise_BN", "trainable": true, "dtype": "float32", "axis": [3], "momentum": 0.999, "epsilon": 0.001, "center": true, "scale": true, "beta_initializer": {"class_name": "Zeros", "config": {}}, "gamma_initializer": {"class_name": "Ones", "config": {}}, "moving_mean_initializer": {"class_name": "Zeros", "config": {}}, "moving_variance_initializer": {"class_name": "Ones", "config": {}}, "beta_regularizer": null, "gamma_regularizer": null, "beta_constraint": null, "gamma_constraint": null}, "name": "block_1_depthwise_BN", "inbound_nodes": [[["block_1_depthwise", 0, 0, {}]]]}, {"class_name": "ReLU", "config": {"name": "block_1_depthwise_relu", "trainable": true, "dtype": "float32", "max_value": 6.0, "negative_slope": 0.0, "threshold": 0.0}, "name": "block_1_depthwise_relu", "inbound_nodes": [[["block_1_depthwise_BN", 0, 0, {}]]]}, {"class_name": "Conv2D", "config": {"name": "block_1_project", "trainable": true, "dtype": "float32", "filters": 24, "kernel_size": [1, 1], "strides": [1, 1], "padding": "same", "data_format": "channels_last", "dilation_rate": [1, 1], "activation": "linear", "use_bias": false, "kernel_initializer": {"class_name": "GlorotUniform", "config": {"seed": null}}, "bias_initializer": {"class_name": "Zeros", "config": {}}, "kernel_regularizer": null, "bias_regularizer": null, "activity_regularizer": null, "kernel_constraint": null, "bias_constraint": null}, "name": "block_1_project", "inbound_nodes": [[["block_1_depthwise_relu", 0, 0, {}]]]}, {"class_name": "BatchNormalization", "config": {"name": "block_1_project_BN", "trainable": true, "dtype": "float32", "axis": [3], "momentum": 0.999, "epsilon": 0.001, "center": true, "scale": true, "beta_initializer": {"class_name": "Zeros", "config": {}}, "gamma_initializer": {"class_name": "Ones", "config": {}}, "moving_mean_initializer": {"class_name": "Zeros", "config": {}}, "moving_variance_initializer": {"class_name": "Ones", "config": {}}, "beta_regularizer": null, "gamma_regularizer": null, "beta_constraint": null, "gamma_constraint": null}, "name": "block_1_project_BN", "inbound_nodes": [[["block_1_project", 0, 0, {}]]]}, {"class_name": "Conv2D", "config": {"name": "block_2_expand", "trainable": true, "dtype": "float32", "filters": 144, "kernel_size": [1, 1], "strides": [1, 1], "padding": "same", "data_format": "channels_last", "dilation_rate": [1, 1], "activation": "linear", "use_bias": false, "kernel_initializer": {"class_name": "GlorotUniform", "config": {"seed": null}}, "bias_initializer": {"class_name": "Zeros", "config": {}}, "kernel_regularizer": null, "bias_regularizer": null, "activity_regularizer": null, "kernel_constraint": null, "bias_constraint": null}, "name": "block_2_expand", "inbound_nodes": [[["block_1_project_BN", 0, 0, {}]]]}, {"class_name": "BatchNormalization", "config": {"name": "block_2_expand_BN", "trainable": true, "dtype": "float32", "axis": [3], "momentum": 0.999, "epsilon": 0.001, "center": true, "scale": true, "beta_initializer": {"class_name": "Zeros", "config": {}}, "gamma_initializer": {"class_name": "Ones", "config": {}}, "moving_mean_initializer": {"class_name": "Zeros", "config": {}}, "moving_variance_initializer": {"class_name": "Ones", "config": {}}, "beta_regularizer": null, "gamma_regularizer": null, "beta_constraint": null, "gamma_constraint": null}, "name": "block_2_expand_BN", "inbound_nodes": [[["block_2_expand", 0, 0, {}]]]}, {"class_name": "ReLU", "config": {"name": "block_2_expand_relu", "trainable": true, "dtype": "float32", "max_value": 6.0, "negative_slope": 0.0, "threshold": 0.0}, "name": "block_2_expand_relu", "inbound_nodes": [[["block_2_expand_BN", 0, 0, {}]]]}, {"class_name": "DepthwiseConv2D", "config": {"name": "block_2_depthwise", "trainable": true, "dtype": "float32", "kernel_size": [3, 3], "strides": [1, 1], "padding": "same", "data_format": "channels_last", "dilation_rate": [1, 1], "activation": "linear", "use_bias": false, "bias_initializer": {"class_name": "Zeros", "config": {}}, "bias_regularizer": null, "activity_regularizer": null, "bias_constraint": null, "depth_multiplier": 1, "depthwise_initializer": {"class_name": "GlorotUniform", "config": {"seed": null}}, "depthwise_regularizer": null, "depthwise_constraint": null}, "name": "block_2_depthwise", "inbound_nodes": [[["block_2_expand_relu", 0, 0, {}]]]}, {"class_name": "BatchNormalization", "config": {"name": "block_2_depthwise_BN", "trainable": true, "dtype": "float32", "axis": [3], "momentum": 0.999, "epsilon": 0.001, "center": true, "scale": true, "beta_initializer": {"class_name": "Zeros", "config": {}}, "gamma_initializer": {"class_name": "Ones", "config": {}}, "moving_mean_initializer": {"class_name": "Zeros", "config": {}}, "moving_variance_initializer": {"class_name": "Ones", "config": {}}, "beta_regularizer": null, "gamma_regularizer": null, "beta_constraint": null, "gamma_constraint": null}, "name": "block_2_depthwise_BN", "inbound_nodes": [[["block_2_depthwise", 0, 0, {}]]]}, {"class_name": "ReLU", "config": {"name": "block_2_depthwise_relu", "trainable": true, "dtype": "float32", "max_value": 6.0, "negative_slope": 0.0, "threshold": 0.0}, "name": "block_2_depthwise_relu", "inbound_nodes": [[["block_2_depthwise_BN", 0, 0, {}]]]}, {"class_name": "Conv2D", "config": {"name": "block_2_project", "trainable": true, "dtype": "float32", "filters": 24, "kernel_size": [1, 1], "strides": [1, 1], "padding": "same", "data_format": "channels_last", "dilation_rate": [1, 1], "activation": "linear", "use_bias": false, "kernel_initializer": {"class_name": "GlorotUniform", "config": {"seed": null}}, "bias_initializer": {"class_name": "Zeros", "config": {}}, "kernel_regularizer": null, "bias_regularizer": null, "activity_regularizer": null, "kernel_constraint": null, "bias_constraint": null}, "name": "block_2_project", "inbound_nodes": [[["block_2_depthwise_relu", 0, 0, {}]]]}, {"class_name": "BatchNormalization", "config": {"name": "block_2_project_BN", "trainable": true, "dtype": "float32", "axis": [3], "momentum": 0.999, "epsilon": 0.001, "center": true, "scale": true, "beta_initializer": {"class_name": "Zeros", "config": {}}, "gamma_initializer": {"class_name": "Ones", "config": {}}, "moving_mean_initializer": {"class_name": "Zeros", "config": {}}, "moving_variance_initializer": {"class_name": "Ones", "config": {}}, "beta_regularizer": null, "gamma_regularizer": null, "beta_constraint": null, "gamma_constraint": null}, "name": "block_2_project_BN", "inbound_nodes": [[["block_2_project", 0, 0, {}]]]}, {"class_name": "Add", "config": {"name": "block_2_add", "trainable": true, "dtype": "float32"}, "name": "block_2_add", "inbound_nodes": [[["block_1_project_BN", 0, 0, {}], ["block_2_project_BN", 0, 0, {}]]]}, {"class_name": "Conv2D", "config": {"name": "block_3_expand", "trainable": true, "dtype": "float32", "filters": 144, "kernel_size": [1, 1], "strides": [1, 1], "padding": "same", "data_format": "channels_last", "dilation_rate": [1, 1], "activation": "linear", "use_bias": false, "kernel_initializer": {"class_name": "GlorotUniform", "config": {"seed": null}}, "bias_initializer": {"class_name": "Zeros", "config": {}}, "kernel_regularizer": null, "bias_regularizer": null, "activity_regularizer": null, "kernel_constraint": null, "bias_constraint": null}, "name": "block_3_expand", "inbound_nodes": [[["block_2_add", 0, 0, {}]]]}, {"class_name": "BatchNormalization", "config": {"name": "block_3_expand_BN", "trainable": true, "dtype": "float32", "axis": [3], "momentum": 0.999, "epsilon": 0.001, "center": true, "scale": true, "beta_initializer": {"class_name": "Zeros", "config": {}}, "gamma_initializer": {"class_name": "Ones", "config": {}}, "moving_mean_initializer": {"class_name": "Zeros", "config": {}}, "moving_variance_initializer": {"class_name": "Ones", "config": {}}, "beta_regularizer": null, "gamma_regularizer": null, "beta_constraint": null, "gamma_constraint": null}, "name": "block_3_expand_BN", "inbound_nodes": [[["block_3_expand", 0, 0, {}]]]}, {"class_name": "ReLU", "config": {"name": "block_3_expand_relu", "trainable": true, "dtype": "float32", "max_value": 6.0, "negative_slope": 0.0, "threshold": 0.0}, "name": "block_3_expand_relu", "inbound_nodes": [[["block_3_expand_BN", 0, 0, {}]]]}, {"class_name": "ZeroPadding2D", "config": {"name": "block_3_pad", "trainable": true, "dtype": "float32", "padding": [[0, 1], [0, 1]], "data_format": "channels_last"}, "name": "block_3_pad", "inbound_nodes": [[["block_3_expand_relu", 0, 0, {}]]]}, {"class_name": "DepthwiseConv2D", "config": {"name": "block_3_depthwise", "trainable": true, "dtype": "float32", "kernel_size": [3, 3], "strides": [2, 2], "padding": "valid", "data_format": "channels_last", "dilation_rate": [1, 1], "activation": "linear", "use_bias": false, "bias_initializer": {"class_name": "Zeros", "config": {}}, "bias_regularizer": null, "activity_regularizer": null, "bias_constraint": null, "depth_multiplier": 1, "depthwise_initializer": {"class_name": "GlorotUniform", "config": {"seed": null}}, "depthwise_regularizer": null, "depthwise_constraint": null}, "name": "block_3_depthwise", "inbound_nodes": [[["block_3_pad", 0, 0, {}]]]}, {"class_name": "BatchNormalization", "config": {"name": "block_3_depthwise_BN", "trainable": true, "dtype": "float32", "axis": [3], "momentum": 0.999, "epsilon": 0.001, "center": true, "scale": true, "beta_initializer": {"class_name": "Zeros", "config": {}}, "gamma_initializer": {"class_name": "Ones", "config": {}}, "moving_mean_initializer": {"class_name": "Zeros", "config": {}}, "moving_variance_initializer": {"class_name": "Ones", "config": {}}, "beta_regularizer": null, "gamma_regularizer": null, "beta_constraint": null, "gamma_constraint": null}, "name": "block_3_depthwise_BN", "inbound_nodes": [[["block_3_depthwise", 0, 0, {}]]]}, {"class_name": "ReLU", "config": {"name": "block_3_depthwise_relu", "trainable": true, "dtype": "float32", "max_value": 6.0, "negative_slope": 0.0, "threshold": 0.0}, "name": "block_3_depthwise_relu", "inbound_nodes": [[["block_3_depthwise_BN", 0, 0, {}]]]}, {"class_name": "Conv2D", "config": {"name": "block_3_project", "trainable": true, "dtype": "float32", "filters": 32, "kernel_size": [1, 1], "strides": [1, 1], "padding": "same", "data_format": "channels_last", "dilation_rate": [1, 1], "activation": "linear", "use_bias": false, "kernel_initializer": {"class_name": "GlorotUniform", "config": {"seed": null}}, "bias_initializer": {"class_name": "Zeros", "config": {}}, "kernel_regularizer": null, "bias_regularizer": null, "activity_regularizer": null, "kernel_constraint": null, "bias_constraint": null}, "name": "block_3_project", "inbound_nodes": [[["block_3_depthwise_relu", 0, 0, {}]]]}, {"class_name": "BatchNormalization", "config": {"name": "block_3_project_BN", "trainable": true, "dtype": "float32", "axis": [3], "momentum": 0.999, "epsilon": 0.001, "center": true, "scale": true, "beta_initializer": {"class_name": "Zeros", "config": {}}, "gamma_initializer": {"class_name": "Ones", "config": {}}, "moving_mean_initializer": {"class_name": "Zeros", "config": {}}, "moving_variance_initializer": {"class_name": "Ones", "config": {}}, "beta_regularizer": null, "gamma_regularizer": null, "beta_constraint": null, "gamma_constraint": null}, "name": "block_3_project_BN", "inbound_nodes": [[["block_3_project", 0, 0, {}]]]}, {"class_name": "Conv2D", "config": {"name": "block_4_expand", "trainable": true, "dtype": "float32", "filters": 192, "kernel_size": [1, 1], "strides": [1, 1], "padding": "same", "data_format": "channels_last", "dilation_rate": [1, 1], "activation": "linear", "use_bias": false, "kernel_initializer": {"class_name": "GlorotUniform", "config": {"seed": null}}, "bias_initializer": {"class_name": "Zeros", "config": {}}, "kernel_regularizer": null, "bias_regularizer": null, "activity_regularizer": null, "kernel_constraint": null, "bias_constraint": null}, "name": "block_4_expand", "inbound_nodes": [[["block_3_project_BN", 0, 0, {}]]]}, {"class_name": "BatchNormalization", "config": {"name": "block_4_expand_BN", "trainable": true, "dtype": "float32", "axis": [3], "momentum": 0.999, "epsilon": 0.001, "center": true, "scale": true, "beta_initializer": {"class_name": "Zeros", "config": {}}, "gamma_initializer": {"class_name": "Ones", "config": {}}, "moving_mean_initializer": {"class_name": "Zeros", "config": {}}, "moving_variance_initializer": {"class_name": "Ones", "config": {}}, "beta_regularizer": null, "gamma_regularizer": null, "beta_constraint": null, "gamma_constraint": null}, "name": "block_4_expand_BN", "inbound_nodes": [[["block_4_expand", 0, 0, {}]]]}, {"class_name": "ReLU", "config": {"name": "block_4_expand_relu", "trainable": true, "dtype": "float32", "max_value": 6.0, "negative_slope": 0.0, "threshold": 0.0}, "name": "block_4_expand_relu", "inbound_nodes": [[["block_4_expand_BN", 0, 0, {}]]]}, {"class_name": "DepthwiseConv2D", "config": {"name": "block_4_depthwise", "trainable": true, "dtype": "float32", "kernel_size": [3, 3], "strides": [1, 1], "padding": "same", "data_format": "channels_last", "dilation_rate": [1, 1], "activation": "linear", "use_bias": false, "bias_initializer": {"class_name": "Zeros", "config": {}}, "bias_regularizer": null, "activity_regularizer": null, "bias_constraint": null, "depth_multiplier": 1, "depthwise_initializer": {"class_name": "GlorotUniform", "config": {"seed": null}}, "depthwise_regularizer": null, "depthwise_constraint": null}, "name": "block_4_depthwise", "inbound_nodes": [[["block_4_expand_relu", 0, 0, {}]]]}, {"class_name": "BatchNormalization", "config": {"name": "block_4_depthwise_BN", "trainable": true, "dtype": "float32", "axis": [3], "momentum": 0.999, "epsilon": 0.001, "center": true, "scale": true, "beta_initializer": {"class_name": "Zeros", "config": {}}, "gamma_initializer": {"class_name": "Ones", "config": {}}, "moving_mean_initializer": {"class_name": "Zeros", "config": {}}, "moving_variance_initializer": {"class_name": "Ones", "config": {}}, "beta_regularizer": null, "gamma_regularizer": null, "beta_constraint": null, "gamma_constraint": null}, "name": "block_4_depthwise_BN", "inbound_nodes": [[["block_4_depthwise", 0, 0, {}]]]}, {"class_name": "ReLU", "config": {"name": "block_4_depthwise_relu", "trainable": true, "dtype": "float32", "max_value": 6.0, "negative_slope": 0.0, "threshold": 0.0}, "name": "block_4_depthwise_relu", "inbound_nodes": [[["block_4_depthwise_BN", 0, 0, {}]]]}, {"class_name": "Conv2D", "config": {"name": "block_4_project", "trainable": true, "dtype": "float32", "filters": 32, "kernel_size": [1, 1], "strides": [1, 1], "padding": "same", "data_format": "channels_last", "dilation_rate": [1, 1], "activation": "linear", "use_bias": false, "kernel_initializer": {"class_name": "GlorotUniform", "config": {"seed": null}}, "bias_initializer": {"class_name": "Zeros", "config": {}}, "kernel_regularizer": null, "bias_regularizer": null, "activity_regularizer": null, "kernel_constraint": null, "bias_constraint": null}, "name": "block_4_project", "inbound_nodes": [[["block_4_depthwise_relu", 0, 0, {}]]]}, {"class_name": "BatchNormalization", "config": {"name": "block_4_project_BN", "trainable": true, "dtype": "float32", "axis": [3], "momentum": 0.999, "epsilon": 0.001, "center": true, "scale": true, "beta_initializer": {"class_name": "Zeros", "config": {}}, "gamma_initializer": {"class_name": "Ones", "config": {}}, "moving_mean_initializer": {"class_name": "Zeros", "config": {}}, "moving_variance_initializer": {"class_name": "Ones", "config": {}}, "beta_regularizer": null, "gamma_regularizer": null, "beta_constraint": null, "gamma_constraint": null}, "name": "block_4_project_BN", "inbound_nodes": [[["block_4_project", 0, 0, {}]]]}, {"class_name": "Add", "config": {"name": "block_4_add", "trainable": true, "dtype": "float32"}, "name": "block_4_add", "inbound_nodes": [[["block_3_project_BN", 0, 0, {}], ["block_4_project_BN", 0, 0, {}]]]}, {"class_name": "Conv2D", "config": {"name": "block_5_expand", "trainable": true, "dtype": "float32", "filters": 192, "kernel_size": [1, 1], "strides": [1, 1], "padding": "same", "data_format": "channels_last", "dilation_rate": [1, 1], "activation": "linear", "use_bias": false, "kernel_initializer": {"class_name": "GlorotUniform", "config": {"seed": null}}, "bias_initializer": {"class_name": "Zeros", "config": {}}, "kernel_regularizer": null, "bias_regularizer": null, "activity_regularizer": null, "kernel_constraint": null, "bias_constraint": null}, "name": "block_5_expand", "inbound_nodes": [[["block_4_add", 0, 0, {}]]]}, {"class_name": "BatchNormalization", "config": {"name": "block_5_expand_BN", "trainable": true, "dtype": "float32", "axis": [3], "momentum": 0.999, "epsilon": 0.001, "center": true, "scale": true, "beta_initializer": {"class_name": "Zeros", "config": {}}, "gamma_initializer": {"class_name": "Ones", "config": {}}, "moving_mean_initializer": {"class_name": "Zeros", "config": {}}, "moving_variance_initializer": {"class_name": "Ones", "config": {}}, "beta_regularizer": null, "gamma_regularizer": null, "beta_constraint": null, "gamma_constraint": null}, "name": "block_5_expand_BN", "inbound_nodes": [[["block_5_expand", 0, 0, {}]]]}, {"class_name": "ReLU", "config": {"name": "block_5_expand_relu", "trainable": true, "dtype": "float32", "max_value": 6.0, "negative_slope": 0.0, "threshold": 0.0}, "name": "block_5_expand_relu", "inbound_nodes": [[["block_5_expand_BN", 0, 0, {}]]]}, {"class_name": "DepthwiseConv2D", "config": {"name": "block_5_depthwise", "trainable": true, "dtype": "float32", "kernel_size": [3, 3], "strides": [1, 1], "padding": "same", "data_format": "channels_last", "dilation_rate": [1, 1], "activation": "linear", "use_bias": false, "bias_initializer": {"class_name": "Zeros", "config": {}}, "bias_regularizer": null, "activity_regularizer": null, "bias_constraint": null, "depth_multiplier": 1, "depthwise_initializer": {"class_name": "GlorotUniform", "config": {"seed": null}}, "depthwise_regularizer": null, "depthwise_constraint": null}, "name": "block_5_depthwise", "inbound_nodes": [[["block_5_expand_relu", 0, 0, {}]]]}, {"class_name": "BatchNormalization", "config": {"name": "block_5_depthwise_BN", "trainable": true, "dtype": "float32", "axis": [3], "momentum": 0.999, "epsilon": 0.001, "center": true, "scale": true, "beta_initializer": {"class_name": "Zeros", "config": {}}, "gamma_initializer": {"class_name": "Ones", "config": {}}, "moving_mean_initializer": {"class_name": "Zeros", "config": {}}, "moving_variance_initializer": {"class_name": "Ones", "config": {}}, "beta_regularizer": null, "gamma_regularizer": null, "beta_constraint": null, "gamma_constraint": null}, "name": "block_5_depthwise_BN", "inbound_nodes": [[["block_5_depthwise", 0, 0, {}]]]}, {"class_name": "ReLU", "config": {"name": "block_5_depthwise_relu", "trainable": true, "dtype": "float32", "max_value": 6.0, "negative_slope": 0.0, "threshold": 0.0}, "name": "block_5_depthwise_relu", "inbound_nodes": [[["block_5_depthwise_BN", 0, 0, {}]]]}, {"class_name": "Conv2D", "config": {"name": "block_5_project", "trainable": true, "dtype": "float32", "filters": 32, "kernel_size": [1, 1], "strides": [1, 1], "padding": "same", "data_format": "channels_last", "dilation_rate": [1, 1], "activation": "linear", "use_bias": false, "kernel_initializer": {"class_name": "GlorotUniform", "config": {"seed": null}}, "bias_initializer": {"class_name": "Zeros", "config": {}}, "kernel_regularizer": null, "bias_regularizer": null, "activity_regularizer": null, "kernel_constraint": null, "bias_constraint": null}, "name": "block_5_project", "inbound_nodes": [[["block_5_depthwise_relu", 0, 0, {}]]]}, {"class_name": "BatchNormalization", "config": {"name": "block_5_project_BN", "trainable": true, "dtype": "float32", "axis": [3], "momentum": 0.999, "epsilon": 0.001, "center": true, "scale": true, "beta_initializer": {"class_name": "Zeros", "config": {}}, "gamma_initializer": {"class_name": "Ones", "config": {}}, "moving_mean_initializer": {"class_name": "Zeros", "config": {}}, "moving_variance_initializer": {"class_name": "Ones", "config": {}}, "beta_regularizer": null, "gamma_regularizer": null, "beta_constraint": null, "gamma_constraint": null}, "name": "block_5_project_BN", "inbound_nodes": [[["block_5_project", 0, 0, {}]]]}, {"class_name": "Add", "config": {"name": "block_5_add", "trainable": true, "dtype": "float32"}, "name": "block_5_add", "inbound_nodes": [[["block_4_add", 0, 0, {}], ["block_5_project_BN", 0, 0, {}]]]}, {"class_name": "Conv2D", "config": {"name": "block_6_expand", "trainable": true, "dtype": "float32", "filters": 192, "kernel_size": [1, 1], "strides": [1, 1], "padding": "same", "data_format": "channels_last", "dilation_rate": [1, 1], "activation": "linear", "use_bias": false, "kernel_initializer": {"class_name": "GlorotUniform", "config": {"seed": null}}, "bias_initializer": {"class_name": "Zeros", "config": {}}, "kernel_regularizer": null, "bias_regularizer": null, "activity_regularizer": null, "kernel_constraint": null, "bias_constraint": null}, "name": "block_6_expand", "inbound_nodes": [[["block_5_add", 0, 0, {}]]]}, {"class_name": "BatchNormalization", "config": {"name": "block_6_expand_BN", "trainable": true, "dtype": "float32", "axis": [3], "momentum": 0.999, "epsilon": 0.001, "center": true, "scale": true, "beta_initializer": {"class_name": "Zeros", "config": {}}, "gamma_initializer": {"class_name": "Ones", "config": {}}, "moving_mean_initializer": {"class_name": "Zeros", "config": {}}, "moving_variance_initializer": {"class_name": "Ones", "config": {}}, "beta_regularizer": null, "gamma_regularizer": null, "beta_constraint": null, "gamma_constraint": null}, "name": "block_6_expand_BN", "inbound_nodes": [[["block_6_expand", 0, 0, {}]]]}, {"class_name": "ReLU", "config": {"name": "block_6_expand_relu", "trainable": true, "dtype": "float32", "max_value": 6.0, "negative_slope": 0.0, "threshold": 0.0}, "name": "block_6_expand_relu", "inbound_nodes": [[["block_6_expand_BN", 0, 0, {}]]]}, {"class_name": "ZeroPadding2D", "config": {"name": "block_6_pad", "trainable": true, "dtype": "float32", "padding": [[0, 1], [0, 1]], "data_format": "channels_last"}, "name": "block_6_pad", "inbound_nodes": [[["block_6_expand_relu", 0, 0, {}]]]}, {"class_name": "DepthwiseConv2D", "config": {"name": "block_6_depthwise", "trainable": true, "dtype": "float32", "kernel_size": [3, 3], "strides": [2, 2], "padding": "valid", "data_format": "channels_last", "dilation_rate": [1, 1], "activation": "linear", "use_bias": false, "bias_initializer": {"class_name": "Zeros", "config": {}}, "bias_regularizer": null, "activity_regularizer": null, "bias_constraint": null, "depth_multiplier": 1, "depthwise_initializer": {"class_name": "GlorotUniform", "config": {"seed": null}}, "depthwise_regularizer": null, "depthwise_constraint": null}, "name": "block_6_depthwise", "inbound_nodes": [[["block_6_pad", 0, 0, {}]]]}, {"class_name": "BatchNormalization", "config": {"name": "block_6_depthwise_BN", "trainable": true, "dtype": "float32", "axis": [3], "momentum": 0.999, "epsilon": 0.001, "center": true, "scale": true, "beta_initializer": {"class_name": "Zeros", "config": {}}, "gamma_initializer": {"class_name": "Ones", "config": {}}, "moving_mean_initializer": {"class_name": "Zeros", "config": {}}, "moving_variance_initializer": {"class_name": "Ones", "config": {}}, "beta_regularizer": null, "gamma_regularizer": null, "beta_constraint": null, "gamma_constraint": null}, "name": "block_6_depthwise_BN", "inbound_nodes": [[["block_6_depthwise", 0, 0, {}]]]}, {"class_name": "ReLU", "config": {"name": "block_6_depthwise_relu", "trainable": true, "dtype": "float32", "max_value": 6.0, "negative_slope": 0.0, "threshold": 0.0}, "name": "block_6_depthwise_relu", "inbound_nodes": [[["block_6_depthwise_BN", 0, 0, {}]]]}, {"class_name": "Conv2D", "config": {"name": "block_6_project", "trainable": true, "dtype": "float32", "filters": 64, "kernel_size": [1, 1], "strides": [1, 1], "padding": "same", "data_format": "channels_last", "dilation_rate": [1, 1], "activation": "linear", "use_bias": false, "kernel_initializer": {"class_name": "GlorotUniform", "config": {"seed": null}}, "bias_initializer": {"class_name": "Zeros", "config": {}}, "kernel_regularizer": null, "bias_regularizer": null, "activity_regularizer": null, "kernel_constraint": null, "bias_constraint": null}, "name": "block_6_project", "inbound_nodes": [[["block_6_depthwise_relu", 0, 0, {}]]]}, {"class_name": "BatchNormalization", "config": {"name": "block_6_project_BN", "trainable": true, "dtype": "float32", "axis": [3], "momentum": 0.999, "epsilon": 0.001, "center": true, "scale": true, "beta_initializer": {"class_name": "Zeros", "config": {}}, "gamma_initializer": {"class_name": "Ones", "config": {}}, "moving_mean_initializer": {"class_name": "Zeros", "config": {}}, "moving_variance_initializer": {"class_name": "Ones", "config": {}}, "beta_regularizer": null, "gamma_regularizer": null, "beta_constraint": null, "gamma_constraint": null}, "name": "block_6_project_BN", "inbound_nodes": [[["block_6_project", 0, 0, {}]]]}, {"class_name": "Conv2D", "config": {"name": "block_7_expand", "trainable": true, "dtype": "float32", "filters": 384, "kernel_size": [1, 1], "strides": [1, 1], "padding": "same", "data_format": "channels_last", "dilation_rate": [1, 1], "activation": "linear", "use_bias": false, "kernel_initializer": {"class_name": "GlorotUniform", "config": {"seed": null}}, "bias_initializer": {"class_name": "Zeros", "config": {}}, "kernel_regularizer": null, "bias_regularizer": null, "activity_regularizer": null, "kernel_constraint": null, "bias_constraint": null}, "name": "block_7_expand", "inbound_nodes": [[["block_6_project_BN", 0, 0, {}]]]}, {"class_name": "BatchNormalization", "config": {"name": "block_7_expand_BN", "trainable": true, "dtype": "float32", "axis": [3], "momentum": 0.999, "epsilon": 0.001, "center": true, "scale": true, "beta_initializer": {"class_name": "Zeros", "config": {}}, "gamma_initializer": {"class_name": "Ones", "config": {}}, "moving_mean_initializer": {"class_name": "Zeros", "config": {}}, "moving_variance_initializer": {"class_name": "Ones", "config": {}}, "beta_regularizer": null, "gamma_regularizer": null, "beta_constraint": null, "gamma_constraint": null}, "name": "block_7_expand_BN", "inbound_nodes": [[["block_7_expand", 0, 0, {}]]]}, {"class_name": "ReLU", "config": {"name": "block_7_expand_relu", "trainable": true, "dtype": "float32", "max_value": 6.0, "negative_slope": 0.0, "threshold": 0.0}, "name": "block_7_expand_relu", "inbound_nodes": [[["block_7_expand_BN", 0, 0, {}]]]}, {"class_name": "DepthwiseConv2D", "config": {"name": "block_7_depthwise", "trainable": true, "dtype": "float32", "kernel_size": [3, 3], "strides": [1, 1], "padding": "same", "data_format": "channels_last", "dilation_rate": [1, 1], "activation": "linear", "use_bias": false, "bias_initializer": {"class_name": "Zeros", "config": {}}, "bias_regularizer": null, "activity_regularizer": null, "bias_constraint": null, "depth_multiplier": 1, "depthwise_initializer": {"class_name": "GlorotUniform", "config": {"seed": null}}, "depthwise_regularizer": null, "depthwise_constraint": null}, "name": "block_7_depthwise", "inbound_nodes": [[["block_7_expand_relu", 0, 0, {}]]]}, {"class_name": "BatchNormalization", "config": {"name": "block_7_depthwise_BN", "trainable": true, "dtype": "float32", "axis": [3], "momentum": 0.999, "epsilon": 0.001, "center": true, "scale": true, "beta_initializer": {"class_name": "Zeros", "config": {}}, "gamma_initializer": {"class_name": "Ones", "config": {}}, "moving_mean_initializer": {"class_name": "Zeros", "config": {}}, "moving_variance_initializer": {"class_name": "Ones", "config": {}}, "beta_regularizer": null, "gamma_regularizer": null, "beta_constraint": null, "gamma_constraint": null}, "name": "block_7_depthwise_BN", "inbound_nodes": [[["block_7_depthwise", 0, 0, {}]]]}, {"class_name": "ReLU", "config": {"name": "block_7_depthwise_relu", "trainable": true, "dtype": "float32", "max_value": 6.0, "negative_slope": 0.0, "threshold": 0.0}, "name": "block_7_depthwise_relu", "inbound_nodes": [[["block_7_depthwise_BN", 0, 0, {}]]]}, {"class_name": "Conv2D", "config": {"name": "block_7_project", "trainable": true, "dtype": "float32", "filters": 64, "kernel_size": [1, 1], "strides": [1, 1], "padding": "same", "data_format": "channels_last", "dilation_rate": [1, 1], "activation": "linear", "use_bias": false, "kernel_initializer": {"class_name": "GlorotUniform", "config": {"seed": null}}, "bias_initializer": {"class_name": "Zeros", "config": {}}, "kernel_regularizer": null, "bias_regularizer": null, "activity_regularizer": null, "kernel_constraint": null, "bias_constraint": null}, "name": "block_7_project", "inbound_nodes": [[["block_7_depthwise_relu", 0, 0, {}]]]}, {"class_name": "BatchNormalization", "config": {"name": "block_7_project_BN", "trainable": true, "dtype": "float32", "axis": [3], "momentum": 0.999, "epsilon": 0.001, "center": true, "scale": true, "beta_initializer": {"class_name": "Zeros", "config": {}}, "gamma_initializer": {"class_name": "Ones", "config": {}}, "moving_mean_initializer": {"class_name": "Zeros", "config": {}}, "moving_variance_initializer": {"class_name": "Ones", "config": {}}, "beta_regularizer": null, "gamma_regularizer": null, "beta_constraint": null, "gamma_constraint": null}, "name": "block_7_project_BN", "inbound_nodes": [[["block_7_project", 0, 0, {}]]]}, {"class_name": "Add", "config": {"name": "block_7_add", "trainable": true, "dtype": "float32"}, "name": "block_7_add", "inbound_nodes": [[["block_6_project_BN", 0, 0, {}], ["block_7_project_BN", 0, 0, {}]]]}, {"class_name": "Conv2D", "config": {"name": "block_8_expand", "trainable": true, "dtype": "float32", "filters": 384, "kernel_size": [1, 1], "strides": [1, 1], "padding": "same", "data_format": "channels_last", "dilation_rate": [1, 1], "activation": "linear", "use_bias": false, "kernel_initializer": {"class_name": "GlorotUniform", "config": {"seed": null}}, "bias_initializer": {"class_name": "Zeros", "config": {}}, "kernel_regularizer": null, "bias_regularizer": null, "activity_regularizer": null, "kernel_constraint": null, "bias_constraint": null}, "name": "block_8_expand", "inbound_nodes": [[["block_7_add", 0, 0, {}]]]}, {"class_name": "BatchNormalization", "config": {"name": "block_8_expand_BN", "trainable": true, "dtype": "float32", "axis": [3], "momentum": 0.999, "epsilon": 0.001, "center": true, "scale": true, "beta_initializer": {"class_name": "Zeros", "config": {}}, "gamma_initializer": {"class_name": "Ones", "config": {}}, "moving_mean_initializer": {"class_name": "Zeros", "config": {}}, "moving_variance_initializer": {"class_name": "Ones", "config": {}}, "beta_regularizer": null, "gamma_regularizer": null, "beta_constraint": null, "gamma_constraint": null}, "name": "block_8_expand_BN", "inbound_nodes": [[["block_8_expand", 0, 0, {}]]]}, {"class_name": "ReLU", "config": {"name": "block_8_expand_relu", "trainable": true, "dtype": "float32", "max_value": 6.0, "negative_slope": 0.0, "threshold": 0.0}, "name": "block_8_expand_relu", "inbound_nodes": [[["block_8_expand_BN", 0, 0, {}]]]}, {"class_name": "DepthwiseConv2D", "config": {"name": "block_8_depthwise", "trainable": true, "dtype": "float32", "kernel_size": [3, 3], "strides": [1, 1], "padding": "same", "data_format": "channels_last", "dilation_rate": [1, 1], "activation": "linear", "use_bias": false, "bias_initializer": {"class_name": "Zeros", "config": {}}, "bias_regularizer": null, "activity_regularizer": null, "bias_constraint": null, "depth_multiplier": 1, "depthwise_initializer": {"class_name": "GlorotUniform", "config": {"seed": null}}, "depthwise_regularizer": null, "depthwise_constraint": null}, "name": "block_8_depthwise", "inbound_nodes": [[["block_8_expand_relu", 0, 0, {}]]]}, {"class_name": "BatchNormalization", "config": {"name": "block_8_depthwise_BN", "trainable": true, "dtype": "float32", "axis": [3], "momentum": 0.999, "epsilon": 0.001, "center": true, "scale": true, "beta_initializer": {"class_name": "Zeros", "config": {}}, "gamma_initializer": {"class_name": "Ones", "config": {}}, "moving_mean_initializer": {"class_name": "Zeros", "config": {}}, "moving_variance_initializer": {"class_name": "Ones", "config": {}}, "beta_regularizer": null, "gamma_regularizer": null, "beta_constraint": null, "gamma_constraint": null}, "name": "block_8_depthwise_BN", "inbound_nodes": [[["block_8_depthwise", 0, 0, {}]]]}, {"class_name": "ReLU", "config": {"name": "block_8_depthwise_relu", "trainable": true, "dtype": "float32", "max_value": 6.0, "negative_slope": 0.0, "threshold": 0.0}, "name": "block_8_depthwise_relu", "inbound_nodes": [[["block_8_depthwise_BN", 0, 0, {}]]]}, {"class_name": "Conv2D", "config": {"name": "block_8_project", "trainable": true, "dtype": "float32", "filters": 64, "kernel_size": [1, 1], "strides": [1, 1], "padding": "same", "data_format": "channels_last", "dilation_rate": [1, 1], "activation": "linear", "use_bias": false, "kernel_initializer": {"class_name": "GlorotUniform", "config": {"seed": null}}, "bias_initializer": {"class_name": "Zeros", "config": {}}, "kernel_regularizer": null, "bias_regularizer": null, "activity_regularizer": null, "kernel_constraint": null, "bias_constraint": null}, "name": "block_8_project", "inbound_nodes": [[["block_8_depthwise_relu", 0, 0, {}]]]}, {"class_name": "BatchNormalization", "config": {"name": "block_8_project_BN", "trainable": true, "dtype": "float32", "axis": [3], "momentum": 0.999, "epsilon": 0.001, "center": true, "scale": true, "beta_initializer": {"class_name": "Zeros", "config": {}}, "gamma_initializer": {"class_name": "Ones", "config": {}}, "moving_mean_initializer": {"class_name": "Zeros", "config": {}}, "moving_variance_initializer": {"class_name": "Ones", "config": {}}, "beta_regularizer": null, "gamma_regularizer": null, "beta_constraint": null, "gamma_constraint": null}, "name": "block_8_project_BN", "inbound_nodes": [[["block_8_project", 0, 0, {}]]]}, {"class_name": "Add", "config": {"name": "block_8_add", "trainable": true, "dtype": "float32"}, "name": "block_8_add", "inbound_nodes": [[["block_7_add", 0, 0, {}], ["block_8_project_BN", 0, 0, {}]]]}, {"class_name": "Conv2D", "config": {"name": "block_9_expand", "trainable": true, "dtype": "float32", "filters": 384, "kernel_size": [1, 1], "strides": [1, 1], "padding": "same", "data_format": "channels_last", "dilation_rate": [1, 1], "activation": "linear", "use_bias": false, "kernel_initializer": {"class_name": "GlorotUniform", "config": {"seed": null}}, "bias_initializer": {"class_name": "Zeros", "config": {}}, "kernel_regularizer": null, "bias_regularizer": null, "activity_regularizer": null, "kernel_constraint": null, "bias_constraint": null}, "name": "block_9_expand", "inbound_nodes": [[["block_8_add", 0, 0, {}]]]}, {"class_name": "BatchNormalization", "config": {"name": "block_9_expand_BN", "trainable": true, "dtype": "float32", "axis": [3], "momentum": 0.999, "epsilon": 0.001, "center": true, "scale": true, "beta_initializer": {"class_name": "Zeros", "config": {}}, "gamma_initializer": {"class_name": "Ones", "config": {}}, "moving_mean_initializer": {"class_name": "Zeros", "config": {}}, "moving_variance_initializer": {"class_name": "Ones", "config": {}}, "beta_regularizer": null, "gamma_regularizer": null, "beta_constraint": null, "gamma_constraint": null}, "name": "block_9_expand_BN", "inbound_nodes": [[["block_9_expand", 0, 0, {}]]]}, {"class_name": "ReLU", "config": {"name": "block_9_expand_relu", "trainable": true, "dtype": "float32", "max_value": 6.0, "negative_slope": 0.0, "threshold": 0.0}, "name": "block_9_expand_relu", "inbound_nodes": [[["block_9_expand_BN", 0, 0, {}]]]}, {"class_name": "DepthwiseConv2D", "config": {"name": "block_9_depthwise", "trainable": true, "dtype": "float32", "kernel_size": [3, 3], "strides": [1, 1], "padding": "same", "data_format": "channels_last", "dilation_rate": [1, 1], "activation": "linear", "use_bias": false, "bias_initializer": {"class_name": "Zeros", "config": {}}, "bias_regularizer": null, "activity_regularizer": null, "bias_constraint": null, "depth_multiplier": 1, "depthwise_initializer": {"class_name": "GlorotUniform", "config": {"seed": null}}, "depthwise_regularizer": null, "depthwise_constraint": null}, "name": "block_9_depthwise", "inbound_nodes": [[["block_9_expand_relu", 0, 0, {}]]]}, {"class_name": "BatchNormalization", "config": {"name": "block_9_depthwise_BN", "trainable": true, "dtype": "float32", "axis": [3], "momentum": 0.999, "epsilon": 0.001, "center": true, "scale": true, "beta_initializer": {"class_name": "Zeros", "config": {}}, "gamma_initializer": {"class_name": "Ones", "config": {}}, "moving_mean_initializer": {"class_name": "Zeros", "config": {}}, "moving_variance_initializer": {"class_name": "Ones", "config": {}}, "beta_regularizer": null, "gamma_regularizer": null, "beta_constraint": null, "gamma_constraint": null}, "name": "block_9_depthwise_BN", "inbound_nodes": [[["block_9_depthwise", 0, 0, {}]]]}, {"class_name": "ReLU", "config": {"name": "block_9_depthwise_relu", "trainable": true, "dtype": "float32", "max_value": 6.0, "negative_slope": 0.0, "threshold": 0.0}, "name": "block_9_depthwise_relu", "inbound_nodes": [[["block_9_depthwise_BN", 0, 0, {}]]]}, {"class_name": "Conv2D", "config": {"name": "block_9_project", "trainable": true, "dtype": "float32", "filters": 64, "kernel_size": [1, 1], "strides": [1, 1], "padding": "same", "data_format": "channels_last", "dilation_rate": [1, 1], "activation": "linear", "use_bias": false, "kernel_initializer": {"class_name": "GlorotUniform", "config": {"seed": null}}, "bias_initializer": {"class_name": "Zeros", "config": {}}, "kernel_regularizer": null, "bias_regularizer": null, "activity_regularizer": null, "kernel_constraint": null, "bias_constraint": null}, "name": "block_9_project", "inbound_nodes": [[["block_9_depthwise_relu", 0, 0, {}]]]}, {"class_name": "BatchNormalization", "config": {"name": "block_9_project_BN", "trainable": true, "dtype": "float32", "axis": [3], "momentum": 0.999, "epsilon": 0.001, "center": true, "scale": true, "beta_initializer": {"class_name": "Zeros", "config": {}}, "gamma_initializer": {"class_name": "Ones", "config": {}}, "moving_mean_initializer": {"class_name": "Zeros", "config": {}}, "moving_variance_initializer": {"class_name": "Ones", "config": {}}, "beta_regularizer": null, "gamma_regularizer": null, "beta_constraint": null, "gamma_constraint": null}, "name": "block_9_project_BN", "inbound_nodes": [[["block_9_project", 0, 0, {}]]]}, {"class_name": "Add", "config": {"name": "block_9_add", "trainable": true, "dtype": "float32"}, "name": "block_9_add", "inbound_nodes": [[["block_8_add", 0, 0, {}], ["block_9_project_BN", 0, 0, {}]]]}, {"class_name": "Conv2D", "config": {"name": "block_10_expand", "trainable": true, "dtype": "float32", "filters": 384, "kernel_size": [1, 1], "strides": [1, 1], "padding": "same", "data_format": "channels_last", "dilation_rate": [1, 1], "activation": "linear", "use_bias": false, "kernel_initializer": {"class_name": "GlorotUniform", "config": {"seed": null}}, "bias_initializer": {"class_name": "Zeros", "config": {}}, "kernel_regularizer": null, "bias_regularizer": null, "activity_regularizer": null, "kernel_constraint": null, "bias_constraint": null}, "name": "block_10_expand", "inbound_nodes": [[["block_9_add", 0, 0, {}]]]}, {"class_name": "BatchNormalization", "config": {"name": "block_10_expand_BN", "trainable": true, "dtype": "float32", "axis": [3], "momentum": 0.999, "epsilon": 0.001, "center": true, "scale": true, "beta_initializer": {"class_name": "Zeros", "config": {}}, "gamma_initializer": {"class_name": "Ones", "config": {}}, "moving_mean_initializer": {"class_name": "Zeros", "config": {}}, "moving_variance_initializer": {"class_name": "Ones", "config": {}}, "beta_regularizer": null, "gamma_regularizer": null, "beta_constraint": null, "gamma_constraint": null}, "name": "block_10_expand_BN", "inbound_nodes": [[["block_10_expand", 0, 0, {}]]]}, {"class_name": "ReLU", "config": {"name": "block_10_expand_relu", "trainable": true, "dtype": "float32", "max_value": 6.0, "negative_slope": 0.0, "threshold": 0.0}, "name": "block_10_expand_relu", "inbound_nodes": [[["block_10_expand_BN", 0, 0, {}]]]}, {"class_name": "DepthwiseConv2D", "config": {"name": "block_10_depthwise", "trainable": true, "dtype": "float32", "kernel_size": [3, 3], "strides": [1, 1], "padding": "same", "data_format": "channels_last", "dilation_rate": [1, 1], "activation": "linear", "use_bias": false, "bias_initializer": {"class_name": "Zeros", "config": {}}, "bias_regularizer": null, "activity_regularizer": null, "bias_constraint": null, "depth_multiplier": 1, "depthwise_initializer": {"class_name": "GlorotUniform", "config": {"seed": null}}, "depthwise_regularizer": null, "depthwise_constraint": null}, "name": "block_10_depthwise", "inbound_nodes": [[["block_10_expand_relu", 0, 0, {}]]]}, {"class_name": "BatchNormalization", "config": {"name": "block_10_depthwise_BN", "trainable": true, "dtype": "float32", "axis": [3], "momentum": 0.999, "epsilon": 0.001, "center": true, "scale": true, "beta_initializer": {"class_name": "Zeros", "config": {}}, "gamma_initializer": {"class_name": "Ones", "config": {}}, "moving_mean_initializer": {"class_name": "Zeros", "config": {}}, "moving_variance_initializer": {"class_name": "Ones", "config": {}}, "beta_regularizer": null, "gamma_regularizer": null, "beta_constraint": null, "gamma_constraint": null}, "name": "block_10_depthwise_BN", "inbound_nodes": [[["block_10_depthwise", 0, 0, {}]]]}, {"class_name": "ReLU", "config": {"name": "block_10_depthwise_relu", "trainable": true, "dtype": "float32", "max_value": 6.0, "negative_slope": 0.0, "threshold": 0.0}, "name": "block_10_depthwise_relu", "inbound_nodes": [[["block_10_depthwise_BN", 0, 0, {}]]]}, {"class_name": "Conv2D", "config": {"name": "block_10_project", "trainable": true, "dtype": "float32", "filters": 96, "kernel_size": [1, 1], "strides": [1, 1], "padding": "same", "data_format": "channels_last", "dilation_rate": [1, 1], "activation": "linear", "use_bias": false, "kernel_initializer": {"class_name": "GlorotUniform", "config": {"seed": null}}, "bias_initializer": {"class_name": "Zeros", "config": {}}, "kernel_regularizer": null, "bias_regularizer": null, "activity_regularizer": null, "kernel_constraint": null, "bias_constraint": null}, "name": "block_10_project", "inbound_nodes": [[["block_10_depthwise_relu", 0, 0, {}]]]}, {"class_name": "BatchNormalization", "config": {"name": "block_10_project_BN", "trainable": true, "dtype": "float32", "axis": [3], "momentum": 0.999, "epsilon": 0.001, "center": true, "scale": true, "beta_initializer": {"class_name": "Zeros", "config": {}}, "gamma_initializer": {"class_name": "Ones", "config": {}}, "moving_mean_initializer": {"class_name": "Zeros", "config": {}}, "moving_variance_initializer": {"class_name": "Ones", "config": {}}, "beta_regularizer": null, "gamma_regularizer": null, "beta_constraint": null, "gamma_constraint": null}, "name": "block_10_project_BN", "inbound_nodes": [[["block_10_project", 0, 0, {}]]]}, {"class_name": "Conv2D", "config": {"name": "block_11_expand", "trainable": true, "dtype": "float32", "filters": 576, "kernel_size": [1, 1], "strides": [1, 1], "padding": "same", "data_format": "channels_last", "dilation_rate": [1, 1], "activation": "linear", "use_bias": false, "kernel_initializer": {"class_name": "GlorotUniform", "config": {"seed": null}}, "bias_initializer": {"class_name": "Zeros", "config": {}}, "kernel_regularizer": null, "bias_regularizer": null, "activity_regularizer": null, "kernel_constraint": null, "bias_constraint": null}, "name": "block_11_expand", "inbound_nodes": [[["block_10_project_BN", 0, 0, {}]]]}, {"class_name": "BatchNormalization", "config": {"name": "block_11_expand_BN", "trainable": true, "dtype": "float32", "axis": [3], "momentum": 0.999, "epsilon": 0.001, "center": true, "scale": true, "beta_initializer": {"class_name": "Zeros", "config": {}}, "gamma_initializer": {"class_name": "Ones", "config": {}}, "moving_mean_initializer": {"class_name": "Zeros", "config": {}}, "moving_variance_initializer": {"class_name": "Ones", "config": {}}, "beta_regularizer": null, "gamma_regularizer": null, "beta_constraint": null, "gamma_constraint": null}, "name": "block_11_expand_BN", "inbound_nodes": [[["block_11_expand", 0, 0, {}]]]}, {"class_name": "ReLU", "config": {"name": "block_11_expand_relu", "trainable": true, "dtype": "float32", "max_value": 6.0, "negative_slope": 0.0, "threshold": 0.0}, "name": "block_11_expand_relu", "inbound_nodes": [[["block_11_expand_BN", 0, 0, {}]]]}, {"class_name": "DepthwiseConv2D", "config": {"name": "block_11_depthwise", "trainable": true, "dtype": "float32", "kernel_size": [3, 3], "strides": [1, 1], "padding": "same", "data_format": "channels_last", "dilation_rate": [1, 1], "activation": "linear", "use_bias": false, "bias_initializer": {"class_name": "Zeros", "config": {}}, "bias_regularizer": null, "activity_regularizer": null, "bias_constraint": null, "depth_multiplier": 1, "depthwise_initializer": {"class_name": "GlorotUniform", "config": {"seed": null}}, "depthwise_regularizer": null, "depthwise_constraint": null}, "name": "block_11_depthwise", "inbound_nodes": [[["block_11_expand_relu", 0, 0, {}]]]}, {"class_name": "BatchNormalization", "config": {"name": "block_11_depthwise_BN", "trainable": true, "dtype": "float32", "axis": [3], "momentum": 0.999, "epsilon": 0.001, "center": true, "scale": true, "beta_initializer": {"class_name": "Zeros", "config": {}}, "gamma_initializer": {"class_name": "Ones", "config": {}}, "moving_mean_initializer": {"class_name": "Zeros", "config": {}}, "moving_variance_initializer": {"class_name": "Ones", "config": {}}, "beta_regularizer": null, "gamma_regularizer": null, "beta_constraint": null, "gamma_constraint": null}, "name": "block_11_depthwise_BN", "inbound_nodes": [[["block_11_depthwise", 0, 0, {}]]]}, {"class_name": "ReLU", "config": {"name": "block_11_depthwise_relu", "trainable": true, "dtype": "float32", "max_value": 6.0, "negative_slope": 0.0, "threshold": 0.0}, "name": "block_11_depthwise_relu", "inbound_nodes": [[["block_11_depthwise_BN", 0, 0, {}]]]}, {"class_name": "Conv2D", "config": {"name": "block_11_project", "trainable": true, "dtype": "float32", "filters": 96, "kernel_size": [1, 1], "strides": [1, 1], "padding": "same", "data_format": "channels_last", "dilation_rate": [1, 1], "activation": "linear", "use_bias": false, "kernel_initializer": {"class_name": "GlorotUniform", "config": {"seed": null}}, "bias_initializer": {"class_name": "Zeros", "config": {}}, "kernel_regularizer": null, "bias_regularizer": null, "activity_regularizer": null, "kernel_constraint": null, "bias_constraint": null}, "name": "block_11_project", "inbound_nodes": [[["block_11_depthwise_relu", 0, 0, {}]]]}, {"class_name": "BatchNormalization", "config": {"name": "block_11_project_BN", "trainable": true, "dtype": "float32", "axis": [3], "momentum": 0.999, "epsilon": 0.001, "center": true, "scale": true, "beta_initializer": {"class_name": "Zeros", "config": {}}, "gamma_initializer": {"class_name": "Ones", "config": {}}, "moving_mean_initializer": {"class_name": "Zeros", "config": {}}, "moving_variance_initializer": {"class_name": "Ones", "config": {}}, "beta_regularizer": null, "gamma_regularizer": null, "beta_constraint": null, "gamma_constraint": null}, "name": "block_11_project_BN", "inbound_nodes": [[["block_11_project", 0, 0, {}]]]}, {"class_name": "Add", "config": {"name": "block_11_add", "trainable": true, "dtype": "float32"}, "name": "block_11_add", "inbound_nodes": [[["block_10_project_BN", 0, 0, {}], ["block_11_project_BN", 0, 0, {}]]]}, {"class_name": "Conv2D", "config": {"name": "block_12_expand", "trainable": true, "dtype": "float32", "filters": 576, "kernel_size": [1, 1], "strides": [1, 1], "padding": "same", "data_format": "channels_last", "dilation_rate": [1, 1], "activation": "linear", "use_bias": false, "kernel_initializer": {"class_name": "GlorotUniform", "config": {"seed": null}}, "bias_initializer": {"class_name": "Zeros", "config": {}}, "kernel_regularizer": null, "bias_regularizer": null, "activity_regularizer": null, "kernel_constraint": null, "bias_constraint": null}, "name": "block_12_expand", "inbound_nodes": [[["block_11_add", 0, 0, {}]]]}, {"class_name": "BatchNormalization", "config": {"name": "block_12_expand_BN", "trainable": true, "dtype": "float32", "axis": [3], "momentum": 0.999, "epsilon": 0.001, "center": true, "scale": true, "beta_initializer": {"class_name": "Zeros", "config": {}}, "gamma_initializer": {"class_name": "Ones", "config": {}}, "moving_mean_initializer": {"class_name": "Zeros", "config": {}}, "moving_variance_initializer": {"class_name": "Ones", "config": {}}, "beta_regularizer": null, "gamma_regularizer": null, "beta_constraint": null, "gamma_constraint": null}, "name": "block_12_expand_BN", "inbound_nodes": [[["block_12_expand", 0, 0, {}]]]}, {"class_name": "ReLU", "config": {"name": "block_12_expand_relu", "trainable": true, "dtype": "float32", "max_value": 6.0, "negative_slope": 0.0, "threshold": 0.0}, "name": "block_12_expand_relu", "inbound_nodes": [[["block_12_expand_BN", 0, 0, {}]]]}, {"class_name": "DepthwiseConv2D", "config": {"name": "block_12_depthwise", "trainable": true, "dtype": "float32", "kernel_size": [3, 3], "strides": [1, 1], "padding": "same", "data_format": "channels_last", "dilation_rate": [1, 1], "activation": "linear", "use_bias": false, "bias_initializer": {"class_name": "Zeros", "config": {}}, "bias_regularizer": null, "activity_regularizer": null, "bias_constraint": null, "depth_multiplier": 1, "depthwise_initializer": {"class_name": "GlorotUniform", "config": {"seed": null}}, "depthwise_regularizer": null, "depthwise_constraint": null}, "name": "block_12_depthwise", "inbound_nodes": [[["block_12_expand_relu", 0, 0, {}]]]}, {"class_name": "BatchNormalization", "config": {"name": "block_12_depthwise_BN", "trainable": true, "dtype": "float32", "axis": [3], "momentum": 0.999, "epsilon": 0.001, "center": true, "scale": true, "beta_initializer": {"class_name": "Zeros", "config": {}}, "gamma_initializer": {"class_name": "Ones", "config": {}}, "moving_mean_initializer": {"class_name": "Zeros", "config": {}}, "moving_variance_initializer": {"class_name": "Ones", "config": {}}, "beta_regularizer": null, "gamma_regularizer": null, "beta_constraint": null, "gamma_constraint": null}, "name": "block_12_depthwise_BN", "inbound_nodes": [[["block_12_depthwise", 0, 0, {}]]]}, {"class_name": "ReLU", "config": {"name": "block_12_depthwise_relu", "trainable": true, "dtype": "float32", "max_value": 6.0, "negative_slope": 0.0, "threshold": 0.0}, "name": "block_12_depthwise_relu", "inbound_nodes": [[["block_12_depthwise_BN", 0, 0, {}]]]}, {"class_name": "Conv2D", "config": {"name": "block_12_project", "trainable": true, "dtype": "float32", "filters": 96, "kernel_size": [1, 1], "strides": [1, 1], "padding": "same", "data_format": "channels_last", "dilation_rate": [1, 1], "activation": "linear", "use_bias": false, "kernel_initializer": {"class_name": "GlorotUniform", "config": {"seed": null}}, "bias_initializer": {"class_name": "Zeros", "config": {}}, "kernel_regularizer": null, "bias_regularizer": null, "activity_regularizer": null, "kernel_constraint": null, "bias_constraint": null}, "name": "block_12_project", "inbound_nodes": [[["block_12_depthwise_relu", 0, 0, {}]]]}, {"class_name": "BatchNormalization", "config": {"name": "block_12_project_BN", "trainable": true, "dtype": "float32", "axis": [3], "momentum": 0.999, "epsilon": 0.001, "center": true, "scale": true, "beta_initializer": {"class_name": "Zeros", "config": {}}, "gamma_initializer": {"class_name": "Ones", "config": {}}, "moving_mean_initializer": {"class_name": "Zeros", "config": {}}, "moving_variance_initializer": {"class_name": "Ones", "config": {}}, "beta_regularizer": null, "gamma_regularizer": null, "beta_constraint": null, "gamma_constraint": null}, "name": "block_12_project_BN", "inbound_nodes": [[["block_12_project", 0, 0, {}]]]}, {"class_name": "Add", "config": {"name": "block_12_add", "trainable": true, "dtype": "float32"}, "name": "block_12_add", "inbound_nodes": [[["block_11_add", 0, 0, {}], ["block_12_project_BN", 0, 0, {}]]]}, {"class_name": "Conv2D", "config": {"name": "block_13_expand", "trainable": true, "dtype": "float32", "filters": 576, "kernel_size": [1, 1], "strides": [1, 1], "padding": "same", "data_format": "channels_last", "dilation_rate": [1, 1], "activation": "linear", "use_bias": false, "kernel_initializer": {"class_name": "GlorotUniform", "config": {"seed": null}}, "bias_initializer": {"class_name": "Zeros", "config": {}}, "kernel_regularizer": null, "bias_regularizer": null, "activity_regularizer": null, "kernel_constraint": null, "bias_constraint": null}, "name": "block_13_expand", "inbound_nodes": [[["block_12_add", 0, 0, {}]]]}, {"class_name": "BatchNormalization", "config": {"name": "block_13_expand_BN", "trainable": true, "dtype": "float32", "axis": [3], "momentum": 0.999, "epsilon": 0.001, "center": true, "scale": true, "beta_initializer": {"class_name": "Zeros", "config": {}}, "gamma_initializer": {"class_name": "Ones", "config": {}}, "moving_mean_initializer": {"class_name": "Zeros", "config": {}}, "moving_variance_initializer": {"class_name": "Ones", "config": {}}, "beta_regularizer": null, "gamma_regularizer": null, "beta_constraint": null, "gamma_constraint": null}, "name": "block_13_expand_BN", "inbound_nodes": [[["block_13_expand", 0, 0, {}]]]}, {"class_name": "ReLU", "config": {"name": "block_13_expand_relu", "trainable": true, "dtype": "float32", "max_value": 6.0, "negative_slope": 0.0, "threshold": 0.0}, "name": "block_13_expand_relu", "inbound_nodes": [[["block_13_expand_BN", 0, 0, {}]]]}, {"class_name": "ZeroPadding2D", "config": {"name": "block_13_pad", "trainable": true, "dtype": "float32", "padding": [[0, 1], [0, 1]], "data_format": "channels_last"}, "name": "block_13_pad", "inbound_nodes": [[["block_13_expand_relu", 0, 0, {}]]]}, {"class_name": "DepthwiseConv2D", "config": {"name": "block_13_depthwise", "trainable": true, "dtype": "float32", "kernel_size": [3, 3], "strides": [2, 2], "padding": "valid", "data_format": "channels_last", "dilation_rate": [1, 1], "activation": "linear", "use_bias": false, "bias_initializer": {"class_name": "Zeros", "config": {}}, "bias_regularizer": null, "activity_regularizer": null, "bias_constraint": null, "depth_multiplier": 1, "depthwise_initializer": {"class_name": "GlorotUniform", "config": {"seed": null}}, "depthwise_regularizer": null, "depthwise_constraint": null}, "name": "block_13_depthwise", "inbound_nodes": [[["block_13_pad", 0, 0, {}]]]}, {"class_name": "BatchNormalization", "config": {"name": "block_13_depthwise_BN", "trainable": true, "dtype": "float32", "axis": [3], "momentum": 0.999, "epsilon": 0.001, "center": true, "scale": true, "beta_initializer": {"class_name": "Zeros", "config": {}}, "gamma_initializer": {"class_name": "Ones", "config": {}}, "moving_mean_initializer": {"class_name": "Zeros", "config": {}}, "moving_variance_initializer": {"class_name": "Ones", "config": {}}, "beta_regularizer": null, "gamma_regularizer": null, "beta_constraint": null, "gamma_constraint": null}, "name": "block_13_depthwise_BN", "inbound_nodes": [[["block_13_depthwise", 0, 0, {}]]]}, {"class_name": "ReLU", "config": {"name": "block_13_depthwise_relu", "trainable": true, "dtype": "float32", "max_value": 6.0, "negative_slope": 0.0, "threshold": 0.0}, "name": "block_13_depthwise_relu", "inbound_nodes": [[["block_13_depthwise_BN", 0, 0, {}]]]}, {"class_name": "Conv2D", "config": {"name": "block_13_project", "trainable": true, "dtype": "float32", "filters": 160, "kernel_size": [1, 1], "strides": [1, 1], "padding": "same", "data_format": "channels_last", "dilation_rate": [1, 1], "activation": "linear", "use_bias": false, "kernel_initializer": {"class_name": "GlorotUniform", "config": {"seed": null}}, "bias_initializer": {"class_name": "Zeros", "config": {}}, "kernel_regularizer": null, "bias_regularizer": null, "activity_regularizer": null, "kernel_constraint": null, "bias_constraint": null}, "name": "block_13_project", "inbound_nodes": [[["block_13_depthwise_relu", 0, 0, {}]]]}, {"class_name": "BatchNormalization", "config": {"name": "block_13_project_BN", "trainable": true, "dtype": "float32", "axis": [3], "momentum": 0.999, "epsilon": 0.001, "center": true, "scale": true, "beta_initializer": {"class_name": "Zeros", "config": {}}, "gamma_initializer": {"class_name": "Ones", "config": {}}, "moving_mean_initializer": {"class_name": "Zeros", "config": {}}, "moving_variance_initializer": {"class_name": "Ones", "config": {}}, "beta_regularizer": null, "gamma_regularizer": null, "beta_constraint": null, "gamma_constraint": null}, "name": "block_13_project_BN", "inbound_nodes": [[["block_13_project", 0, 0, {}]]]}, {"class_name": "Conv2D", "config": {"name": "block_14_expand", "trainable": true, "dtype": "float32", "filters": 960, "kernel_size": [1, 1], "strides": [1, 1], "padding": "same", "data_format": "channels_last", "dilation_rate": [1, 1], "activation": "linear", "use_bias": false, "kernel_initializer": {"class_name": "GlorotUniform", "config": {"seed": null}}, "bias_initializer": {"class_name": "Zeros", "config": {}}, "kernel_regularizer": null, "bias_regularizer": null, "activity_regularizer": null, "kernel_constraint": null, "bias_constraint": null}, "name": "block_14_expand", "inbound_nodes": [[["block_13_project_BN", 0, 0, {}]]]}, {"class_name": "BatchNormalization", "config": {"name": "block_14_expand_BN", "trainable": true, "dtype": "float32", "axis": [3], "momentum": 0.999, "epsilon": 0.001, "center": true, "scale": true, "beta_initializer": {"class_name": "Zeros", "config": {}}, "gamma_initializer": {"class_name": "Ones", "config": {}}, "moving_mean_initializer": {"class_name": "Zeros", "config": {}}, "moving_variance_initializer": {"class_name": "Ones", "config": {}}, "beta_regularizer": null, "gamma_regularizer": null, "beta_constraint": null, "gamma_constraint": null}, "name": "block_14_expand_BN", "inbound_nodes": [[["block_14_expand", 0, 0, {}]]]}, {"class_name": "ReLU", "config": {"name": "block_14_expand_relu", "trainable": true, "dtype": "float32", "max_value": 6.0, "negative_slope": 0.0, "threshold": 0.0}, "name": "block_14_expand_relu", "inbound_nodes": [[["block_14_expand_BN", 0, 0, {}]]]}, {"class_name": "DepthwiseConv2D", "config": {"name": "block_14_depthwise", "trainable": true, "dtype": "float32", "kernel_size": [3, 3], "strides": [1, 1], "padding": "same", "data_format": "channels_last", "dilation_rate": [1, 1], "activation": "linear", "use_bias": false, "bias_initializer": {"class_name": "Zeros", "config": {}}, "bias_regularizer": null, "activity_regularizer": null, "bias_constraint": null, "depth_multiplier": 1, "depthwise_initializer": {"class_name": "GlorotUniform", "config": {"seed": null}}, "depthwise_regularizer": null, "depthwise_constraint": null}, "name": "block_14_depthwise", "inbound_nodes": [[["block_14_expand_relu", 0, 0, {}]]]}, {"class_name": "BatchNormalization", "config": {"name": "block_14_depthwise_BN", "trainable": true, "dtype": "float32", "axis": [3], "momentum": 0.999, "epsilon": 0.001, "center": true, "scale": true, "beta_initializer": {"class_name": "Zeros", "config": {}}, "gamma_initializer": {"class_name": "Ones", "config": {}}, "moving_mean_initializer": {"class_name": "Zeros", "config": {}}, "moving_variance_initializer": {"class_name": "Ones", "config": {}}, "beta_regularizer": null, "gamma_regularizer": null, "beta_constraint": null, "gamma_constraint": null}, "name": "block_14_depthwise_BN", "inbound_nodes": [[["block_14_depthwise", 0, 0, {}]]]}, {"class_name": "ReLU", "config": {"name": "block_14_depthwise_relu", "trainable": true, "dtype": "float32", "max_value": 6.0, "negative_slope": 0.0, "threshold": 0.0}, "name": "block_14_depthwise_relu", "inbound_nodes": [[["block_14_depthwise_BN", 0, 0, {}]]]}, {"class_name": "Conv2D", "config": {"name": "block_14_project", "trainable": true, "dtype": "float32", "filters": 160, "kernel_size": [1, 1], "strides": [1, 1], "padding": "same", "data_format": "channels_last", "dilation_rate": [1, 1], "activation": "linear", "use_bias": false, "kernel_initializer": {"class_name": "GlorotUniform", "config": {"seed": null}}, "bias_initializer": {"class_name": "Zeros", "config": {}}, "kernel_regularizer": null, "bias_regularizer": null, "activity_regularizer": null, "kernel_constraint": null, "bias_constraint": null}, "name": "block_14_project", "inbound_nodes": [[["block_14_depthwise_relu", 0, 0, {}]]]}, {"class_name": "BatchNormalization", "config": {"name": "block_14_project_BN", "trainable": true, "dtype": "float32", "axis": [3], "momentum": 0.999, "epsilon": 0.001, "center": true, "scale": true, "beta_initializer": {"class_name": "Zeros", "config": {}}, "gamma_initializer": {"class_name": "Ones", "config": {}}, "moving_mean_initializer": {"class_name": "Zeros", "config": {}}, "moving_variance_initializer": {"class_name": "Ones", "config": {}}, "beta_regularizer": null, "gamma_regularizer": null, "beta_constraint": null, "gamma_constraint": null}, "name": "block_14_project_BN", "inbound_nodes": [[["block_14_project", 0, 0, {}]]]}, {"class_name": "Add", "config": {"name": "block_14_add", "trainable": true, "dtype": "float32"}, "name": "block_14_add", "inbound_nodes": [[["block_13_project_BN", 0, 0, {}], ["block_14_project_BN", 0, 0, {}]]]}, {"class_name": "Conv2D", "config": {"name": "block_15_expand", "trainable": true, "dtype": "float32", "filters": 960, "kernel_size": [1, 1], "strides": [1, 1], "padding": "same", "data_format": "channels_last", "dilation_rate": [1, 1], "activation": "linear", "use_bias": false, "kernel_initializer": {"class_name": "GlorotUniform", "config": {"seed": null}}, "bias_initializer": {"class_name": "Zeros", "config": {}}, "kernel_regularizer": null, "bias_regularizer": null, "activity_regularizer": null, "kernel_constraint": null, "bias_constraint": null}, "name": "block_15_expand", "inbound_nodes": [[["block_14_add", 0, 0, {}]]]}, {"class_name": "BatchNormalization", "config": {"name": "block_15_expand_BN", "trainable": true, "dtype": "float32", "axis": [3], "momentum": 0.999, "epsilon": 0.001, "center": true, "scale": true, "beta_initializer": {"class_name": "Zeros", "config": {}}, "gamma_initializer": {"class_name": "Ones", "config": {}}, "moving_mean_initializer": {"class_name": "Zeros", "config": {}}, "moving_variance_initializer": {"class_name": "Ones", "config": {}}, "beta_regularizer": null, "gamma_regularizer": null, "beta_constraint": null, "gamma_constraint": null}, "name": "block_15_expand_BN", "inbound_nodes": [[["block_15_expand", 0, 0, {}]]]}, {"class_name": "ReLU", "config": {"name": "block_15_expand_relu", "trainable": true, "dtype": "float32", "max_value": 6.0, "negative_slope": 0.0, "threshold": 0.0}, "name": "block_15_expand_relu", "inbound_nodes": [[["block_15_expand_BN", 0, 0, {}]]]}, {"class_name": "DepthwiseConv2D", "config": {"name": "block_15_depthwise", "trainable": true, "dtype": "float32", "kernel_size": [3, 3], "strides": [1, 1], "padding": "same", "data_format": "channels_last", "dilation_rate": [1, 1], "activation": "linear", "use_bias": false, "bias_initializer": {"class_name": "Zeros", "config": {}}, "bias_regularizer": null, "activity_regularizer": null, "bias_constraint": null, "depth_multiplier": 1, "depthwise_initializer": {"class_name": "GlorotUniform", "config": {"seed": null}}, "depthwise_regularizer": null, "depthwise_constraint": null}, "name": "block_15_depthwise", "inbound_nodes": [[["block_15_expand_relu", 0, 0, {}]]]}, {"class_name": "BatchNormalization", "config": {"name": "block_15_depthwise_BN", "trainable": true, "dtype": "float32", "axis": [3], "momentum": 0.999, "epsilon": 0.001, "center": true, "scale": true, "beta_initializer": {"class_name": "Zeros", "config": {}}, "gamma_initializer": {"class_name": "Ones", "config": {}}, "moving_mean_initializer": {"class_name": "Zeros", "config": {}}, "moving_variance_initializer": {"class_name": "Ones", "config": {}}, "beta_regularizer": null, "gamma_regularizer": null, "beta_constraint": null, "gamma_constraint": null}, "name": "block_15_depthwise_BN", "inbound_nodes": [[["block_15_depthwise", 0, 0, {}]]]}, {"class_name": "ReLU", "config": {"name": "block_15_depthwise_relu", "trainable": true, "dtype": "float32", "max_value": 6.0, "negative_slope": 0.0, "threshold": 0.0}, "name": "block_15_depthwise_relu", "inbound_nodes": [[["block_15_depthwise_BN", 0, 0, {}]]]}, {"class_name": "Conv2D", "config": {"name": "block_15_project", "trainable": true, "dtype": "float32", "filters": 160, "kernel_size": [1, 1], "strides": [1, 1], "padding": "same", "data_format": "channels_last", "dilation_rate": [1, 1], "activation": "linear", "use_bias": false, "kernel_initializer": {"class_name": "GlorotUniform", "config": {"seed": null}}, "bias_initializer": {"class_name": "Zeros", "config": {}}, "kernel_regularizer": null, "bias_regularizer": null, "activity_regularizer": null, "kernel_constraint": null, "bias_constraint": null}, "name": "block_15_project", "inbound_nodes": [[["block_15_depthwise_relu", 0, 0, {}]]]}, {"class_name": "BatchNormalization", "config": {"name": "block_15_project_BN", "trainable": true, "dtype": "float32", "axis": [3], "momentum": 0.999, "epsilon": 0.001, "center": true, "scale": true, "beta_initializer": {"class_name": "Zeros", "config": {}}, "gamma_initializer": {"class_name": "Ones", "config": {}}, "moving_mean_initializer": {"class_name": "Zeros", "config": {}}, "moving_variance_initializer": {"class_name": "Ones", "config": {}}, "beta_regularizer": null, "gamma_regularizer": null, "beta_constraint": null, "gamma_constraint": null}, "name": "block_15_project_BN", "inbound_nodes": [[["block_15_project", 0, 0, {}]]]}, {"class_name": "Add", "config": {"name": "block_15_add", "trainable": true, "dtype": "float32"}, "name": "block_15_add", "inbound_nodes": [[["block_14_add", 0, 0, {}], ["block_15_project_BN", 0, 0, {}]]]}, {"class_name": "Conv2D", "config": {"name": "block_16_expand", "trainable": true, "dtype": "float32", "filters": 960, "kernel_size": [1, 1], "strides": [1, 1], "padding": "same", "data_format": "channels_last", "dilation_rate": [1, 1], "activation": "linear", "use_bias": false, "kernel_initializer": {"class_name": "GlorotUniform", "config": {"seed": null}}, "bias_initializer": {"class_name": "Zeros", "config": {}}, "kernel_regularizer": null, "bias_regularizer": null, "activity_regularizer": null, "kernel_constraint": null, "bias_constraint": null}, "name": "block_16_expand", "inbound_nodes": [[["block_15_add", 0, 0, {}]]]}, {"class_name": "BatchNormalization", "config": {"name": "block_16_expand_BN", "trainable": true, "dtype": "float32", "axis": [3], "momentum": 0.999, "epsilon": 0.001, "center": true, "scale": true, "beta_initializer": {"class_name": "Zeros", "config": {}}, "gamma_initializer": {"class_name": "Ones", "config": {}}, "moving_mean_initializer": {"class_name": "Zeros", "config": {}}, "moving_variance_initializer": {"class_name": "Ones", "config": {}}, "beta_regularizer": null, "gamma_regularizer": null, "beta_constraint": null, "gamma_constraint": null}, "name": "block_16_expand_BN", "inbound_nodes": [[["block_16_expand", 0, 0, {}]]]}, {"class_name": "ReLU", "config": {"name": "block_16_expand_relu", "trainable": true, "dtype": "float32", "max_value": 6.0, "negative_slope": 0.0, "threshold": 0.0}, "name": "block_16_expand_relu", "inbound_nodes": [[["block_16_expand_BN", 0, 0, {}]]]}, {"class_name": "DepthwiseConv2D", "config": {"name": "block_16_depthwise", "trainable": true, "dtype": "float32", "kernel_size": [3, 3], "strides": [1, 1], "padding": "same", "data_format": "channels_last", "dilation_rate": [1, 1], "activation": "linear", "use_bias": false, "bias_initializer": {"class_name": "Zeros", "config": {}}, "bias_regularizer": null, "activity_regularizer": null, "bias_constraint": null, "depth_multiplier": 1, "depthwise_initializer": {"class_name": "GlorotUniform", "config": {"seed": null}}, "depthwise_regularizer": null, "depthwise_constraint": null}, "name": "block_16_depthwise", "inbound_nodes": [[["block_16_expand_relu", 0, 0, {}]]]}, {"class_name": "BatchNormalization", "config": {"name": "block_16_depthwise_BN", "trainable": true, "dtype": "float32", "axis": [3], "momentum": 0.999, "epsilon": 0.001, "center": true, "scale": true, "beta_initializer": {"class_name": "Zeros", "config": {}}, "gamma_initializer": {"class_name": "Ones", "config": {}}, "moving_mean_initializer": {"class_name": "Zeros", "config": {}}, "moving_variance_initializer": {"class_name": "Ones", "config": {}}, "beta_regularizer": null, "gamma_regularizer": null, "beta_constraint": null, "gamma_constraint": null}, "name": "block_16_depthwise_BN", "inbound_nodes": [[["block_16_depthwise", 0, 0, {}]]]}, {"class_name": "ReLU", "config": {"name": "block_16_depthwise_relu", "trainable": true, "dtype": "float32", "max_value": 6.0, "negative_slope": 0.0, "threshold": 0.0}, "name": "block_16_depthwise_relu", "inbound_nodes": [[["block_16_depthwise_BN", 0, 0, {}]]]}, {"class_name": "Conv2D", "config": {"name": "block_16_project", "trainable": true, "dtype": "float32", "filters": 320, "kernel_size": [1, 1], "strides": [1, 1], "padding": "same", "data_format": "channels_last", "dilation_rate": [1, 1], "activation": "linear", "use_bias": false, "kernel_initializer": {"class_name": "GlorotUniform", "config": {"seed": null}}, "bias_initializer": {"class_name": "Zeros", "config": {}}, "kernel_regularizer": null, "bias_regularizer": null, "activity_regularizer": null, "kernel_constraint": null, "bias_constraint": null}, "name": "block_16_project", "inbound_nodes": [[["block_16_depthwise_relu", 0, 0, {}]]]}, {"class_name": "BatchNormalization", "config": {"name": "block_16_project_BN", "trainable": true, "dtype": "float32", "axis": [3], "momentum": 0.999, "epsilon": 0.001, "center": true, "scale": true, "beta_initializer": {"class_name": "Zeros", "config": {}}, "gamma_initializer": {"class_name": "Ones", "config": {}}, "moving_mean_initializer": {"class_name": "Zeros", "config": {}}, "moving_variance_initializer": {"class_name": "Ones", "config": {}}, "beta_regularizer": null, "gamma_regularizer": null, "beta_constraint": null, "gamma_constraint": null}, "name": "block_16_project_BN", "inbound_nodes": [[["block_16_project", 0, 0, {}]]]}, {"class_name": "Conv2D", "config": {"name": "Conv_1", "trainable": true, "dtype": "float32", "filters": 1280, "kernel_size": [1, 1], "strides": [1, 1], "padding": "valid", "data_format": "channels_last", "dilation_rate": [1, 1], "activation": "linear", "use_bias": false, "kernel_initializer": {"class_name": "GlorotUniform", "config": {"seed": null}}, "bias_initializer": {"class_name": "Zeros", "config": {}}, "kernel_regularizer": null, "bias_regularizer": null, "activity_regularizer": null, "kernel_constraint": null, "bias_constraint": null}, "name": "Conv_1", "inbound_nodes": [[["block_16_project_BN", 0, 0, {}]]]}, {"class_name": "BatchNormalization", "config": {"name": "Conv_1_bn", "trainable": true, "dtype": "float32", "axis": [3], "momentum": 0.999, "epsilon": 0.001, "center": true, "scale": true, "beta_initializer": {"class_name": "Zeros", "config": {}}, "gamma_initializer": {"class_name": "Ones", "config": {}}, "moving_mean_initializer": {"class_name": "Zeros", "config": {}}, "moving_variance_initializer": {"class_name": "Ones", "config": {}}, "beta_regularizer": null, "gamma_regularizer": null, "beta_constraint": null, "gamma_constraint": null}, "name": "Conv_1_bn", "inbound_nodes": [[["Conv_1", 0, 0, {}]]]}, {"class_name": "ReLU", "config": {"name": "out_relu", "trainable": true, "dtype": "float32", "max_value": 6.0, "negative_slope": 0.0, "threshold": 0.0}, "name": "out_relu", "inbound_nodes": [[["Conv_1_bn", 0, 0, {}]]]}, {"class_name": "GlobalAveragePooling2D", "config": {"name": "global_average_pooling2d", "trainable": true, "dtype": "float32", "data_format": "channels_last"}, "name": "global_average_pooling2d", "inbound_nodes": [[["out_relu", 0, 0, {}]]]}, {"class_name": "Dense", "config": {"name": "dense", "trainable": true, "dtype": "float32", "units": 1024, "activation": "relu", "use_bias": true, "kernel_initializer": {"class_name": "GlorotUniform", "config": {"seed": null}}, "bias_initializer": {"class_name": "Zeros", "config": {}}, "kernel_regularizer": null, "bias_regularizer": null, "activity_regularizer": null, "kernel_constraint": null, "bias_constraint": null}, "name": "dense", "inbound_nodes": [[["global_average_pooling2d", 0, 0, {}]]]}, {"class_name": "Dense", "config": {"name": "dense_1", "trainable": true, "dtype": "float32", "units": 1024, "activation": "relu", "use_bias": true, "kernel_initializer": {"class_name": "GlorotUniform", "config": {"seed": null}}, "bias_initializer": {"class_name": "Zeros", "config": {}}, "kernel_regularizer": null, "bias_regularizer": null, "activity_regularizer": null, "kernel_constraint": null, "bias_constraint": null}, "name": "dense_1", "inbound_nodes": [[["dense", 0, 0, {}]]]}, {"class_name": "Dense", "config": {"name": "dense_2", "trainable": true, "dtype": "float32", "units": 1, "activation": "sigmoid", "use_bias": true, "kernel_initializer": {"class_name": "GlorotUniform", "config": {"seed": null}}, "bias_initializer": {"class_name": "Zeros", "config": {}}, "kernel_regularizer": null, "bias_regularizer": null, "activity_regularizer": null, "kernel_constraint": null, "bias_constraint": null}, "name": "dense_2", "inbound_nodes": [[["dense_1", 0, 0, {}]]]}], "input_layers": [["input_1", 0, 0]], "output_layers": [["dense_2", 0, 0]]}}, "training_config": {"loss": "binary_crossentropy", "metrics": ["acc"], "weighted_metrics": null, "sample_weight_mode": null, "loss_weights": null, "optimizer_config": {"class_name": "Adam", "config": {"name": "Adam", "learning_rate": 7.999999979801942e-06, "decay": 0.0, "beta_1": 0.8999999761581421, "beta_2": 0.9990000128746033, "epsilon": 1e-07, "amsgrad": false}}}}, "weightsManifest": [{"paths": ["group1-shard1of2.bin", "group1-shard2of2.bin"], "weights": [{"name": "Conv1/kernel", "shape": [3, 3, 3, 32], "dtype": "float32", "quantization": {"min": -0.7731621312160117, "scale": 0.005947401009353937, "dtype": "uint8"}}, {"name": "Conv_1/kernel", "shape": [1, 1, 320, 1280], "dtype": "float32", "quantization": {"min": -0.14494180971500922, "scale": 0.001141274092244167, "dtype": "uint8"}}, {"name": "Conv_1_bn/gamma", "shape": [1280], "dtype": "float32", "quantization": {"min": 4.062228202819824, "scale": 0.0042841817818435966, "dtype": "uint8"}}, {"name": "Conv_1_bn/beta", "shape": [1280], "dtype": "float32", "quantization": {"min": -5.495962619781494, "scale": 0.007131116530474495, "dtype": "uint8"}}, {"name": "Conv_1_bn/moving_mean", "shape": [1280], "dtype": "float32", "quantization": {"min": -0.0022949633626815147, "scale": 1.6999728612455666e-05, "dtype": "uint8"}}, {"name": "Conv_1_bn/moving_variance", "shape": [1280], "dtype": "float32", "quantization": {"min": 0.8189110159873962, "scale": 0.004588419549605425, "dtype": "uint8"}}, {"name": "block_10_depthwise/depthwise_kernel", "shape": [3, 3, 384, 1], "dtype": "float32", "quantization": {"min": -4.092989080092487, "scale": 0.034108242334104054, "dtype": "uint8"}}, {"name": "block_10_depthwise_BN/gamma", "shape": [384], "dtype": "float32", "quantization": {"min": 0.39309707283973694, "scale": 0.00730481837310043, "dtype": "uint8"}}, {"name": "block_10_depthwise_BN/beta", "shape": [384], "dtype": "float32", "quantization": {"min": -1.6708916944615981, "scale": 0.02320682908974442, "dtype": "uint8"}}, {"name": "block_10_depthwise_BN/moving_mean", "shape": [384], "dtype": "float32", "quantization": {"min": -10.703442423951392, "scale": 0.06333397883994907, "dtype": "uint8"}}, {"name": "block_10_depthwise_BN/moving_variance", "shape": [384], "dtype": "float32", "quantization": {"min": 0.16756531596183777, "scale": 0.0890395184357961, "dtype": "uint8"}}, {"name": "block_10_expand/kernel", "shape": [1, 1, 64, 384], "dtype": "float32", "quantization": {"min": -0.47803280108115254, "scale": 0.00382426240864922, "dtype": "uint8"}}, {"name": "block_10_expand_BN/gamma", "shape": [384], "dtype": "float32", "quantization": {"min": 0.31772860884666443, "scale": 0.006763050252316044, "dtype": "uint8"}}, {"name": "block_10_expand_BN/beta", "shape": [384], "dtype": "float32", "quantization": {"min": -1.9371303955713906, "scale": 0.01627840668547387, "dtype": "uint8"}}, {"name": "block_10_expand_BN/moving_mean", "shape": [384], "dtype": "float32", "quantization": {"min": -0.0168003661959779, "scale": 0.00012000261568555645, "dtype": "uint8"}}, {"name": "block_10_expand_BN/moving_variance", "shape": [384], "dtype": "float32", "quantization": {"min": 2.2894914150238037, "scale": 0.06324237842185824, "dtype": "uint8"}}, {"name": "block_10_project/kernel", "shape": [1, 1, 384, 96], "dtype": "float32", "quantization": {"min": -0.36762671727760166, "scale": 0.003342061066160015, "dtype": "uint8"}}, {"name": "block_10_project_BN/gamma", "shape": [96], "dtype": "float32", "quantization": {"min": 1.8229594230651855, "scale": 0.010023823906393612, "dtype": "uint8"}}, {"name": "block_10_project_BN/beta", "shape": [96], "dtype": "float32", "quantization": {"min": -0.0073186468259960995, "scale": 5.342077975179635e-05, "dtype": "uint8"}}, {"name": "block_10_project_BN/moving_mean", "shape": [96], "dtype": "float32", "quantization": {"min": -4.463993760651233, "scale": 0.0305752997304879, "dtype": "uint8"}}, {"name": "block_10_project_BN/moving_variance", "shape": [96], "dtype": "float32", "quantization": {"min": 0.4137444794178009, "scale": 0.02243861392432568, "dtype": "uint8"}}, {"name": "block_11_depthwise/depthwise_kernel", "shape": [3, 3, 576, 1], "dtype": "float32", "quantization": {"min": -3.1207489911247706, "scale": 0.024191852644378065, "dtype": "uint8"}}, {"name": "block_11_depthwise_BN/gamma", "shape": [576], "dtype": "float32", "quantization": {"min": 0.25144529342651367, "scale": 0.012034440508075788, "dtype": "uint8"}}, {"name": "block_11_depthwise_BN/beta", "shape": [576], "dtype": "float32", "quantization": {"min": -3.5119520682914587, "scale": 0.02422035909166523, "dtype": "uint8"}}, {"name": "block_11_depthwise_BN/moving_mean", "shape": [576], "dtype": "float32", "quantization": {"min": -7.050727735781202, "scale": 0.04099260311500699, "dtype": "uint8"}}, {"name": "block_11_depthwise_BN/moving_variance", "shape": [576], "dtype": "float32", "quantization": {"min": 0.00012562572374008596, "scale": 0.04777802213736554, "dtype": "uint8"}}, {"name": "block_11_expand/kernel", "shape": [1, 1, 96, 576], "dtype": "float32", "quantization": {"min": -0.2977126177619485, "scale": 0.002325879826265223, "dtype": "uint8"}}, {"name": "block_11_expand_BN/gamma", "shape": [576], "dtype": "float32", "quantization": {"min": 0.0032904082909226418, "scale": 0.011153214611113071, "dtype": "uint8"}}, {"name": "block_11_expand_BN/beta", "shape": [576], "dtype": "float32", "quantization": {"min": -1.6861584326800179, "scale": 0.018735093696444643, "dtype": "uint8"}}, {"name": "block_11_expand_BN/moving_mean", "shape": [576], "dtype": "float32", "quantization": {"min": -0.003374325900393374, "scale": 2.575821298010209e-05, "dtype": "uint8"}}, {"name": "block_11_expand_BN/moving_variance", "shape": [576], "dtype": "float32", "quantization": {"min": 1.4930466802134945e-14, "scale": 0.02688716439639815, "dtype": "uint8"}}, {"name": "block_11_project/kernel", "shape": [1, 1, 576, 96], "dtype": "float32", "quantization": {"min": -0.24199915329615274, "scale": 0.0019516060749689738, "dtype": "uint8"}}, {"name": "block_11_project_BN/gamma", "shape": [96], "dtype": "float32", "quantization": {"min": 0.6416136026382446, "scale": 0.008179045190998152, "dtype": "uint8"}}, {"name": "block_11_project_BN/beta", "shape": [96], "dtype": "float32", "quantization": {"min": -0.00656019453434091, "scale": 4.2323835705425226e-05, "dtype": "uint8"}}, {"name": "block_11_project_BN/moving_mean", "shape": [96], "dtype": "float32", "quantization": {"min": -2.0925935146855372, "scale": 0.016875754150689818, "dtype": "uint8"}}, {"name": "block_11_project_BN/moving_variance", "shape": [96], "dtype": "float32", "quantization": {"min": 0.09194023907184601, "scale": 0.0009403519186319089, "dtype": "uint8"}}, {"name": "block_12_depthwise/depthwise_kernel", "shape": [3, 3, 576, 1], "dtype": "float32", "quantization": {"min": -3.06120701677659, "scale": 0.024887861925012925, "dtype": "uint8"}}, {"name": "block_12_depthwise_BN/gamma", "shape": [576], "dtype": "float32", "quantization": {"min": 0.20895303785800934, "scale": 0.018318216882499995, "dtype": "uint8"}}, {"name": "block_12_depthwise_BN/beta", "shape": [576], "dtype": "float32", "quantization": {"min": -5.973725389966777, "scale": 0.03642515481687059, "dtype": "uint8"}}, {"name": "block_12_depthwise_BN/moving_mean", "shape": [576], "dtype": "float32", "quantization": {"min": -10.912087025361902, "scale": 0.05567391339470359, "dtype": "uint8"}}, {"name": "block_12_depthwise_BN/moving_variance", "shape": [576], "dtype": "float32", "quantization": {"min": 3.159534389851615e-05, "scale": 0.033772531658549126, "dtype": "uint8"}}, {"name": "block_12_expand/kernel", "shape": [1, 1, 96, 576], "dtype": "float32", "quantization": {"min": -0.24842705709092755, "scale": 0.0020531161743051864, "dtype": "uint8"}}, {"name": "block_12_expand_BN/gamma", "shape": [576], "dtype": "float32", "quantization": {"min": 0.2260468602180481, "scale": 0.010022580156139299, "dtype": "uint8"}}, {"name": "block_12_expand_BN/beta", "shape": [576], "dtype": "float32", "quantization": {"min": -1.930381027389975, "scale": 0.016498983140085258, "dtype": "uint8"}}, {"name": "block_12_expand_BN/moving_mean", "shape": [576], "dtype": "float32", "quantization": {"min": -0.005130895473720396, "scale": 4.17145973473203e-05, "dtype": "uint8"}}, {"name": "block_12_expand_BN/moving_variance", "shape": [576], "dtype": "float32", "quantization": {"min": 0.8829671740531921, "scale": 0.023744240227867575, "dtype": "uint8"}}, {"name": "block_12_project/kernel", "shape": [1, 1, 576, 96], "dtype": "float32", "quantization": {"min": -0.46183421424790927, "scale": 0.0032523536214641496, "dtype": "uint8"}}, {"name": "block_12_project_BN/gamma", "shape": [96], "dtype": "float32", "quantization": {"min": 0.7654421925544739, "scale": 0.01336131820491716, "dtype": "uint8"}}, {"name": "block_12_project_BN/beta", "shape": [96], "dtype": "float32", "quantization": {"min": -0.005546702327681523, "scale": 3.9619302340582306e-05, "dtype": "uint8"}}, {"name": "block_12_project_BN/moving_mean", "shape": [96], "dtype": "float32", "quantization": {"min": -1.9835184658274931, "scale": 0.013774433790468702, "dtype": "uint8"}}, {"name": "block_12_project_BN/moving_variance", "shape": [96], "dtype": "float32", "quantization": {"min": 0.06338205188512802, "scale": 0.0008655740057720857, "dtype": "uint8"}}, {"name": "block_13_depthwise/depthwise_kernel", "shape": [3, 3, 576, 1], "dtype": "float32", "quantization": {"min": -1.4745815838084502, "scale": 0.01117107260460947, "dtype": "uint8"}}, {"name": "block_13_depthwise_BN/gamma", "shape": [576], "dtype": "float32", "quantization": {"min": 0.3265259265899658, "scale": 0.00566396760005577, "dtype": "uint8"}}, {"name": "block_13_depthwise_BN/beta", "shape": [576], "dtype": "float32", "quantization": {"min": -2.242028778674556, "scale": 0.027012394923789828, "dtype": "uint8"}}, {"name": "block_13_depthwise_BN/moving_mean", "shape": [576], "dtype": "float32", "quantization": {"min": -8.05543851665422, "scale": 0.0482361587823606, "dtype": "uint8"}}, {"name": "block_13_depthwise_BN/moving_variance", "shape": [576], "dtype": "float32", "quantization": {"min": 0.038716837763786316, "scale": 0.0715150363889395, "dtype": "uint8"}}, {"name": "block_13_expand/kernel", "shape": [1, 1, 96, 576], "dtype": "float32", "quantization": {"min": -0.41182273509455664, "scale": 0.003167867193035051, "dtype": "uint8"}}, {"name": "block_13_expand_BN/gamma", "shape": [576], "dtype": "float32", "quantization": {"min": 0.10486962646245956, "scale": 0.007111368372159845, "dtype": "uint8"}}, {"name": "block_13_expand_BN/beta", "shape": [576], "dtype": "float32", "quantization": {"min": -2.8275189296872005, "scale": 0.019772859648162243, "dtype": "uint8"}}, {"name": "block_13_expand_BN/moving_mean", "shape": [576], "dtype": "float32", "quantization": {"min": -0.011274295807907394, "scale": 7.884122942592583e-05, "dtype": "uint8"}}, {"name": "block_13_expand_BN/moving_variance", "shape": [576], "dtype": "float32", "quantization": {"min": 0.7138096690177917, "scale": 0.047333071512334485, "dtype": "uint8"}}, {"name": "block_13_project/kernel", "shape": [1, 1, 576, 160], "dtype": "float32", "quantization": {"min": -0.3792796536987903, "scale": 0.0028952645320518343, "dtype": "uint8"}}, {"name": "block_13_project_BN/gamma", "shape": [160], "dtype": "float32", "quantization": {"min": 1.5425853729248047, "scale": 0.005961392907535328, "dtype": "uint8"}}, {"name": "block_13_project_BN/beta", "shape": [160], "dtype": "float32", "quantization": {"min": -0.005035993770933618, "scale": 4.5781761553941986e-05, "dtype": "uint8"}}, {"name": "block_13_project_BN/moving_mean", "shape": [160], "dtype": "float32", "quantization": {"min": -4.675628018846699, "scale": 0.03832481982661229, "dtype": "uint8"}}, {"name": "block_13_project_BN/moving_variance", "shape": [160], "dtype": "float32", "quantization": {"min": 0.17595911026000977, "scale": 0.01070400312835095, "dtype": "uint8"}}, {"name": "block_14_depthwise/depthwise_kernel", "shape": [3, 3, 960, 1], "dtype": "float32", "quantization": {"min": -3.8071476113562492, "scale": 0.02662340986962412, "dtype": "uint8"}}, {"name": "block_14_depthwise_BN/gamma", "shape": [960], "dtype": "float32", "quantization": {"min": 0.2764386534690857, "scale": 0.017542534482245353, "dtype": "uint8"}}, {"name": "block_14_depthwise_BN/beta", "shape": [960], "dtype": "float32", "quantization": {"min": -5.4271679625791664, "scale": 0.03289192704593434, "dtype": "uint8"}}, {"name": "block_14_depthwise_BN/moving_mean", "shape": [960], "dtype": "float32", "quantization": {"min": -5.239596632415173, "scale": 0.0451689364863377, "dtype": "uint8"}}, {"name": "block_14_depthwise_BN/moving_variance", "shape": [960], "dtype": "float32", "quantization": {"min": 6.0675476561300457e-05, "scale": 0.07062194815673638, "dtype": "uint8"}}, {"name": "block_14_expand/kernel", "shape": [1, 1, 160, 960], "dtype": "float32", "quantization": {"min": -0.2893622166970197, "scale": 0.0022431179588916256, "dtype": "uint8"}}, {"name": "block_14_expand_BN/gamma", "shape": [960], "dtype": "float32", "quantization": {"min": 0.28724464774131775, "scale": 0.008840218361686258, "dtype": "uint8"}}, {"name": "block_14_expand_BN/beta", "shape": [960], "dtype": "float32", "quantization": {"min": -1.8747253062678317, "scale": 0.0158875025954901, "dtype": "uint8"}}, {"name": "block_14_expand_BN/moving_mean", "shape": [960], "dtype": "float32", "quantization": {"min": -0.0034874026554034035, "scale": 2.9806860302593194e-05, "dtype": "uint8"}}, {"name": "block_14_expand_BN/moving_variance", "shape": [960], "dtype": "float32", "quantization": {"min": 0.5531644225120544, "scale": 0.028597869358810726, "dtype": "uint8"}}, {"name": "block_14_project/kernel", "shape": [1, 1, 960, 160], "dtype": "float32", "quantization": {"min": -0.29447515922434186, "scale": 0.0020592668477226704, "dtype": "uint8"}}, {"name": "block_14_project_BN/gamma", "shape": [160], "dtype": "float32", "quantization": {"min": 0.8482527732849121, "scale": 0.006903579188328163, "dtype": "uint8"}}, {"name": "block_14_project_BN/beta", "shape": [160], "dtype": "float32", "quantization": {"min": -0.003994446876002293, "scale": 3.120661621876791e-05, "dtype": "uint8"}}, {"name": "block_14_project_BN/moving_mean", "shape": [160], "dtype": "float32", "quantization": {"min": -2.2598765878116387, "scale": 0.01614197562722599, "dtype": "uint8"}}, {"name": "block_14_project_BN/moving_variance", "shape": [160], "dtype": "float32", "quantization": {"min": 0.1418401002883911, "scale": 0.0017246564229329428, "dtype": "uint8"}}, {"name": "block_15_depthwise/depthwise_kernel", "shape": [3, 3, 960, 1], "dtype": "float32", "quantization": {"min": -3.7876863797505695, "scale": 0.0284788449605306, "dtype": "uint8"}}, {"name": "block_15_depthwise_BN/gamma", "shape": [960], "dtype": "float32", "quantization": {"min": 0.15563799440860748, "scale": 0.017093739731639038, "dtype": "uint8"}}, {"name": "block_15_depthwise_BN/beta", "shape": [960], "dtype": "float32", "quantization": {"min": -6.166523787554573, "scale": 0.0358518824857824, "dtype": "uint8"}}, {"name": "block_15_depthwise_BN/moving_mean", "shape": [960], "dtype": "float32", "quantization": {"min": -14.965764296288585, "scale": 0.09181450488520604, "dtype": "uint8"}}, {"name": "block_15_depthwise_BN/moving_variance", "shape": [960], "dtype": "float32", "quantization": {"min": 6.778296665288508e-06, "scale": 0.08419036451018388, "dtype": "uint8"}}, {"name": "block_15_expand/kernel", "shape": [1, 1, 160, 960], "dtype": "float32", "quantization": {"min": -0.2833937219544953, "scale": 0.0023228993602827483, "dtype": "uint8"}}, {"name": "block_15_expand_BN/gamma", "shape": [960], "dtype": "float32", "quantization": {"min": 0.18009015917778015, "scale": 0.010350025518267763, "dtype": "uint8"}}, {"name": "block_15_expand_BN/beta", "shape": [960], "dtype": "float32", "quantization": {"min": -2.0705508531308645, "scale": 0.018323458877264286, "dtype": "uint8"}}, {"name": "block_15_expand_BN/moving_mean", "shape": [960], "dtype": "float32", "quantization": {"min": -0.005622692460961202, "scale": 4.8892977921401754e-05, "dtype": "uint8"}}, {"name": "block_15_expand_BN/moving_variance", "shape": [960], "dtype": "float32", "quantization": {"min": 0.7293730974197388, "scale": 0.047121346698087804, "dtype": "uint8"}}, {"name": "block_15_project/kernel", "shape": [1, 1, 960, 160], "dtype": "float32", "quantization": {"min": -0.44030926367815804, "scale": 0.003335676239986046, "dtype": "uint8"}}, {"name": "block_15_project_BN/gamma", "shape": [160], "dtype": "float32", "quantization": {"min": 1.2602938413619995, "scale": 0.010847905570385502, "dtype": "uint8"}}, {"name": "block_15_project_BN/beta", "shape": [160], "dtype": "float32", "quantization": {"min": -0.0026965336490641623, "scale": 2.012338544077733e-05, "dtype": "uint8"}}, {"name": "block_15_project_BN/moving_mean", "shape": [160], "dtype": "float32", "quantization": {"min": -2.5224525339463177, "scale": 0.014251144259583716, "dtype": "uint8"}}, {"name": "block_15_project_BN/moving_variance", "shape": [160], "dtype": "float32", "quantization": {"min": 0.03343874216079712, "scale": 0.0004556751134348851, "dtype": "uint8"}}, {"name": "block_16_depthwise/depthwise_kernel", "shape": [3, 3, 960, 1], "dtype": "float32", "quantization": {"min": -2.803370531867532, "scale": 0.0233614210988961, "dtype": "uint8"}}, {"name": "block_16_depthwise_BN/gamma", "shape": [960], "dtype": "float32", "quantization": {"min": 0.4479358494281769, "scale": 0.011890933911005656, "dtype": "uint8"}}, {"name": "block_16_depthwise_BN/beta", "shape": [960], "dtype": "float32", "quantization": {"min": -3.725287381340476, "scale": 0.03239380331600414, "dtype": "uint8"}}, {"name": "block_16_depthwise_BN/moving_mean", "shape": [960], "dtype": "float32", "quantization": {"min": -5.3805594818264835, "scale": 0.0347132869795257, "dtype": "uint8"}}, {"name": "block_16_depthwise_BN/moving_variance", "shape": [960], "dtype": "float32", "quantization": {"min": 7.766607268422376e-06, "scale": 0.2304728932703131, "dtype": "uint8"}}, {"name": "block_16_expand/kernel", "shape": [1, 1, 160, 960], "dtype": "float32", "quantization": {"min": -0.38013125728158387, "scale": 0.0030904980266795437, "dtype": "uint8"}}, {"name": "block_16_expand_BN/gamma", "shape": [960], "dtype": "float32", "quantization": {"min": 0.2672277092933655, "scale": 0.013353268071716906, "dtype": "uint8"}}, {"name": "block_16_expand_BN/beta", "shape": [960], "dtype": "float32", "quantization": {"min": -1.833787689956964, "scale": 0.015540573643703086, "dtype": "uint8"}}, {"name": "block_16_expand_BN/moving_mean", "shape": [960], "dtype": "float32", "quantization": {"min": -0.007725150883197785, "scale": 7.573677336468416e-05, "dtype": "uint8"}}, {"name": "block_16_expand_BN/moving_variance", "shape": [960], "dtype": "float32", "quantization": {"min": 1.1182122230529785, "scale": 0.1503721555074056, "dtype": "uint8"}}, {"name": "block_16_project/kernel", "shape": [1, 1, 960, 320], "dtype": "float32", "quantization": {"min": -0.43908621984369617, "scale": 0.003991692907669965, "dtype": "uint8"}}, {"name": "block_16_project_BN/gamma", "shape": [320], "dtype": "float32", "quantization": {"min": 1.7432883977890015, "scale": 0.006895083539626178, "dtype": "uint8"}}, {"name": "block_16_project_BN/beta", "shape": [320], "dtype": "float32", "quantization": {"min": -0.0022212760349479958, "scale": 2.0378679219706385e-05, "dtype": "uint8"}}, {"name": "block_16_project_BN/moving_mean", "shape": [320], "dtype": "float32", "quantization": {"min": -9.62326238669601, "scale": 0.05201763452268114, "dtype": "uint8"}}, {"name": "block_16_project_BN/moving_variance", "shape": [320], "dtype": "float32", "quantization": {"min": 0.16132789850234985, "scale": 0.012474733941695269, "dtype": "uint8"}}, {"name": "block_1_depthwise/depthwise_kernel", "shape": [3, 3, 96, 1], "dtype": "float32", "quantization": {"min": -3.0725193799710744, "scale": 0.025392722148521275, "dtype": "uint8"}}, {"name": "block_1_depthwise_BN/gamma", "shape": [96], "dtype": "float32", "quantization": {"min": 0.4524949789047241, "scale": 0.011627559568367753, "dtype": "uint8"}}, {"name": "block_1_depthwise_BN/beta", "shape": [96], "dtype": "float32", "quantization": {"min": -4.132214959462484, "scale": 0.03415053685506185, "dtype": "uint8"}}, {"name": "block_1_depthwise_BN/moving_mean", "shape": [96], "dtype": "float32", "quantization": {"min": -28.64674476174747, "scale": 0.26524763668284695, "dtype": "uint8"}}, {"name": "block_1_depthwise_BN/moving_variance", "shape": [96], "dtype": "float32", "quantization": {"min": 0.126084104180336, "scale": 0.7766156934639987, "dtype": "uint8"}}, {"name": "block_1_expand/kernel", "shape": [1, 1, 16, 96], "dtype": "float32", "quantization": {"min": -1.123040149492376, "scale": 0.006975404655232149, "dtype": "uint8"}}, {"name": "block_1_expand_BN/gamma", "shape": [96], "dtype": "float32", "quantization": {"min": 0.20588980615139008, "scale": 0.03753212906566321, "dtype": "uint8"}}, {"name": "block_1_expand_BN/beta", "shape": [96], "dtype": "float32", "quantization": {"min": -2.2416487301097194, "scale": 0.028020609126371495, "dtype": "uint8"}}, {"name": "block_1_expand_BN/moving_mean", "shape": [96], "dtype": "float32", "quantization": {"min": -0.05371397143485499, "scale": 0.00036790391393736295, "dtype": "uint8"}}, {"name": "block_1_expand_BN/moving_variance", "shape": [96], "dtype": "float32", "quantization": {"min": 1.6491490602493286, "scale": 0.0584666602751788, "dtype": "uint8"}}, {"name": "block_1_project/kernel", "shape": [1, 1, 96, 24], "dtype": "float32", "quantization": {"min": -1.2277668749584871, "scale": 0.00744101136338477, "dtype": "uint8"}}, {"name": "block_1_project_BN/gamma", "shape": [24], "dtype": "float32", "quantization": {"min": 1.9869537353515625, "scale": 0.013049634297688802, "dtype": "uint8"}}, {"name": "block_1_project_BN/beta", "shape": [24], "dtype": "float32", "quantization": {"min": -0.010179174384650063, "scale": 8.078709829087351e-05, "dtype": "uint8"}}, {"name": "block_1_project_BN/moving_mean", "shape": [24], "dtype": "float32", "quantization": {"min": -5.1047867419672945, "scale": 0.03190491713729559, "dtype": "uint8"}}, {"name": "block_1_project_BN/moving_variance", "shape": [24], "dtype": "float32", "quantization": {"min": 0.2631586790084839, "scale": 0.01033913808710435, "dtype": "uint8"}}, {"name": "block_2_depthwise/depthwise_kernel", "shape": [3, 3, 144, 1], "dtype": "float32", "quantization": {"min": -7.222930953081916, "scale": 0.058723015878714764, "dtype": "uint8"}}, {"name": "block_2_depthwise_BN/gamma", "shape": [144], "dtype": "float32", "quantization": {"min": 0.41392508149147034, "scale": 0.008270178004807118, "dtype": "uint8"}}, {"name": "block_2_depthwise_BN/beta", "shape": [144], "dtype": "float32", "quantization": {"min": -3.292440436868106, "scale": 0.03429625455070944, "dtype": "uint8"}}, {"name": "block_2_depthwise_BN/moving_mean", "shape": [144], "dtype": "float32", "quantization": {"min": -11.457167616077498, "scale": 0.06030088218988157, "dtype": "uint8"}}, {"name": "block_2_depthwise_BN/moving_variance", "shape": [144], "dtype": "float32", "quantization": {"min": 3.917904591177378e-36, "scale": 0.14723214542164523, "dtype": "uint8"}}, {"name": "block_2_expand/kernel", "shape": [1, 1, 24, 144], "dtype": "float32", "quantization": {"min": -0.4610126793384552, "scale": 0.0038740561288945815, "dtype": "uint8"}}, {"name": "block_2_expand_BN/gamma", "shape": [144], "dtype": "float32", "quantization": {"min": 0.18450245261192322, "scale": 0.0164029669527914, "dtype": "uint8"}}, {"name": "block_2_expand_BN/beta", "shape": [144], "dtype": "float32", "quantization": {"min": -2.5836978519664093, "scale": 0.02870775391073788, "dtype": "uint8"}}, {"name": "block_2_expand_BN/moving_mean", "shape": [144], "dtype": "float32", "quantization": {"min": -0.007741694824368346, "scale": 6.04819908153777e-05, "dtype": "uint8"}}, {"name": "block_2_expand_BN/moving_variance", "shape": [144], "dtype": "float32", "quantization": {"min": 1.383987329806073e-34, "scale": 0.07840239580939798, "dtype": "uint8"}}, {"name": "block_2_project/kernel", "shape": [1, 1, 144, 24], "dtype": "float32", "quantization": {"min": -0.46476229312373146, "scale": 0.004149663331461888, "dtype": "uint8"}}, {"name": "block_2_project_BN/gamma", "shape": [24], "dtype": "float32", "quantization": {"min": 1.4458376169204712, "scale": 0.024712739738763548, "dtype": "uint8"}}, {"name": "block_2_project_BN/beta", "shape": [24], "dtype": "float32", "quantization": {"min": -0.0066268740550560114, "scale": 5.6639949188512915e-05, "dtype": "uint8"}}, {"name": "block_2_project_BN/moving_mean", "shape": [24], "dtype": "float32", "quantization": {"min": -4.302843439812754, "scale": 0.03741602991141525, "dtype": "uint8"}}, {"name": "block_2_project_BN/moving_variance", "shape": [24], "dtype": "float32", "quantization": {"min": 0.4662335216999054, "scale": 0.00453839430622026, "dtype": "uint8"}}, {"name": "block_3_depthwise/depthwise_kernel", "shape": [3, 3, 144, 1], "dtype": "float32", "quantization": {"min": -2.2840183940588257, "scale": 0.0179843968036128, "dtype": "uint8"}}, {"name": "block_3_depthwise_BN/gamma", "shape": [144], "dtype": "float32", "quantization": {"min": 0.3287286162376404, "scale": 0.011656211637983135, "dtype": "uint8"}}, {"name": "block_3_depthwise_BN/beta", "shape": [144], "dtype": "float32", "quantization": {"min": -2.825532600926418, "scale": 0.031049808801389207, "dtype": "uint8"}}, {"name": "block_3_depthwise_BN/moving_mean", "shape": [144], "dtype": "float32", "quantization": {"min": -28.721606161080157, "scale": 0.18530068491019455, "dtype": "uint8"}}, {"name": "block_3_depthwise_BN/moving_variance", "shape": [144], "dtype": "float32", "quantization": {"min": 0.12712188065052032, "scale": 0.4173718285911224, "dtype": "uint8"}}, {"name": "block_3_expand/kernel", "shape": [1, 1, 24, 144], "dtype": "float32", "quantization": {"min": -0.9526618228239172, "scale": 0.007056754243140127, "dtype": "uint8"}}, {"name": "block_3_expand_BN/gamma", "shape": [144], "dtype": "float32", "quantization": {"min": 0.282489150762558, "scale": 0.014014514871672087, "dtype": "uint8"}}, {"name": "block_3_expand_BN/beta", "shape": [144], "dtype": "float32", "quantization": {"min": -2.3538663527544808, "scale": 0.02504113141228171, "dtype": "uint8"}}, {"name": "block_3_expand_BN/moving_mean", "shape": [144], "dtype": "float32", "quantization": {"min": -0.00886560551383916, "scale": 7.57744061011894e-05, "dtype": "uint8"}}, {"name": "block_3_expand_BN/moving_variance", "shape": [144], "dtype": "float32", "quantization": {"min": 2.3625619411468506, "scale": 0.13737383917266247, "dtype": "uint8"}}, {"name": "block_3_project/kernel", "shape": [1, 1, 144, 32], "dtype": "float32", "quantization": {"min": -0.6927329378969529, "scale": 0.006355348054100486, "dtype": "uint8"}}, {"name": "block_3_project_BN/gamma", "shape": [32], "dtype": "float32", "quantization": {"min": 2.484224557876587, "scale": 0.01663695784176097, "dtype": "uint8"}}, {"name": "block_3_project_BN/beta", "shape": [32], "dtype": "float32", "quantization": {"min": -0.00594348587534007, "scale": 5.884639480534722e-05, "dtype": "uint8"}}, {"name": "block_3_project_BN/moving_mean", "shape": [32], "dtype": "float32", "quantization": {"min": -3.2367249096141144, "scale": 0.037636336158303654, "dtype": "uint8"}}, {"name": "block_3_project_BN/moving_variance", "shape": [32], "dtype": "float32", "quantization": {"min": 0.44513559341430664, "scale": 0.028837127311556948, "dtype": "uint8"}}, {"name": "block_4_depthwise/depthwise_kernel", "shape": [3, 3, 192, 1], "dtype": "float32", "quantization": {"min": -4.978869464350682, "scale": 0.037155742271273745, "dtype": "uint8"}}, {"name": "block_4_depthwise_BN/gamma", "shape": [192], "dtype": "float32", "quantization": {"min": 0.40425387024879456, "scale": 0.009332367368772918, "dtype": "uint8"}}, {"name": "block_4_depthwise_BN/beta", "shape": [192], "dtype": "float32", "quantization": {"min": -2.904437426959767, "scale": 0.02400361509884105, "dtype": "uint8"}}, {"name": "block_4_depthwise_BN/moving_mean", "shape": [192], "dtype": "float32", "quantization": {"min": -5.347318088307101, "scale": 0.04456098406922584, "dtype": "uint8"}}, {"name": "block_4_depthwise_BN/moving_variance", "shape": [192], "dtype": "float32", "quantization": {"min": 0.017537426203489304, "scale": 0.04970855591636078, "dtype": "uint8"}}, {"name": "block_4_expand/kernel", "shape": [1, 1, 32, 192], "dtype": "float32", "quantization": {"min": -0.40811424699484133, "scale": 0.002874043992921418, "dtype": "uint8"}}, {"name": "block_4_expand_BN/gamma", "shape": [192], "dtype": "float32", "quantization": {"min": 0.13035821914672852, "scale": 0.007682124306173886, "dtype": "uint8"}}, {"name": "block_4_expand_BN/beta", "shape": [192], "dtype": "float32", "quantization": {"min": -2.610815900914809, "scale": 0.02250703362857594, "dtype": "uint8"}}, {"name": "block_4_expand_BN/moving_mean", "shape": [192], "dtype": "float32", "quantization": {"min": -0.0032597788920005165, "scale": 2.3968962441180268e-05, "dtype": "uint8"}}, {"name": "block_4_expand_BN/moving_variance", "shape": [192], "dtype": "float32", "quantization": {"min": 1.2174547910690308, "scale": 0.08628670234306186, "dtype": "uint8"}}, {"name": "block_4_project/kernel", "shape": [1, 1, 192, 32], "dtype": "float32", "quantization": {"min": -0.49754691825193514, "scale": 0.0034313580569098976, "dtype": "uint8"}}, {"name": "block_4_project_BN/gamma", "shape": [32], "dtype": "float32", "quantization": {"min": 0.9808348417282104, "scale": 0.01987138682720708, "dtype": "uint8"}}, {"name": "block_4_project_BN/beta", "shape": [32], "dtype": "float32", "quantization": {"min": -0.006181534949470969, "scale": 4.867350353914149e-05, "dtype": "uint8"}}, {"name": "block_4_project_BN/moving_mean", "shape": [32], "dtype": "float32", "quantization": {"min": -2.7681019109838148, "scale": 0.020058709499882716, "dtype": "uint8"}}, {"name": "block_4_project_BN/moving_variance", "shape": [32], "dtype": "float32", "quantization": {"min": 0.13401475548744202, "scale": 0.0030620386787489347, "dtype": "uint8"}}, {"name": "block_5_depthwise/depthwise_kernel", "shape": [3, 3, 192, 1], "dtype": "float32", "quantization": {"min": -4.558351928112554, "scale": 0.032559656629375384, "dtype": "uint8"}}, {"name": "block_5_depthwise_BN/gamma", "shape": [192], "dtype": "float32", "quantization": {"min": 0.42789486050605774, "scale": 0.008474136684455123, "dtype": "uint8"}}, {"name": "block_5_depthwise_BN/beta", "shape": [192], "dtype": "float32", "quantization": {"min": -2.8792896467096667, "scale": 0.023408858916338753, "dtype": "uint8"}}, {"name": "block_5_depthwise_BN/moving_mean", "shape": [192], "dtype": "float32", "quantization": {"min": -18.30935140497544, "scale": 0.103442663304946, "dtype": "uint8"}}, {"name": "block_5_depthwise_BN/moving_variance", "shape": [192], "dtype": "float32", "quantization": {"min": 0.08899747580289841, "scale": 0.03907565839734732, "dtype": "uint8"}}, {"name": "block_5_expand/kernel", "shape": [1, 1, 32, 192], "dtype": "float32", "quantization": {"min": -0.35418507667148813, "scale": 0.0029271493939792407, "dtype": "uint8"}}, {"name": "block_5_expand_BN/gamma", "shape": [192], "dtype": "float32", "quantization": {"min": 0.14197255671024323, "scale": 0.00717260270726447, "dtype": "uint8"}}, {"name": "block_5_expand_BN/beta", "shape": [192], "dtype": "float32", "quantization": {"min": -1.5891958886501836, "scale": 0.01914693841747209, "dtype": "uint8"}}, {"name": "block_5_expand_BN/moving_mean", "shape": [192], "dtype": "float32", "quantization": {"min": -0.007152388564438796, "scale": 5.6318020192431466e-05, "dtype": "uint8"}}, {"name": "block_5_expand_BN/moving_variance", "shape": [192], "dtype": "float32", "quantization": {"min": 1.567460536956787, "scale": 0.0506263489816703, "dtype": "uint8"}}, {"name": "block_5_project/kernel", "shape": [1, 1, 192, 32], "dtype": "float32", "quantization": {"min": -0.3561034289060855, "scale": 0.002803964007134531, "dtype": "uint8"}}, {"name": "block_5_project_BN/gamma", "shape": [32], "dtype": "float32", "quantization": {"min": 0.9196256995201111, "scale": 0.018859874734691546, "dtype": "uint8"}}, {"name": "block_5_project_BN/beta", "shape": [32], "dtype": "float32", "quantization": {"min": -0.005504665282719276, "scale": 4.3687819704121234e-05, "dtype": "uint8"}}, {"name": "block_5_project_BN/moving_mean", "shape": [32], "dtype": "float32", "quantization": {"min": -1.9056953949086808, "scale": 0.017168426981159286, "dtype": "uint8"}}, {"name": "block_5_project_BN/moving_variance", "shape": [32], "dtype": "float32", "quantization": {"min": 0.12714411318302155, "scale": 0.002175016672003503, "dtype": "uint8"}}, {"name": "block_6_depthwise/depthwise_kernel", "shape": [3, 3, 192, 1], "dtype": "float32", "quantization": {"min": -1.9919412276324102, "scale": 0.016599510230270086, "dtype": "uint8"}}, {"name": "block_6_depthwise_BN/gamma", "shape": [192], "dtype": "float32", "quantization": {"min": 0.420335054397583, "scale": 0.006593481699625651, "dtype": "uint8"}}, {"name": "block_6_depthwise_BN/beta", "shape": [192], "dtype": "float32", "quantization": {"min": -1.4897216768825756, "scale": 0.026135468015483783, "dtype": "uint8"}}, {"name": "block_6_depthwise_BN/moving_mean", "shape": [192], "dtype": "float32", "quantization": {"min": -15.615378682753619, "scale": 0.12104944715312883, "dtype": "uint8"}}, {"name": "block_6_depthwise_BN/moving_variance", "shape": [192], "dtype": "float32", "quantization": {"min": 0.2752147912979126, "scale": 0.3638003195033354, "dtype": "uint8"}}, {"name": "block_6_expand/kernel", "shape": [1, 1, 32, 192], "dtype": "float32", "quantization": {"min": -0.6454922044978422, "scale": 0.005122954003951128, "dtype": "uint8"}}, {"name": "block_6_expand_BN/gamma", "shape": [192], "dtype": "float32", "quantization": {"min": 0.4613747000694275, "scale": 0.009208900087019977, "dtype": "uint8"}}, {"name": "block_6_expand_BN/beta", "shape": [192], "dtype": "float32", "quantization": {"min": -1.8506022621603573, "scale": 0.015421685518002978, "dtype": "uint8"}}, {"name": "block_6_expand_BN/moving_mean", "shape": [192], "dtype": "float32", "quantization": {"min": -0.015790125355124474, "scale": 0.00013269012903465945, "dtype": "uint8"}}, {"name": "block_6_expand_BN/moving_variance", "shape": [192], "dtype": "float32", "quantization": {"min": 2.531035900115967, "scale": 0.12329034431307924, "dtype": "uint8"}}, {"name": "block_6_project/kernel", "shape": [1, 1, 192, 64], "dtype": "float32", "quantization": {"min": -0.9001455482314615, "scale": 0.005807390633751365, "dtype": "uint8"}}, {"name": "block_6_project_BN/gamma", "shape": [64], "dtype": "float32", "quantization": {"min": 0.871034562587738, "scale": 0.021318587368609858, "dtype": "uint8"}}, {"name": "block_6_project_BN/beta", "shape": [64], "dtype": "float32", "quantization": {"min": -0.005764353516347268, "scale": 4.3669344820812635e-05, "dtype": "uint8"}}, {"name": "block_6_project_BN/moving_mean", "shape": [64], "dtype": "float32", "quantization": {"min": -6.049761042875402, "scale": 0.04290610668705959, "dtype": "uint8"}}, {"name": "block_6_project_BN/moving_variance", "shape": [64], "dtype": "float32", "quantization": {"min": 0.17355650663375854, "scale": 0.037639119812086515, "dtype": "uint8"}}, {"name": "block_7_depthwise/depthwise_kernel", "shape": [3, 3, 384, 1], "dtype": "float32", "quantization": {"min": -3.283506883359423, "scale": 0.02296158659691904, "dtype": "uint8"}}, {"name": "block_7_depthwise_BN/gamma", "shape": [384], "dtype": "float32", "quantization": {"min": 0.2517958879470825, "scale": 0.009510044490589816, "dtype": "uint8"}}, {"name": "block_7_depthwise_BN/beta", "shape": [384], "dtype": "float32", "quantization": {"min": -3.617105172662174, "scale": 0.021152661828433766, "dtype": "uint8"}}, {"name": "block_7_depthwise_BN/moving_mean", "shape": [384], "dtype": "float32", "quantization": {"min": -21.45985402686923, "scale": 0.09453680188048119, "dtype": "uint8"}}, {"name": "block_7_depthwise_BN/moving_variance", "shape": [384], "dtype": "float32", "quantization": {"min": 0.0006586097297258675, "scale": 0.05018277784476203, "dtype": "uint8"}}, {"name": "block_7_expand/kernel", "shape": [1, 1, 64, 384], "dtype": "float32", "quantization": {"min": -0.32571327651248255, "scale": 0.0023100232376771813, "dtype": "uint8"}}, {"name": "block_7_expand_BN/gamma", "shape": [384], "dtype": "float32", "quantization": {"min": 0.12612959742546082, "scale": 0.005772583741767734, "dtype": "uint8"}}, {"name": "block_7_expand_BN/beta", "shape": [384], "dtype": "float32", "quantization": {"min": -1.5304296544953888, "scale": 0.01937252727209353, "dtype": "uint8"}}, {"name": "block_7_expand_BN/moving_mean", "shape": [384], "dtype": "float32", "quantization": {"min": -0.0029006404975684837, "scale": 2.028419928369569e-05, "dtype": "uint8"}}, {"name": "block_7_expand_BN/moving_variance", "shape": [384], "dtype": "float32", "quantization": {"min": 0.8411570191383362, "scale": 0.02577291166081148, "dtype": "uint8"}}, {"name": "block_7_project/kernel", "shape": [1, 1, 384, 64], "dtype": "float32", "quantization": {"min": -0.5307157537516425, "scale": 0.004051265295814065, "dtype": "uint8"}}, {"name": "block_7_project_BN/gamma", "shape": [64], "dtype": "float32", "quantization": {"min": 0.6181355118751526, "scale": 0.02001556859296911, "dtype": "uint8"}}, {"name": "block_7_project_BN/beta", "shape": [64], "dtype": "float32", "quantization": {"min": -0.0041755578170220055, "scale": 3.5088721151445424e-05, "dtype": "uint8"}}, {"name": "block_7_project_BN/moving_mean", "shape": [64], "dtype": "float32", "quantization": {"min": -0.9007915814717611, "scale": 0.013246935021643546, "dtype": "uint8"}}, {"name": "block_7_project_BN/moving_variance", "shape": [64], "dtype": "float32", "quantization": {"min": 0.10893890261650085, "scale": 0.006547241701799281, "dtype": "uint8"}}, {"name": "block_8_depthwise/depthwise_kernel", "shape": [3, 3, 384, 1], "dtype": "float32", "quantization": {"min": -3.421600599849925, "scale": 0.026941737006692324, "dtype": "uint8"}}, {"name": "block_8_depthwise_BN/gamma", "shape": [384], "dtype": "float32", "quantization": {"min": 0.3288751542568207, "scale": 0.016066760292240218, "dtype": "uint8"}}, {"name": "block_8_depthwise_BN/beta", "shape": [384], "dtype": "float32", "quantization": {"min": -6.1919710215400245, "scale": 0.03276175143671971, "dtype": "uint8"}}, {"name": "block_8_depthwise_BN/moving_mean", "shape": [384], "dtype": "float32", "quantization": {"min": -9.47496849228354, "scale": 0.045772794648712756, "dtype": "uint8"}}, {"name": "block_8_depthwise_BN/moving_variance", "shape": [384], "dtype": "float32", "quantization": {"min": 0.005331756081432104, "scale": 0.06853604503158553, "dtype": "uint8"}}, {"name": "block_8_expand/kernel", "shape": [1, 1, 64, 384], "dtype": "float32", "quantization": {"min": -0.49732350742115694, "scale": 0.0034536354682024786, "dtype": "uint8"}}, {"name": "block_8_expand_BN/gamma", "shape": [384], "dtype": "float32", "quantization": {"min": 0.08730637282133102, "scale": 0.005667629458156287, "dtype": "uint8"}}, {"name": "block_8_expand_BN/beta", "shape": [384], "dtype": "float32", "quantization": {"min": -1.4636034544776468, "scale": 0.01449112331165987, "dtype": "uint8"}}, {"name": "block_8_expand_BN/moving_mean", "shape": [384], "dtype": "float32", "quantization": {"min": -0.005364406634779537, "scale": 3.777751151253195e-05, "dtype": "uint8"}}, {"name": "block_8_expand_BN/moving_variance", "shape": [384], "dtype": "float32", "quantization": {"min": 1.0680007934570312, "scale": 0.04109915565041935, "dtype": "uint8"}}, {"name": "block_8_project/kernel", "shape": [1, 1, 384, 64], "dtype": "float32", "quantization": {"min": -0.2861580508596757, "scale": 0.0022532129988950844, "dtype": "uint8"}}, {"name": "block_8_project_BN/gamma", "shape": [64], "dtype": "float32", "quantization": {"min": 0.6629599928855896, "scale": 0.012619209523294487, "dtype": "uint8"}}, {"name": "block_8_project_BN/beta", "shape": [64], "dtype": "float32", "quantization": {"min": -0.004907045431215973, "scale": 3.6348484675673875e-05, "dtype": "uint8"}}, {"name": "block_8_project_BN/moving_mean", "shape": [64], "dtype": "float32", "quantization": {"min": -1.0952805853357501, "scale": 0.00799474879807117, "dtype": "uint8"}}, {"name": "block_8_project_BN/moving_variance", "shape": [64], "dtype": "float32", "quantization": {"min": 0.08248484879732132, "scale": 0.0016130209845655104, "dtype": "uint8"}}, {"name": "block_9_depthwise/depthwise_kernel", "shape": [3, 3, 384, 1], "dtype": "float32", "quantization": {"min": -2.8308741663016526, "scale": 0.019796322841270298, "dtype": "uint8"}}, {"name": "block_9_depthwise_BN/gamma", "shape": [384], "dtype": "float32", "quantization": {"min": 0.37355709075927734, "scale": 0.007731388129440009, "dtype": "uint8"}}, {"name": "block_9_depthwise_BN/beta", "shape": [384], "dtype": "float32", "quantization": {"min": -4.168201917760513, "scale": 0.02510965010699104, "dtype": "uint8"}}, {"name": "block_9_depthwise_BN/moving_mean", "shape": [384], "dtype": "float32", "quantization": {"min": -4.660073896482879, "scale": 0.028589410407870424, "dtype": "uint8"}}, {"name": "block_9_depthwise_BN/moving_variance", "shape": [384], "dtype": "float32", "quantization": {"min": 0.07740814983844757, "scale": 0.019148370974204118, "dtype": "uint8"}}, {"name": "block_9_expand/kernel", "shape": [1, 1, 64, 384], "dtype": "float32", "quantization": {"min": -0.3173637390136719, "scale": 0.0030225118001302085, "dtype": "uint8"}}, {"name": "block_9_expand_BN/gamma", "shape": [384], "dtype": "float32", "quantization": {"min": 0.22019173204898834, "scale": 0.0070878037635017845, "dtype": "uint8"}}, {"name": "block_9_expand_BN/beta", "shape": [384], "dtype": "float32", "quantization": {"min": -1.3814491608563593, "scale": 0.011909044490141027, "dtype": "uint8"}}, {"name": "block_9_expand_BN/moving_mean", "shape": [384], "dtype": "float32", "quantization": {"min": -0.006322900861428649, "scale": 4.8266418789531674e-05, "dtype": "uint8"}}, {"name": "block_9_expand_BN/moving_variance", "shape": [384], "dtype": "float32", "quantization": {"min": 1.493988275527954, "scale": 0.04634270294039857, "dtype": "uint8"}}, {"name": "block_9_project/kernel", "shape": [1, 1, 384, 64], "dtype": "float32", "quantization": {"min": -0.5005556676902023, "scale": 0.003293129392698699, "dtype": "uint8"}}, {"name": "block_9_project_BN/gamma", "shape": [64], "dtype": "float32", "quantization": {"min": 0.6954193711280823, "scale": 0.012100384983361936, "dtype": "uint8"}}, {"name": "block_9_project_BN/beta", "shape": [64], "dtype": "float32", "quantization": {"min": -0.003996295722968438, "scale": 2.895866465919158e-05, "dtype": "uint8"}}, {"name": "block_9_project_BN/moving_mean", "shape": [64], "dtype": "float32", "quantization": {"min": -1.7006860211783765, "scale": 0.010563267212288053, "dtype": "uint8"}}, {"name": "block_9_project_BN/moving_variance", "shape": [64], "dtype": "float32", "quantization": {"min": 0.07476712763309479, "scale": 0.0011210494766048357, "dtype": "uint8"}}, {"name": "bn_Conv1/gamma", "shape": [32], "dtype": "float32", "quantization": {"min": 0.15859852731227875, "scale": 0.016216956458839717, "dtype": "uint8"}}, {"name": "bn_Conv1/beta", "shape": [32], "dtype": "float32", "quantization": {"min": -6.16716075224035, "scale": 0.04282750522389132, "dtype": "uint8"}}, {"name": "bn_Conv1/moving_mean", "shape": [32], "dtype": "float32", "quantization": {"min": -0.2388407318615446, "scale": 0.0022321563725378, "dtype": "uint8"}}, {"name": "bn_Conv1/moving_variance", "shape": [32], "dtype": "float32", "quantization": {"min": 3.907289699258179e-36, "scale": 0.005602688415377748, "dtype": "uint8"}}, {"name": "dense/kernel", "shape": [1280, 1024], "dtype": "float32", "quantization": {"min": -0.05454465536510243, "scale": 0.00042948547531576717, "dtype": "uint8"}}, {"name": "dense/bias", "shape": [1024], "dtype": "float32", "quantization": {"min": -0.0020718295565422843, "scale": 1.918360700502115e-05, "dtype": "uint8"}}, {"name": "dense_1/kernel", "shape": [1024, 1024], "dtype": "float32", "quantization": {"min": -0.057485860118678976, "scale": 0.00045264456786361397, "dtype": "uint8"}}, {"name": "dense_1/bias", "shape": [1024], "dtype": "float32", "quantization": {"min": -0.002018160929026849, "scale": 1.8515237880980266e-05, "dtype": "uint8"}}, {"name": "dense_2/kernel", "shape": [1024, 1], "dtype": "float32", "quantization": {"min": -0.07829145359642366, "scale": 0.0006164681385545169, "dtype": "uint8"}}, {"name": "dense_2/bias", "shape": [1], "dtype": "float32", "quantization": {"min": -5.9823316405527294e-05, "scale": 1.0, "dtype": "uint8"}}, {"name": "expanded_conv_depthwise/depthwise_kernel", "shape": [3, 3, 32, 1], "dtype": "float32", "quantization": {"min": -25.74281422484155, "scale": 0.19355499417174096, "dtype": "uint8"}}, {"name": "expanded_conv_depthwise_BN/gamma", "shape": [32], "dtype": "float32", "quantization": {"min": -0.09372427218100604, "scale": 0.007209559398538926, "dtype": "uint8"}}, {"name": "expanded_conv_depthwise_BN/beta", "shape": [32], "dtype": "float32", "quantization": {"min": -1.36798802170099, "scale": 0.018739561941109453, "dtype": "uint8"}}, {"name": "expanded_conv_depthwise_BN/moving_mean", "shape": [32], "dtype": "float32", "quantization": {"min": -13.662699740540749, "scale": 0.09972773533241422, "dtype": "uint8"}}, {"name": "expanded_conv_depthwise_BN/moving_variance", "shape": [32], "dtype": "float32", "quantization": {"min": 3.908455938312904e-36, "scale": 1.6299066281786152, "dtype": "uint8"}}, {"name": "expanded_conv_project/kernel", "shape": [1, 1, 32, 16], "dtype": "float32", "quantization": {"min": -1.2893707537183574, "scale": 0.008831306532317517, "dtype": "uint8"}}, {"name": "expanded_conv_project_BN/gamma", "shape": [16], "dtype": "float32", "quantization": {"min": 2.637812614440918, "scale": 0.009855462990555109, "dtype": "uint8"}}, {"name": "expanded_conv_project_BN/beta", "shape": [16], "dtype": "float32", "quantization": {"min": -0.03885560184717179, "scale": 0.0004466161131858826, "dtype": "uint8"}}, {"name": "expanded_conv_project_BN/moving_mean", "shape": [16], "dtype": "float32", "quantization": {"min": -4.357224674785838, "scale": 0.029243118622723746, "dtype": "uint8"}}, {"name": "expanded_conv_project_BN/moving_variance", "shape": [16], "dtype": "float32", "quantization": {"min": 0.21818426251411438, "scale": 0.0032110652502845317, "dtype": "uint8"}}]}]}